weights/current.pt (torch, 272215 bytes, 6 tensors)

fc1.weight f4 [256, 4]
-0.155951 -0.20584732 -0.16590863 0.017603105 0.0032818944 0.0661887 1.1480725 0.19248101
-0.05682033 0.028879985 0.33668187 -0.14269729 -0.3357453 -0.29702422 -0.21860376 0.127551
0.012911419 0.030993406 1.10927 0.14195427 -0.15355854 0.20622857 -0.018039504 0.21580443
0.00333681 -0.039889444 -0.8898323 -0.100394264 0.060088813 0.055640545 -0.048925463 -0.011437376
-0.008717673 -0.002111015 0.12643981 -0.070485435 -0.13599265 0.2283506 0.000895636 0.15629643
0.5560088 -0.041693084 -0.13141382 0.19577439 0.33041504 -0.17160307 -0.015494753 0.23808488
0.1364972 0.2742277 -0.09153389 0.09390679 0.10709016 -0.11523997 -0.3453521 -0.07202015
0.08824353 -0.12282019 0.29396856 -0.18944773 -0.08341967 -0.09136387 -0.32024178 0.022575654
-0.016396413 0.058573946 -0.18171021 0.043814775 0.12271081 0.2190337 0.2821885 -0.3019177
-0.07953701 0.09255765 0.6222946 0.2023589 -0.078470886 0.032193974 -0.0749149 -0.05524666
0.18954825 0.16431348 0.60177207 0.1533912 -0.23628028 -0.006147486 0.48447266 -0.08957012
0.38160497 0.178817 -0.5754757 -0.14825097 0.2643562 0.12968628 -0.06033593 -0.022644123
0.40456742 0.20279704 -0.65045536 -0.1788297 0.08148369 -0.07876594 -0.14944582 0.059112787
-0.19662751 -0.24571027 -0.5217949 -0.25131267 0.15749589 0.031548418 0.33352247 0.022626584
0.029031886 0.07885808 0.8977552 0.17423356 0.20777842 0.11748263 0.64070797 0.13925107
-0.010309484 -0.117643595 0.6285161 0.2683362 -0.057323363 0.047978394 0.9083157 0.051516518
0.2948503 0.21685602 -0.44655597 0.10193737 0.13544318 -0.09480686 -0.58236533 -0.19654904
0.26186052 -0.054161843 -0.662754 -0.059326287 -0.12342546 0.22751363 0.14415969 0.11350292
-0.016753254 0.037609894 0.088801846 -0.123360425 0.023931747 0.040556442 -0.13080686 0.10709994
-0.015605081 -0.07324099 0.22553727 0.1437596 0.15346037 0.06918416 0.7811025 0.21231586
0.03947322 0.00024337103 0.7512168 0.066291556 0.5325538 0.15565571 0.3041556 0.20468128
0.10662853 -0.09398961 -0.8836224 -0.21685657 -0.010332403 0.067513235 0.9756434 0.17285052
0.06932508 -0.105886884 -1.1045392 -0.23542526 -0.038771603 -0.08705658 -0.761768 -0.20557943
-0.015533019 0.15926464 0.8022367 0.072974585 -0.0636138 -0.460834 -0.022465028 -0.30305508
0.025010848 -0.29187828 -0.291631 0.10829973 -0.18716371 -0.12629487 -0.7015488 -0.11254792
0.03385193 0.1652746 -0.60880005 -0.112403266 -0.017493028 -0.03975936 0.35366693 0.13251145
0.07880779 0.15447472 0.8812837 -0.11998692 0.02965247 -0.056763016 0.309708 0.2106951
-0.4482408 -0.10467598 0.2491856 0.089907 -0.39030504 0.036782615 0.20203558 0.04058006
-0.046838097 -0.12830219 0.25295454 -0.18597314 0.13923627 -0.12331798 -0.58450377 0.008058497
-0.35187656 0.04091878 0.35144344 0.054664206 0.022109205 -0.061342124 0.12757745 0.09514676
0.3597788 -0.07694015 -0.5815177 0.05366062 -0.42445335 0.11684542 0.44932353 -0.010073466
-0.119355574 0.19242975 0.14068983 -0.15031126 0.12513855 0.17235461 -0.7349558 -0.070312105
00000000: 9eb1 1fbe a4c9 52be f4e3 29be 6334 903c
00000010: 0d15 573b f18d 873d 0af4 923f be19 453e
00000020: 6fbc 68bd b895 ec3c 9161 ac3e 3d1f 12be
00000030: cfe6 abbe 8f13 98be aad9 5fbe bb9c 023e
00000040: 6b8a 533c e2e5 fd3c 8ffc 8d3f 765c 113e
00000050: 733e 1dbe 952d 533e 95c7 93bc d6fb 5c3e
00000060: 62ae 5a3b 1d63 23bd 0dcc 63bf 829b cdbd
00000070: b01f 763d 57e7 633d 1166 48bd d563 3bbc
00000080: 92d4 0ebc f458 0abb 7079 013e ab5a 90bd
00000090: a841 0bbe bdd4 693e 1dc9 6a3a 2c0c 203e
000000a0: 9856 0e3f 5ec6 2abd 5891 06be 1579 483e
000000b0: 292c a93e b7b8 2fbe b4dd 7dbc 86cc 733e
000000c0: ecc5 0b3e 9367 8c3e 1f76 bbbd 3452 c03d
000000d0: 1652 db3d ef02 ecbd fed1 b0be 4d7f 93bd
000000e0: 06b9 b43d 2789 fbbd 0c83 963e 96fe 41be
000000f0: efd7 aabd fb1c bbbd bbf6 a3be 94f0 b83c
00000100: c551 86bc 3ceb 6f3d 3e12 3abe 1f77 333d
00000110: ce4f fb3d 5f4a 603e 037b 903e f594 9abe
00000120: 4de4 a2bd dd8e bd3d b34e 1f3f 2c37 4f3e
00000130: 58b5 a0bd d4dd 033d fc6c 99bd 524a 62bd
00000140: f018 423e cb41 283e bc0d 1a3f 9512 1d3e
00000150: 75f3 71be da70 c9bb cd0c f83e 8a70 b7bd
00000160: ba61 c33e ce1b 373e 6052 13bf 1acf 17be
00000170: b259 873e 7bcc 043e cf22 77bd 2b80 b9bc
00000180: 7623 cf3e 07aa 4f3e 3e84 26bf 221f 37be
00000190: ece0 a63d 0a50 a1bd 5308 19be 4020 723d
000001a0: b958 49be 799b 7bbe 5a94 05bf 0eac 80be
000001b0: 9a46 213e ea38 013d 75c3 aa3e 635b b93c
000001c0: 47d4 ed3c 5880 a13d 49d3 653f 486a 323e
000001d0: dec3 543e bc9a f03d 7005 243f d597 0e3e
000001e0: 1ce9 28bc 20ef f0bd 6ee6 203f 5d63 893e
000001f0: e7cb 6abd fe84 443d 6187 683f fc02 533d
00000200: 9ef6 963e 810f 5e3e fca2 e4be 8ac4 d03d
00000210: 9eb1 0a3e 192a c2bd e515 15bf 2744 49be
00000220: 9512 863e cfd8 5dbd 3faa 29bf 1f00 73bd
00000230: 7dc6 fcbd 55f9 683e 999e 133e 3874 e83d
00000240: 1f3e 89bc d50c 1a3d bedd b53d 64a4 fcbd
00000250: 830c c43c 831e 263d 3cf2 05be 3757 db3d
00000260: 74ac 7fbc 5fff 95bd 3ef3 663e b735 133e
00000270: b724 1d3e 6db0 8d3d 55f6 473f 5469 593e
00000280: acae 213d 6a31 7f39 bf4f 403f dec3 873d
00000290: 7255 083f 3664 1f3e 48ba 9b3e f897 513e
000002a0: 0f60 da3d a07d c0bd 1435 62bf a60f 5ebe
000002b0: 3d49 29bc 6144 8a3d c4c3 793f baff 303e
000002c0: 4ffa 8d3d 39db d8bd 8a61 8dbf 5213 71be
000002d0: f9ce 1ebd b84a b2bd 3a03 43bf 6a83 52be
000002e0: 347e 7ebc 4516 233e 625f 4d3f b373 953d
000002f0: f447 82bd 6ff2 ebbe 9408 b8bc 092a 9bbe
00000300: 8de3 cc3c 1271 95be a950 95be 40cc dd3d
00000310: d8a7 3fbe 7153 01be b498 33bf 867f e6bd
00000320: 52a8 0a3d bf3d 293e 52da 1bbf af33 e6bd
00000330: 8a4d 8fbc b6da 22bd d513 b53e 15b1 073e
00000340: fb65 a13d 9f2e 1e3e cf9b 613f b4bb f5bd
00000350: bde9 f23c 5680 68bd 0c92 9e3e 75c0 573e
00000360: d17f e5be 5c60 d6bd 832a 7f3e 2921 b83d
00000370: 10d6 c7be 5ea9 163d 6ae2 4e3e 4737 263d
00000380: 4ed9 3fbd a661 03be 4283 813e be6f 3ebe
00000390: f493 0e3e 238e fcbd 0aa2 15bf c907 043c
000003a0: 2a29 b4be 739a 273d 65f0 b33e 93e7 5f3d
000003b0: 5d1e b53c e141 7bbd aaa3 023e 4edc c23d
000003c0: ed34 b83e cc92 9dbd 58de 14bf 3dcb 5b3d
000003d0: f351 d9be a74c ef3d bc0d e63e 2e0b 25bc
000003e0: b270 f4bd 4e0c 453e ff10 103e 32eb 19be
000003f0: 5224 003e ba7d 303e 1026 3cbf cbff 8fbd

fc1.bias f4 [256]
0.18698959 -0.2053327 0.3758331 -0.10407803 -0.17268334 0.2696202 -0.14324453 0.38837248
0.316908 -0.18729167 0.2528436 -0.09768444 -0.108260356 0.30479798 0.34830144 0.39241734
0.29251748 0.19915378 0.29554984 0.3239501 -0.09683603 0.16200523 -0.19650881 0.24426778
0.056735262 0.32446194 -0.03460495 0.30541387 -0.1367458 -0.1316641 -0.15982541 -0.1837192
0.27098635 -0.16548814 -0.08843343 0.20070457 0.22580396 0.20790572 0.33960515 -0.036961168
0.14732815 0.113594756 -0.20704505 -0.18955468 -0.22175184 -0.1848371 0.21981978 0.047213998
-0.02219793 -0.037665434 0.24476911 0.3045071 0.117824085 -0.31172195 0.07227939 0.0071816547
0.38416243 0.3126576 0.21334606 0.23199978 -0.065790385 0.16487204 0.37582687 -0.1839029
0.14763018 -0.03509783 -0.16674703 -0.16908288 0.09682489 0.014962721 0.37203655 -0.13811243
0.38391685 -0.14737971 0.33512276 0.40457794 0.14536034 0.1429678 0.10302108 -0.19059014
0.16596231 0.17526107 -0.11983157 0.09002476 0.22970502 0.21603805 0.3355045 0.4008321
0.31747553 -0.13597046 -0.056513894 0.23161499 0.0112391645 -0.1609189 -0.1647125 -0.18310967
0.17657408 0.19705135 0.22673729 -0.19721536 -0.10241838 -0.19265744 -0.25913048 0.29635558
-0.056879647 0.053667802 0.19327818 -0.25662655 0.117753185 -0.16267473 -0.31834108 0.31839728
-0.14084776 0.2767168 0.39583007 0.24864407 0.31602764 0.04365889 0.3562473 0.33414808
0.18674932 0.335814 0.35006884 0.28951448 0.25293893 -0.16473673 0.18711294 0.3130387
-0.16106312 -0.1357023 0.27118552 0.26277828 0.10174291 -0.021515956 0.13580292 0.40330496
0.3248273 0.29646853 0.36777148 -0.27389508 -0.017004203 0.33216375 0.21316658 -0.11527603
-0.038548652 0.11412933 0.20678599 -0.21414481 -0.1034338 0.21059456 0.054169413 -0.1044293
-0.11577821 -0.21050215 0.37425476 0.28466025 -0.09938546 -0.07697636 0.23423482 0.3605461
-0.15490262 0.299803 0.06247719 0.36452502 0.3595392 0.22503217 0.34551895 -0.16615206
-0.16086228 0.23258844 0.32431635 -0.21669912 -0.22242892 0.090810694 -0.12645589 0.19334541
0.21130522 0.09038946 -0.19257587 0.0744169 -0.0008565575 0.22392006 0.31736502 0.014147293
-0.19815351 0.36735344 0.27060205 0.21241835 0.22035143 -0.018076694 0.17720507 0.08463476
0.28656211 -0.28843096 0.18724439 -0.20709233 -0.013023866 0.38987103 0.10859683 0.38997436
-0.18180697 -0.20749673 -0.18883945 0.31328216 0.26206762 0.35519195 -0.18743065 -0.22439085
-0.1757392 -0.05377843 0.11658344 0.24010466 -0.11130701 0.3353913 0.12627833 0.22968774
0.31699726 0.24363844 0.3582628 -0.119274296 -0.17686254 0.040273413 0.12116176 -0.19443673
0.1432166 0.3770508 0.27852792 0.3639986 0.28110912 -0.19770509 0.32985836 0.23535542
0.10746801 0.33666632 0.35633492 -0.043610036 -0.27165785 0.078014635 -0.124561794 -0.1809362
-0.14839832 0.26410463 -0.1690244 -0.053845894 0.12097796 0.22692236 0.3588529 0.37042463
0.14665066 -0.0013177586 0.18712385 0.36309165 -0.14957039 -0.14390752 -0.117030054 -0.04266211
00000000: 337a 3f3e bc42 52be 326d c03e dd26 d5bd
00000010: e7d3 30be a90b 8a3e b2ae 12be c2d8 c63e
00000020: c441 a23e 63c9 3fbe b774 813e c80e c8bd
00000030: 9bb7 ddbd 7b0e 9c3e 9154 b23e edea c83e
00000040: dac4 953e f8ee 4b3e 4f52 973e cadc a53e
00000050: f851 c6bd b3e4 253e 9b39 49be 5521 7a3e
00000060: 3c63 683d e01f a63e ecbd 0dbd 355f 9c3e
00000070: 1707 0cbe f4d2 06be 46a9 23be e320 3cbe
00000080: b9be 8a3e b975 29be 961c b5bd 8085 4d3e
00000090: 2739 673e 3de5 543e bae0 ad3e 9864 17bd
000000a0: 31dd 163e 5ea4 e83d 9e03 54be 9f1a 42be
000000b0: ea12 63be f045 3dbe 7018 613e 7763 413d
000000c0: 6fd8 b5bc 1247 1abd c1a4 7a3e 5be8 9b3e
000000d0: c14d f13d 059a 9fbe 3807 943d 1654 eb3b
000000e0: f0b0 c43e a814 a03e 6477 5a3e 5a91 6d3e
000000f0: 1cbd 86bd 37d4 283e 616c c03e 0b51 3cbe
00000100: 5e2c 173e bec2 0fbd bcbf 2abe 1024 2dbe
00000110: 214c c63d 3326 753c 937b be3e 586d 0dbe
00000120: c090 c43e b5ea 16be 3695 ab3e d724 cf3e
00000130: 57d9 143e 2766 123e b7fc d23d 102a 43be
00000140: 06f2 293e a377 333e 416a f5bd e75e b83d
00000150: cb37 6b3e 1439 5d3e 3fc7 ab3e dd39 cd3e
00000160: 278c a23e d73b 0bbe 1d7b 67bd 7b2c 6d3e
00000170: 7924 383c edc7 24be 65aa 28be 1a81 3bbe
00000180: d6cf 343e d4c7 493e d22d 683e d3f2 49be
00000190: bac0 d1bd fe47 45be c0ac 84be ebbb 973e
000001a0: a2fa 68bd c5d2 5b3d b7ea 453e 8e64 83be
000001b0: 9528 f13d 3494 26be 9afd a2be f804 a33e
000001c0: 653a 10be d3ad 8d3e 3daa ca3e 8d9c 7e3e
000001d0: 60ce a13e aad3 323d 0c66 b63e 7515 ab3e
000001e0: 373b 3f3e d0ef ab3e 393c b33e 3e3b 943e
000001f0: 3681 813e bfb0 28be 899a 3f3e 9c46 a03e
00000200: bbed 24be 8bf5 0abe d4d8 8a3e e08a 863e
00000210: 965e d03d 3b42 b0bc ec0f 0b3e fd7d ce3e
00000220: c44f a63e b9ca 973e 8b4c bc3e fa3b 8cbe
00000230: 664c 8bbc 5e11 aa3e 5748 5a3e d715 ecbd
00000240: 31e5 1dbd a3bc e93d b5bf 533e c748 5bbe
00000250: 1ad5 d3bd 1aa6 573e bfe0 5d3d 07df d5bd
00000260: 201d edbd e08d 57be 529e bf3e fdbe 913e
00000270: 9b8a cbbd c8a5 9dbd 41db 6f3e 8099 b83e
00000280: cb9e 1ebe c77f 993e 15e8 7f3d 06a3 ba3e
00000290: 8615 b83e d56e 663e dce7 b03e c423 2abe
000002a0: 15b9 24be aa2b 6e3e cb0c a63e 60e6 5dbe
000002b0: 68c4 63be f5fa b93d a77d 01be 57fc 453e
000002c0: 6560 583e 1c1e b93d 9c32 45be e367 983d
000002d0: 9a8a 60ba 4d4b 653e ab7d a23e 0cca 673c
000002e0: c1e8 4abe c015 bc3e 5a8c 8a3e 3284 593e
000002f0: cea3 613e 9315 94bc 3f75 353e fd54 ad3d
00000300: 45b8 923e 39ad 93be febc 3f3e 0310 54be
00000310: 0e62 55bc 2d9d c73e 0468 de3d b8aa c73e
00000320: 9b2b 3abe 067a 54be 215f 41be 8566 a03e
00000330: ba2d 863e b8db b53e d2ed 3fbe b7c6 65be
00000340: faf4 33be c546 5cbd 4cc3 ee3d ffdd 753e
00000350: eef4 e3bd 69b8 ab3e 1b4f 013e 4333 6b3e
00000360: 774d a23e 5b7c 793e 396e b73e 1546 f4bd
00000370: 741b 35be bcf5 243d a823 f83d 6c1a 47be
00000380: 5fa7 123e cd0c c13e 369b 8e3e 065e ba3e
00000390: 89ed 8f3e 3473 4abe 32e3 a83e 0301 713e
000003a0: 3018 dc3d 875f ac3e 8871 b63e 70a0 32bd
000003b0: bd16 8bbe 23c6 9f3d 411a ffbd 5747 39be
000003c0: bbf5 17be b938 873e bb14 2dbe 838d 5cbd
000003d0: 4bc3 f73d 565e 683e 91bb b73e 4ca8 bd3e
000003e0: 972b 163e a4b8 acba 659d 3f3e 26e7 b93e
000003f0: fb28 19be 7e5c 13be 74ad efbd 77be 2ebd

fc2.weight f4 [256, 256]
0.03781265 0.19691153 0.25936928 -0.28590626 0.24343888 0.13533323 -2.4802291 0.21391244
0.20236042 -0.026077822 -0.030599773 -0.39461052 -0.4204797 0.20754752 0.22947873 0.12576722
0.16790019 0.1865043 0.10748978 0.22584553 -0.26472145 0.21845594 -0.6094965 0.13477255
-0.70436156 0.11240726 -0.32011834 0.18463674 -0.1480586 -0.6540687 -0.12117125 -0.1032843
-0.29507902 -1.3335211 -1.3494264 0.18789247 0.19213149 0.12985113 0.10217376 0.04604372
-0.21554652 -0.033110935 -2.269423 0.12191911 -2.3833046 -1.2042931 0.10168444 0.018859603
-0.029529814 -0.45685208 -0.12771156 0.11501817 0.1661563 -0.43499842 0.20461755 -0.064372204
0.23731123 0.14773738 0.11606788 0.12109761 -0.6733414 0.3380256 0.21743885 -0.96427894
0.14612871 -0.69249433 -2.4278953 0.33544087 -0.32780832 0.04575706 0.08112909 -1.146055
0.16103214 -2.2827349 0.21582787 0.22734225 0.1676405 0.074579544 0.30278343 -1.9187498
0.29271376 0.17245375 -0.16078931 -0.17949651 -0.104287945 0.044454433 0.13391091 -0.09835695
0.007992089 0.049953856 -0.046070527 0.11675044 0.40081108 0.14916061 -0.02744965 0.07276741
0.12803617 -0.07822578 0.10450849 -2.7556381 -1.0923798 -0.38638508 -0.34287792 0.14811593
0.00764706 0.3472924 -0.33584705 0.0063404185 0.06071789 -0.008013738 -0.63301593 0.09290311
-0.818976 0.11499726 0.21405292 0.13341339 0.16722174 0.1526343 0.12334852 0.08799296
-0.18028918 0.20520653 0.08606502 0.07168636 0.13571407 -0.08648237 0.20776147 0.1396366
0.014926258 -0.26413846 0.22038028 0.116749346 -0.15599364 0.13370386 -0.17728813 0.20702632
0.18609299 0.22074525 0.21906123 -0.48712683 -0.848634 0.12239845 0.21843368 -0.0056846594
-0.31993088 -0.023619298 0.18367559 -0.35826594 -1.201945 0.13756278 -0.3619598 -0.14110611
-0.13305417 -0.17924333 0.10284081 0.08378792 -0.1752378 -1.2276174 0.103803515 0.181421
-0.061144385 0.12409383 -0.36387455 0.22376055 0.17096394 0.11489146 0.164165 -2.0700517
-1.084354 0.18562332 0.19380437 -2.761459 0.012767723 0.3001716 -0.24447203 0.11849356
0.16978091 0.13701387 0.14602256 -0.29937062 0.076089926 -0.0064010653 0.14376119 0.054027155
0.22052278 0.17866455 0.16614164 -0.13906434 0.08988765 -0.3296698 0.11007367 -0.9603871
0.08926968 -0.65513515 -0.15492955 0.1917517 -0.17907964 0.1928888 0.18340725 0.22989413
0.16922455 -2.9295568 0.23823172 0.10424781 0.19292049 0.20981847 0.0015024736 -0.20828128
-1.9256661 0.084888615 -0.10040329 0.05331202 -0.16261998 0.18260187 -0.20994914 0.07856447
0.2099325 -0.082112364 0.10012325 0.033406485 0.0577998 0.17680208 -0.7615702 0.24762551
-0.039186943 0.1737604 0.2390144 0.123893276 0.17004159 0.08952665 0.12478219 0.020697923
0.29399124 0.20589519 0.181188 -0.14013374 -0.11827888 -0.085319445 -2.4683065 -2.2492056
-2.3983018 0.08228053 0.18373862 -0.2144464 -0.08960908 0.15093441 0.15863867 0.106519856
0.21314973 0.15114193 0.11811382 0.17065372 0.26638046 -0.57499045 -1.4632283 0.23821442
00000000: 70e1 1a3d 2da3 493e 0dcc 843e 4e62 92be
00000010: 0b48 793e cb94 0a3e 13bc 1ec0 dd0b 5b3e
00000020: 9237 4f3e 28a1 d5bc 60ac fabc 640a cabe
00000030: 1e49 d7be 5687 543e 79fc 6a3e 1fc9 003e
00000040: 07ee 2b3e fcfa 3e3e 9a23 dc3d 0d44 673e
00000050: 9289 87be eab2 5f3e f607 1cbf d101 0a3e
00000060: 0a51 34bf c735 e63d 8de6 a3be 6a11 3d3e
00000070: ac9c 17be 0c71 27bf a228 f8bd b886 d3bd
00000080: 9914 97be d2b0 aabf 01ba acbf e266 403e
00000090: 1ebe 443e b2f7 043e 7a40 d13d 5798 3c3d
000000a0: 3ab8 5cbe 559f 07bd 3a3e 11c0 bab0 f93d
000000b0: 1088 18c0 4726 9abf ef3f d03d 747f 9a3c
000000c0: 82e8 f1bc 84e8 e9be d2c6 02be a58e eb3d
000000d0: e124 2a3e 1db8 debe 4387 513e 93d5 83bd
000000e0: b701 733e 7848 173e ffb4 ed3d 0602 f83d
000000f0: 1a60 2cbf b111 ad3e 4aa8 5e3e fcda 76bf
00000100: c4a2 153e 4f47 31bf a362 1bc0 e8be ab3e
00000110: 7ed6 a7be c16b 3b3d 0227 a63d eeb1 92bf
00000120: 9ce5 243e 5418 12c0 fb01 5d3e 68cc 683e
00000130: f4a9 2b3e 29bd 983d 6e06 9b3e 9899 f5bf
00000140: 94de 953e b797 303e f4a5 24be efcd 37be
00000150: eb94 d5bd da15 363d f11f 093e 5e6f c9bd
00000160: 40f1 023c 6a9c 4c3d 73b4 3cbd db1a ef3d
00000170: 1c37 cd3e 8fbd 183e 17de e0bc 1407 953d
00000180: ea1b 033e d634 a0bd 8c08 d63d 605c 30c0
00000190: 1ad3 8bbf 44d4 c5be b28d afbe b4ab 173e
000001a0: 3094 fa3b 4fd0 b13e 25f4 abbe 49c3 cf3b
000001b0: 52b3 783d 0e4c 03bc 550d 22bf fc43 be3d
000001c0: 69a8 51bf af83 eb3d b030 5b3e 859d 083e
000001d0: 2d3c 2b3e 2a4c 1c3e 269e fc3d a735 b43d
000001e0: ba9d 38be a921 523e db42 b03d 4cd0 923d
000001f0: a1f8 0a3e ab1d b1bd 6cbf 543e e6fc 0e3e
00000200: 438d 743c 283d 87be 5eab 613e 481a ef3d
00000210: ccbc 1fbe aae9 083e 058b 35be b5fe 533e
00000220: 298f 3e3e 0b0b 623e 9651 603e b068 f9be
00000230: 1440 59bf 0aac fa3d 14ad 5f3e 6146 babb
00000240: fbcd a3be 427d c1bc 7415 3c3e a26e b7be
00000250: 55d9 99bf 42dd 0c3e cb52 b9be 1f7e 10be
00000260: 5a3f 08be 908b 37be 349e d23d 0099 ab3d
00000270: 8a71 33be 9122 9dbf f096 d43d 6dc6 393e
00000280: 8972 7abd e824 fe3d c44d babe 7c21 653e
00000290: 2c11 2f3e 374c eb3d df1a 283e ba7b 04c0
000002a0: 1dcc 8abf 0a14 3e3e a774 463e bfbb 30c0
000002b0: b62f 513c 18b0 993e e056 7abe c0ac f23d
000002c0: 0cdb 2d3e 5d4d 0c3e f086 153e 1b47 99be
000002d0: 09d5 9b3d 07c0 d1bb 2236 133e 944b 5d3d
000002e0: b9d0 613e d7f3 363e 0921 2a3e e266 0ebe
000002f0: 0417 b83d 7bca a8be 4e6e e13d eedb 75bf
00000300: 06d3 b63d f0b6 27bf daa5 1ebe 8f5a 443e
00000310: a760 37be a484 453e 1ccf 3b3e 5e69 6b3e
00000320: 3349 2d3e dc7d 3bc0 04f3 733e e07f d53d
00000330: f38c 453e a7da 563e a6ee c43a b047 55be
00000340: 3a7c f6bf 15da ad3d 3da0 cdbd b45d 5a3d
00000350: da85 26be fcfb 3a3e e8fc 56be 69e6 a03d
00000360: 8cf8 563e 872a a8bd 6b0d cd3d 3dd5 083d
00000370: 7cbf 6c3d 9b0b 353e 44f6 42bf 8b91 7d3e
00000380: 7d82 20bd 3fee 313e 31c0 743e c2bb fd3d
00000390: 621f 2e3e c059 b73d ce8d ff3d b18e a93c
000003a0: 0586 963e 30d6 523e 5989 393e 387f 0fbe
000003b0: 333c f2bd f6bb aebd bcf8 1dc0 fcf2 0fc0
000003c0: c77d 19c0 b282 a83d fa25 3c3e d697 5bbe
000003d0: f784 b7bd 8d8e 1a3e 2d72 223e 1527 da3d
000003e0: ec43 5a3e f3c4 1a3e a9e5 f13d d9bf 2e3e
000003f0: 0563 883e 9332 13bf 114b bbbf 7bee 733e

fc2.bias f4 [256]
0.1719189 0.016069094 0.12457132 -0.07108629 0.014904509 0.0018307255 0.074335 0.021871373
-0.0041528577 0.03775775 -0.0051329033 -0.022378538 0.14017858 0.11631502 0.0076908455 0.09488296
-0.016804757 -0.05672479 0.15093134 0.17798452 0.005454829 0.13555624 -0.019314196 0.08379388
0.106351845 0.15342994 0.06572603 0.19760346 -0.021708407 -0.013453384 0.10334724 0.008976626
0.14569612 -0.020329561 -0.0021771244 -0.024191944 0.1257024 -0.050186463 0.11065493 0.10901583
0.16719455 -0.01292797 -0.023456512 0.1536313 0.03376248 -0.031434756 0.053180866 0.15908128
-0.020117259 0.09187874 0.002702642 0.0102699855 0.010130484 0.0005968403 0.09799957 0.11185393
-0.0050829775 0.15428652 0.12255482 0.010526735 0.08908871 -0.1867122 0.011408834 -0.017009044
0.06850515 0.11089456 -0.0013872617 0.013681218 0.15589748 0.13357301 0.12904587 -0.050698675
-0.018532034 0.20330627 0.14103314 0.16871302 -0.0114988275 0.1266082 0.009281635 -0.013018456
0.13365094 0.17919865 0.017488748 0.11728659 -0.05000308 0.03586065 -0.05200719 0.026588958
-0.0048272368 0.015515356 0.0035750712 0.08855581 -0.022766735 0.13915719 0.12540479 0.08345787
0.16615634 0.15491547 0.10662631 0.14047466 0.008983547 0.082366966 0.15339571 0.067468375
0.10339177 0.04199663 0.16219468 0.15505116 0.19682448 0.01851447 0.005921297 -0.008105654
0.152819 0.05538651 -0.0071812877 -0.0225448 0.027188133 0.11762697 0.13304819 0.11647756
-0.024921332 0.119330175 0.022096679 -0.03706944 0.09699032 -0.05040326 0.12403774 0.019584218
0.11005714 0.09035914 0.15485708 -0.015953474 0.03385532 0.09614928 0.12229645 0.004247232
0.12268308 -0.016463941 0.09565535 0.17656659 0.16734186 0.0805008 0.036825612 -0.043759998
0.14400941 0.118306115 0.15154178 0.11286264 0.08713098 0.0054897573 0.09706965 -0.03122398
0.116991654 0.14588927 0.005186221 0.13919115 0.0092875585 0.14204141 0.17249228 0.14403974
0.009476746 0.08513513 0.09703887 0.17121652 0.07805358 0.048302345 0.10039153 0.011966219
-0.011990208 0.14817314 0.11832022 0.14438239 0.10313623 0.14531404 0.112002894 0.014116083
0.062832564 -0.07979043 0.12044036 0.0122752 -0.00845481 0.140934 -0.019759817 0.018998103
0.14039174 -0.0044996054 0.15712662 -0.024087226 0.0025314223 -0.044284668 0.16973181 0.08624315
-0.016506737 0.090653405 0.09574212 -0.022596894 0.14228712 0.11892509 0.020586887 -0.015482747
-0.01924917 0.08524085 -0.014885265 -0.008856448 0.12443445 0.16677201 0.014938595 0.07106761
0.120022535 -0.025192086 0.0080747 0.12828259 0.019978087 -0.017459527 0.20567258 0.18925416
0.070702724 0.07240397 0.10405461 0.08866255 0.12303232 0.09117389 0.11617857 0.16594194
0.13514929 0.15354164 -0.006247241 0.07352544 0.08593476 -0.025026623 -0.00079295645 0.1675479
0.14211932 0.08835516 0.15182844 -0.01493683 0.120932736 0.11352504 0.13140431 0.057901748
0.15702392 0.10975643 0.1866272 -0.031021954 -0.0071784984 0.13551101 0.10350525 0.18305722
0.21590246 0.11201564 0.09148108 -0.020687714 0.12958087 -0.02098195 0.12089976 0.1446769
00000000: 820b 303e 55a3 833c 401f ff3d b095 91bd
00000010: 0b32 743c f4f4 ef3a f33c 983d 982b b33c
00000020: b214 88bb dfa7 1a3d ea31 a8bb 3253 b7bc
00000030: f98a 0f3e 9236 ee3d 7d03 fc3b ff51 c23d
00000040: 21aa 89bc 4158 68bd bf8d 1a3e 9341 363e
00000050: 6cbe b23b 41cf 0a3e ce38 9ebc 209c ab3d
00000060: ffce d93d bd1c 1d3e 5e9b 863d 9058 4a3e
00000070: d4d5 b1bc 956b 5cbc b8a7 d33d b312 133c
00000080: 5d31 153e 2e8a a6bc 16ae 0ebb 2f2e c6bc
00000090: 21b8 003e 5290 4dbd 0d9f e23d b143 df3d
000000a0: 0c35 2b3e d6cf 53bc df27 c0bc 8651 1d3e
000000b0: 874a 0a3d bbc1 00bd 2ed4 593d 34e6 223e
000000c0: f3cc a4bc ec2a bc3d cf1e 313b 7143 283c
000000d0: 54fa 253c 4675 1c3a 00b4 c83d ac13 e53d
000000e0: 1b8f a6bb 49fd 1d3e 05fe fa3d 5478 2c3c
000000f0: 2474 b63d 7c31 3fbe 1eec 3a3c 8d56 8bbc
00000100: 6e4c 8c3d b01c e33d c7d4 b5ba 3027 603c
00000110: 97a3 1f3e 5dc7 083e 9a24 043e 6aa9 4fbd
00000120: 7ed0 97bc 852f 503e fe6a 103e 1bc3 2c3e
00000130: 9465 3cbc 94a5 013e 0012 183c 5d4b 55bc
00000140: cbdb 083e da7f 373e 9044 8f3c f433 f03d
00000150: 08d0 4cbd 9ee2 123d 7e05 55bd 16d1 d93c
00000160: cc2d 9ebb 1f34 7e3c be4b 6a3b c05c b53d
00000170: 4e81 babc 397f 0e3e 1d6a 003e f6eb aa3d
00000180: e324 2a3e 29a2 1e3e e55e da3d 97d8 0f3e
00000190: ba2f 133c 03b0 a83d c413 1d3e dc2c 8a3d
000001a0: 10bf d33d a904 2c3d 5d16 263e bbc5 1e3e
000001b0: 5b8c 493e a8ab 973c 7007 c23b 94cd 04bc
000001c0: 957c 1c3e f7dc 623d 0251 ebbb dfaf b8bc
000001d0: a6b9 de3c 69e6 f03d c93d 083e c98b ee3d
000001e0: d227 ccbc 6163 f43d 1804 b53c 20d6 17bd
000001f0: dca2 c63d a673 4ebd 8007 fe3d 156f a03c
00000200: a365 e13d 360e b93d db92 1e3e dcb0 82bc
00000210: e0ab 0a3d eae9 c43d 9076 fa3d 5d2c 8b3b
00000220: 4441 fb3d 63df 86bc f4e6 c33d dfcd 343e
00000230: aa5b 2b3e 9add a43d 74d6 163d af3d 33bd
00000240: 3477 133e 7a4a f23d c52d 1b3e 8724 e73d
00000250: ba71 b23d 6ce3 b33b 74cc c63d 6fc9 ffbc
00000260: 5299 ef3d ff63 153e 2df1 a93b 2088 0e3e
00000270: d82a 183c 4e73 113e d1a1 303e 277f 133e
00000280: 5b44 1b3c 545b ae3d 51bc c63d 6253 2f3e
00000290: 8eda 9f3d aed8 453d 139a cd3d f60d 443c
000002a0: 9472 44bc b3ba 173e df51 f23d fad8 133e
000002b0: 1639 d33d 34cd 143e c661 e53d 2547 673c
000002c0: 5cae 803d 2a69 a3bd 6fa9 f63d ec1d 493c
000002d0: 0b86 0abc 0151 103e 57df a1bc e9a1 9b3c
000002e0: dac2 0f3e 6d71 93bb cde5 203e 9352 c5bc
000002f0: 38e6 253b d763 35bd 2dce 2d3e 40a0 b03d
00000300: 2339 87bc 7ea8 b93d 7214 c43d 1f1d b9bc
00000310: b7b3 113e ff8e f33d d5a5 a83c 59ab 7dbc
00000320: 6fb0 9dbc c192 ae3d 54e1 73bc a31a 11bc
00000330: 7dd7 fe3d 48c6 2a3e 02c1 743c e58b 913d
00000340: 60ce f53d a25f cebc bf4b 043c 835c 033e
00000350: 16a9 a33c 4807 8fbc d59b 523e d8cb 413e
00000360: 97cc 903d 8848 943d 951a d53d b694 b53d
00000370: 5ef8 fb3d 60b9 ba3d 08ef ed3d afec 293e
00000380: 9364 0a3e 053a 1d3e a8b5 ccbb 8294 963d
00000390: 90fe af3d a204 cdbc 68de 4fba ad91 2b3e
000003a0: ba87 113e 8df3 b43d ea78 1b3e 9bb9 74bc
000003b0: 95ab f73d d17f e83d da8e 063e 622a 6d3d
000003c0: e1ca 203e fbc7 e03d 331b 3f3e c121 febc
000003d0: 9c39 ebbb 66c3 0a3e 8ffa d33d 5a73 3b3e
000003e0: 8915 5d3e 7568 e53d 6f5a bb3d 4879 a9bc
000003f0: d9b0 043e 57e2 abbc 4b9a f73d 2e26 143e

fc3.weight f4 [2, 256]
-0.76718616 -0.52849025 0.20893988 0.30813572 -0.010877013 0.006097482 0.79709613 -0.016866555
-1.2249433 0.35259378 -0.008633563 0.018253494 0.5090954 -0.41847718 -1.2509435 0.6906328
-0.6404872 -0.76491237 0.23083064 0.129175 -0.011553042 0.20158947 -0.019284578 0.9610843
-0.4787047 0.06885893 0.61718917 -0.55709416 -1.0216221 -0.013505291 -1.9140931 -1.0578157
-0.84563893 -0.4252972 -0.007567217 0.022581002 0.19462726 -0.5791002 0.69451326 -0.5107024
0.17689082 -0.0013431883 0.0059509343 0.49884278 0.40835035 -1.3010999 0.9855696 0.483289
-1.225867 0.6409142 -1.1371528 -0.0004140145 -0.02052753 0.3688664 0.5264299 0.21745116
0.37211087 0.18141769 0.22914813 -0.021757357 0.6710739 -0.6778548 -0.9974329 -0.616759
-0.038157295 0.46220592 -1.290312 -0.0049658986 0.78692126 0.19108413 0.8857035 -0.027389565
-0.58898443 0.3239143 -0.44101027 0.86352026 0.017537996 -0.08124494 0.36354145 1.4409978
0.18609951 0.22904254 -0.023006158 0.67576617 -1.294219 0.31757635 -0.49793714 0.37185422
-0.9375109 0.34482336 0.4108903 0.54957306 0.023467196 -0.44526574 0.2301054 0.78349495
0.18544038 0.18280926 0.6632146 -0.622176 -0.021698587 0.42596725 0.21569407 0.62806183
0.73134214 0.9217773 0.19762675 0.2058282 -0.6103512 -0.00882362 0.38560358 0.012015802
0.4748315 0.6802936 0.06892448 -0.016528932 -0.8488176 0.24230453 0.19555363 0.20658939
-0.019789506 0.44033045 0.014529023 -0.50576293 0.19709973 -0.08722901 0.46175388 -0.019754456
0.20941338 -0.2317743 0.20114848 -0.59027845 -0.87311673 0.47794738 0.1869163 -1.1968327
0.64735776 -0.632728 0.64676696 0.18485948 0.19253932 0.69280964 0.051157095 0.51866174
-0.7114434 0.23821312 0.21584302 0.848139 0.72397155 0.024205875 1.0484524 -1.1643755
0.7956736 0.20003289 -0.00600747 0.44310832 -1.202544 0.4607229 -0.60503936 0.1865317
0.010790151 0.68885595 0.55752766 0.052048393 1.1386805 1.8102676 0.02404859 -0.019205248
0.43366152 0.48495352 0.5946851 0.10159023 0.5985443 0.22920829 0.23289393 -0.0032341909
-0.1916482 -0.55049586 0.5018595 -0.8038082 -1.0060498 0.670741 -0.053646382 0.36130545
0.48316005 0.67250407 0.18260434 0.0030368725 -0.31471848 -0.38566917 0.27854145 0.6335113
-0.00060948136 0.61260384 0.07263679 0.01965195 0.19176854 1.0843287 0.4118548 0.008388896
0.023256788 0.7097784 -1.102935 0.40499353 0.23941773 0.08633721 -0.020732509 0.61393636
0.46939555 0.85653114 0.42663637 0.47839496 -0.02239891 0.693881 -0.65803903 0.19820212
0.7357967 0.59743106 0.5350967 0.6318196 0.8403251 -0.14491792 -0.4274086 -0.673225
0.20484984 0.20459989 0.623767 0.6692741 0.24293785 -0.019622622 0.5684638 -0.0065899403
-0.51267195 0.6779085 0.18937363 0.008899681 0.8906132 0.63450027 0.71913856 1.3602438
0.20730804 0.42246863 0.16140424 -0.3637563 -0.023858001 0.4546659 0.62801456 0.66958994
0.4629819 0.20489207 0.6464634 -0.013263192 0.19323966 0.012585245 0.2691339 0.26484054
00000000: 5066 44bf 234b 07bf 56f4 553e f7c3 9d3e
00000010: 8035 32bc 63cd c73b 7e0e 4c3f bb2b 8abc
00000020: f1ca 9cbf 2c87 b43e ca73 0dbc 5a88 953c
00000030: 1354 023f a442 d6be eb1e a0bf 50cd 303f
00000040: f8f6 23bf 4cd1 43bf de5e 6c3e 7446 043e
00000050: f848 3dbc 786d 4e3e b1fa 9dbc 9f09 763f
00000060: c818 f5be e905 8d3d 1c00 1e3f b99d 0ebf
00000070: 83c4 82bf 4c45 5dbc 0101 f5bf 8166 87bf
00000080: cb7b 58bf 8ec0 d9be 6bf6 f7bb cbfb b83c
00000090: 5e4c 473e e93f 14bf 9fcb 313f 64bd 02bf
000000a0: de22 353e ec0d b0ba 0e00 c33b 5268 ff3e
000000b0: 4c13 d13e 718a a6bf 4a4e 7c3f a871 f73e
000000c0: 36e9 9cbf f412 243f 398e 91bf 1610 d9b9
000000d0: 5a29 a8bc 0fdc bc3e 1cc4 063f 84ab 5e3e
000000e0: 5185 be3e 8fc5 393e cfa5 6a3e 7c3c b2bc
000000f0: 80cb 2b3f e487 2dbf c357 7fbf ebe3 1dbf
00000100: d34a 1cbd 41a6 ec3e f228 a5bf fab8 a2bb
00000110: ac73 493f 8fab 433e 77bd 623f 1560 e0bc
00000120: afc7 16bf 18d8 a53e 19cc e1be aa0f 5d3f
00000130: d8ab 8f3c bf63 a6bd 1b22 ba3e 9e72 b83f
00000140: df90 3e3e 218a 6a3e 6977 bcbc 03ff 2c3f
00000150: f8a8 a5bf 5e99 a23e 9ef1 febe ad63 be3e
00000160: b700 70bf b08c b03e 3760 d23e d2b0 0c3f
00000170: 473e c03c dff9 e3be c0a0 6b3e 2093 483f
00000180: 15e4 3d3e 5a32 3b3e 6fc8 293f ed46 1fbf
00000190: 3cc1 b1bc 6118 da3e e8de 5c3e a9c8 203f
000001a0: 3d39 3b3f 99f9 6b3f ab5e 4a3e a1c4 523e
000001b0: fa3f 1cbf f290 10bc d56d c53e eddd 443c
000001c0: 1d1d f33e b927 2e3f 4728 8d3d af67 87bc
000001d0: 1c4c 59bf ae1e 783e 363f 483e 2b8c 533e
000001e0: 9a1d a2bc fe72 e13e 240b 6e3c ae79 01bf
000001f0: 83d4 493e 20a5 b2bd 016b ec3e 19d4 a1bc
00000200: 7670 563e 3e56 6dbe def9 4d3e 7d1c 17bf
00000210: 9484 5fbf 85b5 f43e fd66 3f3e d031 99bf
00000220: 3db9 253f 76fa 21bf 8592 253f ce4b 3d3e
00000230: 0729 453e f95b 313f 1a8a 513d 04c7 043f
00000240: 2821 36bf 24ee 733e f405 5d3e a31f 593f
00000250: 3356 393f 664b c63c b033 863f 420a 95bf
00000260: 44b1 4b3f 6cd5 4c3e 50da c4bb 18df e23e
00000270: f6ec 99bf dfe3 eb3e dce3 1abf 2a02 3f3e
00000280: 2cc9 303c dd58 303f 22ba 0e3f b230 553d
00000290: 48c0 913f d9b6 e73f 8c01 c53c 5354 9dbc
000002a0: e208 de3e d44b f83e 483d 183f 8a0e d03d
000002b0: 333a 193f 94b5 6a3e bf7b 6e3e b8f4 53bb
000002c0: 6d3f 44be 4ced 0cbf dd79 003f 60c6 4dbf
000002d0: 3dc6 80bf afb5 2b3f 4fbc 5bbd 07fd b83e
000002e0: c160 f73e 3a29 2c3f a2fc 3a3e 4406 473b
000002f0: c822 a1be 6e76 c5be fc9c 8e3e cc2d 223f
00000300: 9ac5 1fba 9bd3 1c3f 99c2 943d 20fd a03c
00000310: f95e 443e 48cb 8a3f a2de d23e 9471 093c
00000320: 0585 be3c 0ab4 353f f92c 8dbf 505b cf3e
00000330: ec29 753e 90d1 b03d 39d7 a9bc ef2a 1d3f
00000340: 9d54 f03e a045 5b3f 1570 da3e 2ff0 f43e
00000350: eb7d b7bc 2fa2 313f 3f75 28bf 7ff5 4a3e
00000360: 2c5d 3c3f 3ef1 183f 19fc 083f eebe 213f
00000370: 8c1f 573f 5d65 14be 4dd5 dabe 7958 2cbf
00000380: 28c4 513e a282 513e 32af 1f3f 8c55 2b3f
00000390: b3c4 783e 9fbf a0bc d886 113f 6df0 d7bb
000003a0: 783e 03bf 698b 2d3f 29eb 413e f8cf 113c
000003b0: 3aff 633f 9c6e 223f 7719 383f 781c ae3f
000003c0: 8f48 543e cf4d d83e 2747 253e 443e babe
000003d0: db71 c3bc f8c9 e83e 90c5 203f 3f6a 2b3f
000003e0: f70b ed3e 3acf 513e a07e 253f dc4d 59bc
000003f0: 9ee0 453e 5832 4e3c ebcb 893e 2e99 873e

fc3.bias f4 [2]
0.10211358 0.068097666
00000000: ed20 d13d ca76 8b3d
