weights/dqn_cartpolev1_solved_weights_april_19_2023_config_1.pt (torch, 272215 bytes, 6 tensors)

fc1.weight f4 [256, 4]
0	0xbdca6b1d	-0.098837115
1	0xbe944a20	-0.28962803
2	0xbe65a20d	-0.22425099
3	0x3e25727c	0.16156954
4	0xbe597654	-0.21236545
5	0x3c618080	0.013763547
6	0x3f232318	0.63725424
7	0x3ea219b4	0.31660235
8	0xbd1e860d	-0.03870206
9	0x3d86d245	0.065830745
10	0x3ed8ab48	0.42318177
11	0xbe36d2b1	-0.1785381
12	0xbe740aed	-0.23832293
13	0xbebc73f9	-0.3680723
14	0xbe561cd4	-0.20909435
15	0x3e2ef315	0.17084916
16	0xbbbfc025	-0.005851763
17	0xbd977746	-0.073957965
18	0x3f2337d3	0.63757056
19	0x3e7ff0c4	0.24994189
20	0xbe826908	-0.25470757
21	0x3ea6221a	0.32447892
22	0xbe33cec7	-0.17559348
23	0x3e91707d	0.28406134
24	0x3e0da6ec	0.13833207
25	0x3dd4736d	0.10373578
26	0xbf0ee56b	-0.55818814
27	0xbdd883a0	-0.105719805
28	0x3ea0bb19	0.31392744
29	0x3e44c46b	0.19215553
30	0xbc8af9e9	-0.01696487
31	0xbd13416c	-0.035951063
32	0x3d02b79f	0.031913396
33	0x3be1b213	0.006887683
34	0x3e2b2182	0.16712001
35	0xbdc25e39	-0.09490628
36	0xbea1ed2e	-0.31626266
37	0x3e99dbb1	0.30050424
38	0xbe47b571	-0.19502808
39	0x3e1f774a	0.15572849
40	0x3e95155e	0.29117864
41	0xbeb6dac2	-0.35713774
42	0xbd975ca1	-0.073907144
43	0x3eaaad6b	0.33335432
44	0x3dd3afbb	0.10336252
45	0xbe963abd	-0.2934169
46	0x3d5b8f0b	0.053603213
47	0x3e29a90b	0.16568391
48	0xbd692aa4	-0.05692543
49	0x3e9fa2d3	0.31178913
50	0xbea039ca	-0.3129409
51	0xbdaaf7f3	-0.08348074
52	0x3e8abf42	0.27099043
53	0xbe2be32b	-0.16785876
54	0xbe52cc70	-0.20585799
55	0xbe21a492	-0.15785435
56	0x3e4ba172	0.19885805
57	0xbe4cc2b8	-0.19996154
58	0x3ec62893	0.3870283
59	0xbe75bcb1	-0.23997761
60	0xbe570a9d	-0.21000142
61	0xbe878cb3	-0.26474532
62	0xbe9e8e6c	-0.30968034
63	0x3d315b09	0.04329971
64	0x3cc6ced7	0.02426855
65	0x3ded896c	0.11598477
66	0xbe356cea	-0.17717329
67	0x3cb0d1d4	0.021584429
68	0x3e806df6	0.25083894
69	0x3e90a878	0.2825353
70	0x3f016f66	0.50560606
71	0xbeabf25a	-0.33583337
72	0xbd224530	-0.039616764
73	0x3e2ec386	0.17066774
74	0x3ea3ae3c	0.31968868
75	0x3e8e319f	0.27772233
76	0xbda07ae8	-0.078359425
77	0x3d707eee	0.0587148
78	0x3ba83fc2	0.0051345536
79	0xbdcd25c2	-0.10016967
80	0x3eb93a94	0.36177504
81	0x3ea4d941	0.32197002
82	0x3ec84458	0.39114642
83	0x3e5f834c	0.2182743
84	0xbe6a2376	-0.2286509
85	0x3c9abfbc	0.018890254
86	0x3ea9980c	0.33123815
87	0xbdabeb23	-0.08394458
88	0x3e8d098b	0.27546343
89	0x3e30406e	0.17212078
90	0xbe65be25	-0.22435816
91	0xbe982b25	-0.29720417
92	0x3ebe5777	0.37176105
93	0x3d97778a	0.07395847
94	0x3cea60d4	0.028610624
95	0xbaf070f2	-0.0018344207
96	0x3ebb966f	0.3663821
97	0x3e4cbcae	0.1999385
98	0xbe328044	-0.17431742
99	0xbe0f7c81	-0.14012338
100	0x3e17b591	0.14815356
101	0xbe297a45	-0.16550548
102	0xbe2ca292	-0.1685889
103	0x3d91092e	0.07081829
104	0xbe425996	-0.18979487
105	0xbec79934	-0.38984072
106	0xbe0fad76	-0.14031014
107	0xbd9e2e72	-0.077237025
108	0x3eab7549	0.3348792
109	0x3da2b204	0.0794411
110	0x3e92fd06	0.28708667
111	0x3d55ee54	0.05222924
112	0x3e832a94	0.25618422
113	0x3eb14ac7	0.34627363
114	0x3ec9c4ae	0.39407867
115	0x3eb95588	0.36198068
116	0x3e94d0a3	0.29065427
117	0x3ea5c915	0.32379976
118	0x3e96659f	0.29374406
119	0x3e8a558b	0.2701839
120	0x3e4d9f8e	0.20080397
121	0xbe54cfb2	-0.20782354
122	0x3e8e8c93	0.27841625
123	0x3ece007f	0.40234753
124	0xbd7ff554	-0.062489823
125	0xbe2a2ea5	-0.16619356
126	0x3e8cb379	0.27480677
127	0x3e866f22	0.26256663
128	0x3eca8488	0.39554238
129	0x3e9f1849	0.31073216
130	0xbe944306	-0.28957385
131	0xbe747787	-0.23873721
132	0x3e9c6504	0.3054582
133	0xbda6170a	-0.08109863
134	0xbcaa7743	-0.020808822
135	0xbe8a39b1	-0.2699714
136	0x3e9f45c0	0.31107903
137	0xbdefecaa	-0.11715062
138	0xbe62a4c3	-0.22133164
139	0xbe07e917	-0.1327251
140	0xbe64277f	-0.22280692
141	0x3ea904eb	0.33011565
142	0x3db4fddc	0.08837482
143	0x3daed6e3	0.0853708
144	0xbe7dc31e	-0.24781463
145	0x3e2117ea	0.15731779
146	0x3e8a17b4	0.2697121
147	0xbe1dbfc7	-0.15405189
148	0x3e1cfb01	0.15330125
149	0x3dc075a2	0.09397437
150	0xbe7e5120	-0.24835634
151	0x3e0c6fa2	0.1371446
152	0xbd3172e2	-0.04332245
153	0xbe34d2e1	-0.17658569
154	0x3d2253d5	0.03963073
155	0x3e8386c3	0.25688753
156	0x3dd04d97	0.10171049
157	0xbda7b364	-0.08188513
158	0x3e49edbb	0.19719593
159	0x3eb1c192	0.34717995
160	0x3eb36f24	0.3504573
161	0x3e385ea6	0.18004856
162	0x3ee49bdd	0.44650164
163	0x3de2ac32	0.11068
164	0x3ee15fba	0.44018346
165	0x3ec0d7dc	0.37664688
166	0x3e778992	0.24173573
167	0x3e8ef391	0.279202
168	0x3e8e9531	0.278482
169	0xbeb6a5a8	-0.3567326
170	0xbf201043	-0.62524813
171	0xbea37600	-0.31925964
172	0x3ceb7df0	0.028746575
173	0x3ed05f56	0.40697736
174	0x3f0a1213	0.5393383
175	0x3e843aaf	0.25826022
176	0x3df2bfd9	0.11852998
177	0xbe345577	-0.17610727
178	0xbee8cc13	-0.45468196
179	0xbecb8d3b	-0.39756188
180	0xbe7f4972	-0.24930361
181	0xbdf127cb	-0.11775168
182	0xbe1d0511	-0.15333964
183	0xbe8b7846	-0.272402
184	0xbe4cb020	-0.19989061
185	0x3e8a6a1e	0.27034086
186	0x3f0c4b0a	0.54802
187	0x3e9034da	0.28165323
188	0xbdaaf5a7	-0.08347636
189	0xbec01ff8	-0.3752439
190	0x3d3b1dc2	0.045682676
191	0x3d50ec3f	0.05100655
192	0x3e1cec8e	0.15324613
193	0xbeab40de	-0.33447927
194	0xbe8755a8	-0.26432538
195	0x3daecf14	0.08535591
196	0xbee83eb4	-0.4536034
197	0xbe1d2b45	-0.15348537
198	0xbe864f40	-0.26232338
199	0xbe045da0	-0.1292634
200	0x3e462e7c	0.1935367
201	0x3df1d797	0.118086986
202	0xbed201f9	-0.4101713
203	0xbe880d97	-0.26572868
204	0xbbb44587	-0.0055014524
205	0xbdab71db	-0.083713256
206	0x3ddaa9f8	0.1067695
207	0x3e58dc55	0.211778
208	0x3dcb42c2	0.099248424
209	0x3e3e3d1a	0.18577996
210	0x3ef77a25	0.48335376
211	0x3dd6d5ca	0.10489996
212	0xbd3b314e	-0.045701317
213	0xbd8bf352	-0.06833519
214	0x3c949db3	0.018141603
215	0x3eb4df6c	0.35326707
216	0xbeb15576	-0.34635514
217	0x3e533745	0.20626552
218	0x3ebccbc8	0.36874223
219	0x3c2da349	0.010598012
220	0xbebd6964	-0.3699447
221	0x3d484a51	0.048899
222	0xbda194ad	-0.07889686
223	0x3d4d1634	0.050070003
224	0xbda0bc5c	-0.07848427
225	0xbe7db056	-0.24774298
226	0x3eb3bfe9	0.35107353
227	0xbe8facaf	-0.28061435
228	0x3e8646bc	0.2622584
229	0xbe512227	-0.20423184
230	0xbee7b895	-0.45258012
231	0xbd606eb6	-0.054793082
232	0xbeaeba64	-0.3412658
233	0x3e19a94f	0.15005992
234	0x3df156ec	0.11784157
235	0x3e1757f0	0.14779639
236	0x3e7e2447	0.24818526
237	0xbcd36a07	-0.025807394
238	0xbdbca445	-0.092110194
239	0x3def937d	0.11698053
240	0x3ec963e9	0.39334038
241	0xbd90c775	-0.070692934
242	0xbe5130da	-0.20428792
243	0xbc14a22a	-0.009071866
244	0xbed6088d	-0.418034
245	0x3e97c298	0.2964065
246	0x3ebb8a57	0.36628982
247	0xbdaff725	-0.08592061
248	0xbe91fbfd	-0.28512564
249	0x3eb01529	0.34391144
250	0x3ea40044	0.32031453
251	0xbe6d0e1c	-0.23149914
252	0x3e4bc432	0.19899061
253	0x3e8f81e6	0.28028792
254	0xbeec91fd	-0.4620513
255	0xbe25e2dc	-0.16199821

fc1.bias f4 [256]
0	0x3d910a76	0.070820734
1	0xbe9e0224	-0.30861008
2	0x3ef91389	0.48647717
3	0xbeb37104	-0.35047162
4	0xbe8399ea	-0.25703365
5	0x3e9c1d28	0.30490994
6	0xbe6d01e9	-0.2314526
7	0x3f023359	0.508596
8	0x3ec73105	0.38904586
9	0xbea8fddc	-0.3300618
10	0x3d2e7534	0.042592242
11	0xbe88275e	-0.26592535
12	0xbea9ec5d	-0.33188143
13	0x3eb6e526	0.357217
14	0x3ee245f7	0.44194004
15	0x3ee145c7	0.43998548
16	0x3eb18fc8	0.3468001
17	0x3eb8eca5	0.36118045
18	0x3ebffcd0	0.37497568
19	0x3ecd1be1	0.40060332
20	0x3d76f102	0.060288437
21	0x3e469d6e	0.19395992
22	0xbe8806fa	-0.26567823
23	0x3eae1710	0.3400197
24	0xbe0349d8	-0.12821138
25	0x3ebb514c	0.36585462
26	0xbdb93f6b	-0.09045299
27	0x3edac932	0.42731625
28	0xbd789cc4	-0.06069638
29	0xbbf5b8b7	-0.0074988264
30	0xbe9e7834	-0.30951083
31	0xbe8bb909	-0.27289608
32	0xbd2e5288	-0.042559177
33	0xbe80eaaa	-0.25179034
34	0xbd9bfb08	-0.0761624
35	0x3e666d8e	0.2250273
36	0x3e72b3ea	0.23701444
37	0x3e8bccf8	0.27304816
38	0x3ecbde9f	0.39818284
39	0xbdf7d6f1	-0.12101544
40	0x3d3bb5ae	0.04582756
41	0x3e87a356	0.26491803
42	0xbe1f0667	-0.15529786
43	0xbdedb894	-0.11607471
44	0xbdcc6512	-0.09980215
45	0xbe8fb72a	-0.2806943
46	0x3e102592	0.14076832
47	0xbdde59e8	-0.10856992
48	0xbd5e9018	-0.054336637
49	0xbd490f16	-0.049086653
50	0xbb7327b9	-0.0037102534
51	0x3ebf42a3	0.37355527
52	0xbc41cd19	-0.011828684
53	0xbeb2907f	-0.34875867
54	0x3da1a1f4	0.07892218
55	0xbd307610	-0.043081343
56	0x3ef99547	0.48746702
57	0x3eaecc04	0.34140027
58	0x3e8a69a4	0.27033722
59	0x3e96ce12	0.29454094
60	0xbd27f6e2	-0.04100693
61	0x3e6fb87e	0.23410222
62	0x3ef37f7c	0.475582
63	0xbe92d038	-0.28674483
64	0x3e6ba2ab	0.23011272
65	0xbcb577f7	-0.02215193
66	0xbe98edba	-0.2986887
67	0xbe1e09a1	-0.1543336
68	0xbc488d6b	-0.012240748
69	0xbdb298ff	-0.08720588
70	0x3efef406	0.4979555
71	0xbdac70e5	-0.084199704
72	0x3eb7cf1a	0.35900193
73	0xbe0039e2	-0.1252208
74	0x3ed32e9c	0.41246498
75	0x3f01ccfe	0.5070342
76	0x3e965517	0.29361793
77	0x3d7967a9	0.060889874
78	0x3e31066a	0.17287603
79	0xbe278711	-0.16360117
80	0x3e9396ca	0.2882598
81	0x3e612fda	0.2199091
82	0xbe640c36	-0.22270283
83	0x3da9df5f	0.08294558
84	0x3e03649c	0.12831348
85	0x3e8c80e5	0.2744209
86	0x3ed6b6fd	0.41936484
87	0x3b3c4894	0.0028729783
88	0x3ee6ccf0	0.4507823
89	0xbeaa5a1c	-0.33271873
90	0x3d4b2321	0.04959405
91	0x3e9a3c8b	0.30124316
92	0x3d647f87	0.055785682
93	0xbe63ea85	-0.22257431
94	0xbe8ae174	-0.27125132
95	0xbdee22ab	-0.11627706
96	0x3e5e1ee3	0.2169147
97	0x3cf98f9e	0.03046399
98	0x3e486c09	0.19572462
99	0xbe704d29	-0.23466934
100	0xbde76fa7	-0.11300593
101	0xbe6e511c	-0.23273128
102	0xbeccf029	-0.40026978
103	0x3eb75e8b	0.35814318
104	0xbe01ab33	-0.12662964
105	0x3df7128d	0.12064085
106	0x3ca705dd	0.020388538
107	0xbea20bc6	-0.31649607
108	0x3e2ba2a0	0.16761255
109	0xbe99899f	-0.2998781
110	0xbe95e425	-0.29275623
111	0x3ec1b480	0.37833023
112	0xbc9391f9	-0.018013941
113	0x3eb3b5f9	0.35099772
114	0x3f02dc1d	0.51117116
115	0x3eb78476	0.35843247
116	0x3ed5f554	0.41788733
117	0xbe71d8d5	-0.23617871
118	0x3eec7924	0.46186173
119	0x3ec7edc4	0.39048588
120	0x3db1b115	0.08676354
121	0x3ed43ea1	0.41454032
122	0x3ecb9157	0.39759323
123	0x3e990d83	0.2989312
124	0x3e92e43e	0.2868976
125	0xbe94ae1b	-0.29039082
126	0x3e8b65dd	0.27226153
127	0x3edccf06	0.43126696
128	0xbe8aa3dd	-0.27078143
129	0x3ba128d9	0.0049181995
130	0x3e9dea03	0.308426
131	0x3ed60612	0.41801506
132	0x3d24174d	0.040061284
133	0xbe03100f	-0.12799095
134	0x3da06a90	0.07832825
135	0x3f053587	0.520348
136	0x3ebd9e58	0.3703487
137	0x3eb48cd7	0.35263702
138	0x3ef44cb8	0.47714782
139	0xbead8bbe	-0.33895677
140	0xbe00daef	-0.12583517
141	0x3ed8ca03	0.42341623
142	0x3e596dde	0.21233317
143	0xbc5b95dc	-0.0134024285
144	0xbeaf3bda	-0.3422535
145	0xbda310f7	-0.0796222
146	0x3e91cd23	0.2847682
147	0xbe61ba3f	-0.22043703
148	0xbd038aa9	-0.03211466
149	0x3e8e0a0d	0.27742043
150	0x3cb5508a	0.02213313
151	0xbe7689e4	-0.24076039
152	0xbe61e045	-0.22058208
153	0xbe43af88	-0.19109929
154	0x3ef71f1c	0.48265922
155	0x3c5ea88a	0.0135899875
156	0xbcb50224	-0.022095747
157	0xbe3a852c	-0.18214864
158	0x3e460c0f	0.19340537
159	0x3eed42e7	0.46340105
160	0xbe10a7c9	-0.14126505
161	0x3ebb55c7	0.3658888
162	0xbc03ea84	-0.008051518
163	0x3ef23116	0.47303075
164	0x3edc8b5b	0.4307507
165	0x3e953f6f	0.29149958
166	0x3edd0bef	0.43173167
167	0xbe07ad38	-0.13249671
168	0xbe531b76	-0.20615944
169	0x3e951572	0.29117924
170	0x3ec9e53b	0.394327
171	0xbe186270	-0.14881301
172	0xbeafed03	-0.34360513
173	0x3c9959ef	0.018719641
174	0xba8145f2	-0.0009862764
175	0x3e80f590	0.2518735
176	0x3e769042	0.24078467
177	0x3df17d4d	0.11791477
178	0xbe8c5a68	-0.27412724
179	0xbd10bfb1	-0.03533906
180	0xbe6b092c	-0.22952718
181	0x3c00e100	0.007866144
182	0x3ed28e55	0.41124216
183	0x3c138deb	0.009006004
184	0xbe228bac	-0.15873593
185	0x3ef2e465	0.47439876
186	0x3ec32583	0.38114557
187	0x3c029d3e	0.00797206
188	0x3e80b5cd	0.25138703
189	0x3daa5c7c	0.08318421
190	0x3dd70dd0	0.105006814
191	0xbd41db18	-0.047328085
192	0x3e819066	0.2530548
193	0xbe707d39	-0.23485269
194	0x3da12a76	0.07869427
195	0xbe7167e4	-0.23574787
196	0xbe0bce8e	-0.13653013
197	0x3f00517f	0.50124353
198	0x3e0f0548	0.13966858
199	0x3efe205b	0.4963406
200	0xbd92c2f4	-0.071660906
201	0xbe4bfc12	-0.19920376
202	0xbe196828	-0.14981139
203	0x3ebcf125	0.3690273
204	0x3ea4c9cb	0.32185206
205	0x3ef028b8	0.46906066
206	0xbea1422d	-0.314958
207	0xbe88f150	-0.26746607
208	0xbe45aa56	-0.19303259
209	0xbdbd8f70	-0.09255874
210	0x3d0076af	0.031363185
211	0x3e0e0cba	0.13872042
212	0xbc5e6c5c	-0.01357564
213	0x3ec79f67	0.38988802
214	0xbe0e1f77	-0.1387919
215	0x3e8696cf	0.26286933
216	0x3eb76bd9	0.3582447
217	0xbde55b2d	-0.11199031
218	0x3ede037b	0.4336203
219	0xbe74372e	-0.23849174
220	0xbd0f12f9	-0.034930203
221	0x3e47b701	0.19503404
222	0xbd415c69	-0.04720727
223	0xbe6e082d	-0.23245306
224	0x3e938fee	0.28820747
225	0x3ef45dd3	0.47727832
226	0x3ed8538d	0.42251244
227	0x3ee64479	0.44974115
228	0x3e9e95c4	0.30973637
229	0x3c5c0e20	0.013431102
230	0x3ecff0d5	0.40613428
231	0x3e173630	0.14766765
232	0x3d9ee27b	0.077580415
233	0x3eda9c34	0.426973
234	0x3eea7ca9	0.45798233
235	0x3b9a54f9	0.0047098366
236	0xbd5e2b81	-0.054240707
237	0x3e592a32	0.21207502
238	0xbe01438e	-0.12623426
239	0xbe44e150	-0.19226575
240	0xbe688a4e	-0.22709009
241	0x3e7ad382	0.24494746
242	0xbe0e2a00	-0.13883209
243	0xbccbef70	-0.024894446
244	0x3da23ec5	0.079221286
245	0x3e8d044e	0.27542347
246	0x3f039b2b	0.5140864
247	0x3eefc452	0.46829468
248	0x3d4830d1	0.04887468
249	0xbe0f4d6f	-0.13994382
250	0x3e07a7d8	0.13247621
251	0x3ed4b522	0.41544443
252	0xbe029e2f	-0.12755655
253	0xbe46a9ea	-0.19400755
254	0xbdd150d2	-0.102204934
255	0xbdcdeb95	-0.10054699

fc2.weight f4 [256, 256]
0	0xbd3a72d6	-0.045519672
1	0xbb8c5960	-0.0042831153
2	0x3d6f26f1	0.058386747
3	0xbe22dc79	-0.15904416
4	0x3d235bd7	0.039882507
5	0x3d4cb3ff	0.049976345
6	0xbe943bb3	-0.28951797
7	0x3d4c1a47	0.049829748
8	0x3b99bc7a	0.0046916576
9	0xbb553a56	-0.0032535992
10	0xbd03dc1c	-0.032192335
11	0xbdcfd4da	-0.1014802
12	0x3dd78ebc	0.10525271
13	0x3cbb11d6	0.022835653
14	0x3bdb3ea0	0.006690815
15	0xbceed184	-0.02915264
16	0x3b49c3bc	0.0030786833
17	0x3d3c9e45	0.046049375
18	0x3c1feef5	0.009761562
19	0x3d01e1bf	0.03170943
20	0x3d661ff8	0.05618283
21	0x3ccc8c58	0.024969265
22	0xbe943041	-0.28943065
23	0x3cb5c5d7	0.022189064
24	0xbee3b51d	-0.44474116
25	0xbcd61a39	-0.02613555
26	0xbe1cafb7	-0.15301405
27	0x3d65cb25	0.056101937
28	0xbadf14ee	-0.0017019787
29	0xbdc3b934	-0.09556809
30	0xbd17ccfb	-0.03706072
31	0xbd21417d	-0.039369095
32	0xbba3a8fa	-0.004994509
33	0xbec6d649	-0.38835362
34	0xbf2b0cfb	-0.6681668
35	0x3d7e8893	0.062141966
36	0x3d068144	0.03283812
37	0x3cac2934	0.02101574
38	0xbca87d1a	-0.020567466
39	0x3b984101	0.004646421
40	0xbecf3650	-0.40471125
41	0xbafec6b3	-0.0019437879
42	0xbf04aa15	-0.51822025
43	0x3d818ad3	0.06325307
44	0xbeade252	-0.3396173
45	0xbe68bb0f	-0.22727607
46	0x3d19d261	0.03755415
47	0xbd30b6e3	-0.043143164
48	0xbe0e649a	-0.13905564
49	0xbd5819ac	-0.052758858
50	0xbc5f2ac9	-0.013621041
51	0x3ba3609c	0.004985882
52	0xba1b9111	-0.00059343973
53	0xbd40a8b2	-0.04703588
54	0x3e5f8809	0.21829237
55	0xbd913602	-0.07090379
56	0x3b15b51c	0.0022843545
57	0x3c468841	0.012117446
58	0xbcc3d525	-0.023905346
59	0x3b0e5477	0.0021717825
60	0xbea594ac	-0.3233999
61	0x3c9d4e3b	0.019202342
62	0x3d96983e	0.07353257
63	0xbebbe5de	-0.36698812
64	0x3d5a188a	0.05324606
65	0xbe243264	-0.16034847
66	0xbe72ef47	-0.2372409
67	0x3d91e746	0.0712419
68	0xbd4c7516	-0.04991635
69	0xbc29691f	-0.010340004
70	0xbd56a3bc	-0.052402243
71	0xbdf1296d	-0.117754795
72	0xbc23a1c1	-0.009987296
73	0xbeb4b8db	-0.35297284
74	0x3cf27970	0.029598922
75	0x3cf69150	0.030098587
76	0x3c77a5b9	0.015115195
77	0x3cc8c2b4	0.024506904
78	0x3dc96ef0	0.09835613
79	0xbed7b105	-0.42127243
80	0x3db4b8a1	0.08824278
81	0x3d8bfaaf	0.068349235
82	0xbe04f911	-0.12985636
83	0x3d8934a3	0.06699493
84	0x3c04eecf	0.008113577
85	0xbc4b2c71	-0.012400732
86	0x3ccb8712	0.02484468
87	0xba3253da	-0.0006802656
88	0xbcd01a1b	-0.025403073
89	0xbce607d6	-0.028079908
90	0xbd429e6b	-0.04751436
91	0xbd85258a	-0.06501301
92	0x3d179d61	0.037015323
93	0xbbd34509	-0.0064474386
94	0xbb567cf0	-0.0032728277
95	0x3bbf1f9e	0.0058326265
96	0x3b5ab4ac	0.003337185
97	0xbbb20cb1	-0.005433642
98	0xbd042e51	-0.032270733
99	0xbefe277e	-0.49639505
100	0xbf010f65	-0.50414115
101	0xbe01636c	-0.12635583
102	0xbd36b771	-0.044608537
103	0x3d196939	0.037453864
104	0x3c2b69da	0.010462249
105	0x3d641577	0.055684533
106	0xbd7c1996	-0.06154784
107	0x3c4ec8bc	0.012621101
108	0xbda19dd6	-0.07891433
109	0xbce5053c	-0.027956598
110	0xbe0d1e87	-0.13781177
111	0xbd3bed0a	-0.045880355
112	0xbdf34d87	-0.118800215
113	0x3ce33975	0.027737359
114	0x3c801370	0.015634269
115	0x3bc58486	0.006027761
116	0x3d287a91	0.041132513
117	0x3f0cfdb1	0.550746
118	0xbcb0f229	-0.021599846
119	0xbd11e999	-0.035623167
120	0xbe2349b1	-0.1594608
121	0x3ccdcfe9	0.025123553
122	0xbd5fe25d	-0.054659236
123	0xbcdf3613	-0.027247464
124	0x3d004f7d	0.031325806
125	0xbcefd487	-0.029276146
126	0x3d26f99b	0.040765386
127	0x3be44331	0.0069660177
128	0x3ccd707e	0.025078055
129	0xbd4c1f56	-0.04983457
130	0x3bd337e0	0.00644587
131	0x3cdad895	0.026714602
132	0xbdacb9b4	-0.084338576
133	0x3e92a5f1	0.28642228
134	0x3e07a8e3	0.13248019
135	0x3d1ce31f	0.038302537
136	0x3d78b236	0.06071683
137	0x3d25393d	0.04033779
138	0x3d229816	0.03969582
139	0xbdff8ce3	-0.12478044
140	0xbf016985	-0.50551635
141	0xbd1ca55c	-0.038243636
142	0x3d088ed1	0.033339325
143	0xbc60db82	-0.01372421
144	0xbdabd58d	-0.08390341
145	0xbd218a4a	-0.039438523
146	0x3c24a961	0.010050149
147	0xbe4df6fa	-0.20113745
148	0xbe4375b3	-0.19087867
149	0xbd202e04	-0.039106384
150	0xbe6402f4	-0.22266752
151	0xbd08cfd9	-0.033401344
152	0xbd0f558f	-0.034993704
153	0xbd83b128	-0.06430274
154	0xbce58efe	-0.028022286
155	0xbced8e55	-0.028998533
156	0xbc881a46	-0.01661409
157	0xbf169d6b	-0.5883395
158	0x3b217b97	0.0024640316
159	0x3d2d75d4	0.042348698
160	0xbdb98fe2	-0.090606466
161	0x3b6d013f	0.0036164073
162	0x3c13c9ce	0.009020282
163	0x3d7caa86	0.06168606
164	0xbc26f542	-0.01019031
165	0x3b0ebaf3	0.002177891
166	0x3b68f781	0.0035547914
167	0xbe982857	-0.29718277
168	0xbf30fc1a	-0.69134676
169	0xbc6eecfb	-0.014582868
170	0x3cf08366	0.02935953
171	0xbf077282	-0.529091
172	0xbcd87b16	-0.02642588
173	0xbd8376ec	-0.06419167
174	0xbe1f0416	-0.15528902
175	0xbd1c212e	-0.03811758
176	0x3d4de87c	0.050270543
177	0xbd076f5c	-0.033065185
178	0xbda52126	-0.08062963
179	0xbbf4037b	-0.007446704
180	0xbd10b06f	-0.03532451
181	0x3e68768a	0.22701469
182	0x3ab25be6	0.001360771
183	0xbd990c70	-0.074730754
184	0x3d314c0a	0.043285407
185	0x3c0b51d8	0.0085034
186	0x3cb0211d	0.021500165
187	0xbe1e9f0d	-0.1549036
188	0xbd6a2d93	-0.05717237
189	0x3c9f1c8d	0.019422794
190	0xbd81f788	-0.06346041
191	0xbdb2c984	-0.08729842
192	0xbcf90b9a	-0.03040104
193	0xbdc14656	-0.09437244
194	0xbe17753f	-0.1479082
195	0x3d080d08	0.033215553
196	0xbe11367d	-0.14180942
197	0x3ca33186	0.019921076
198	0x3d436d1c	0.047711477
199	0x3d4534cf	0.048146065
200	0xbd10dcec	-0.035366938
201	0xbf2a7aea	-0.665938
202	0x3d71b6e4	0.05901231
203	0xbd10c08d	-0.03533988
204	0x3d7c358b	0.0615745
205	0x3d025795	0.031821806
206	0x3b256b6b	0.0025241028
207	0x3f4fb94c	0.81142116
208	0xbdff74ce	-0.124734506
209	0x3dfa3f07	0.12219053
210	0xbbf91444	-0.007601293
211	0x3cf04fe6	0.029334974
212	0xbdaf4016	-0.08557145
213	0x3d232a62	0.03983534
214	0xbd8f7a8e	-0.07005797
215	0xbd1dc7a4	-0.03852047
216	0x3d9a949e	0.07547878
217	0xbdc7b8b0	-0.09752023
218	0xbcd7e3cf	-0.026353745
219	0xbe011280	-0.12604713
220	0x3d6d023f	0.05786347
221	0x3d961dda	0.073299125
222	0xbe210fc6	-0.15728673
223	0x3cf459eb	0.029828032
224	0xbc7cf077	-0.015438191
225	0xbb2763b0	-0.0025541596
226	0x3a84e55d	0.0010139156
227	0x3c4e7380	0.0126007795
228	0xbcaff514	-0.021479167
229	0xbdf6c764	-0.120497495
230	0x3c2f962b	0.010716955
231	0xbd201c73	-0.03908963
232	0x3e04c21d	0.12964673
233	0x3c93e76f	0.018054692
234	0xbc8a0402	-0.016847614
235	0xbd952950	-0.0728327
236	0x3b14ef88	0.002272578
237	0x3d5e6fd6	0.054305874
238	0xbf07f498	-0.53107595
239	0xbefc6c7c	-0.49301517
240	0xbea46a1a	-0.321122
241	0xbd3f4947	-0.046700742
242	0xbc012ee1	-0.007884712
243	0xbe16b0a2	-0.14715818
244	0xbbfab6ce	-0.0076511865
245	0x3b26720c	0.0025397567
246	0x3c2f1949	0.010687181
247	0xbcf25757	-0.029582663
248	0xbc98c1be	-0.018647071
249	0x3dc6b0c3	0.09701683
250	0xbdbb384f	-0.091415994
251	0x3c93e11f	0.018051682
252	0x3cb63f8f	0.022247104
253	0xbde736e0	-0.112897635
254	0xbee9836f	-0.45608088
255	0x3e801acb	0.2502044

fc2.bias f4 [256]
0	0x3ce5fb55	0.028073946
1	0x3d200877	0.039070573
2	0x3ddc46cc	0.10755691
3	0x3d749078	0.05970809
4	0x3ccd20e0	0.02504009
5	0x3b4982ff	0.0030748246
6	0x3c9dbd4c	0.019255303
7	0x3d169587	0.036763694
8	0xbcba5c33	-0.022749042
9	0x3e0f9bf9	0.14024343
10	0xbc0d371c	-0.008619096
11	0xbd19f51f	-0.03758728
12	0x3db5f291	0.088841565
13	0x3c9d25b4	0.019183017
14	0x3cfbfa98	0.03075914
15	0x3e0197f3	0.1265562
16	0x3c15cf2b	0.009143631
17	0xbd072e00	-0.033002853
18	0x3e259e10	0.16173577
19	0x3d2d8338	0.042361468
20	0x3c163cdb	0.0091697825
21	0x3e00b5dd	0.12569375
22	0xbd04feac	-0.032469437
23	0xbcab1437	-0.020883663
24	0x3a802efe	0.000977963
25	0xbd1b7f2f	-0.03796309
26	0x3da78b08	0.08180815
27	0x3dd84bf9	0.10561366
28	0xbd0d6884	-0.034523502
29	0xbc9cbf11	-0.019134076
30	0x3d58a7b8	0.052894324
31	0xbb950f92	-0.0045489753
32	0x3d26db34	0.040736392
33	0xbc7cd159	-0.015430772
34	0xbb6f894a	-0.0036550337
35	0xbd267543	-0.040639173
36	0x3ddc83fc	0.107673615
37	0xbd600285	-0.054689903
38	0x3df5756e	0.119852886
39	0x3cb3f667	0.02196808
40	0x3c0f915c	0.008762684
41	0xbc94c4af	-0.018160192
42	0xbd21724d	-0.039415646
43	0x3c6293d7	0.013829193
44	0x3c4d6366	0.012535905
45	0xbd136e93	-0.035994124
46	0x3e25105d	0.16119523
47	0x3df8fb00	0.121572495
48	0xbd3e2ed7	-0.04643139
49	0x3deebc04	0.11656955
50	0x3b30b51b	0.0026963416
51	0x3c9fb2be	0.01949441
52	0x3c9df9d4	0.019284166
53	0x3d910037	0.07080119
54	0x3de2c081	0.110718735
55	0x3dbf1612	0.093303815
56	0x3cc79fda	0.024368215
57	0x3e1db868	0.15402377
58	0x3df53eda	0.119748786
59	0x3cb9c326	0.022676062
60	0x3daeaea3	0.08529403
61	0xbcfbc6f6	-0.03073452
62	0xbc826bd3	-0.015920555
63	0xbd22b96b	-0.03972761
64	0x3c77a5ba	0.015115196
65	0x3dc4594a	0.09587343
66	0x3c03f2cb	0.008053492
67	0x3cbbe3cb	0.022935769
68	0x3de4a402	0.111640945
69	0x3df4caa1	0.11952711
70	0x3cb2adcf	0.021811394
71	0xbd40a623	-0.04703344
72	0x3bd979dc	0.006636841
73	0x3d754b1b	0.05988608
74	0x3d9eb78f	0.07749855
75	0x3df44627	0.11927443
76	0xbc9e50e9	-0.01932569
77	0x3d2fe8e9	0.04294673
78	0x3ca65418	0.02030377
79	0x3da1e6e2	0.079053655
80	0x3df45f90	0.119322896
81	0x3ce9826a	0.02850457
82	0x3d04a133	0.032380294
83	0x3e048a2a	0.1294333
84	0xbd28f146	-0.04124572
85	0x3e030c6c	0.12797707
86	0xbd7bb132	-0.061448283
87	0x3e012d4d	0.12614937
88	0xbc3149e7	-0.010820842
89	0x3ddc7b7d	0.10765741
90	0xbbd91314	-0.0066245887
91	0x3e04ddf0	0.12975287
92	0xbd1ca8c3	-0.03824688
93	0x3d8166fc	0.06318471
94	0x3df6732d	0.12033687
95	0x3dafc8d7	0.08583229
96	0x3e32df75	0.17468055
97	0x3e1e3910	0.15451455
98	0x3ddf3951	0.10899604
99	0x3db8674b	0.090040766
100	0x3c9afb81	0.018918755
101	0x3d6f552a	0.05843083
102	0x3e1e1e77	0.15441309
103	0x3cfe6a5d	0.031056577
104	0x3dd5f839	0.10447735
105	0x3e0106af	0.12600206
106	0x3e2d050b	0.16896455
107	0x3e227e01	0.15868379
108	0x3c6a0c00	0.014285088
109	0x3d0bef6a	0.03416387
110	0xbcd7e352	-0.026353512
111	0xbc5ebda2	-0.013595017
112	0x3dfc7ea5	0.12328843
113	0x3d59b1df	0.053148147
114	0x3c564567	0.01307807
115	0xbd0e05aa	-0.03467337
116	0xbc5b0d6f	-0.013369902
117	0x3de37f81	0.11108304
118	0x3df35160	0.118807554
119	0x3dc20e3a	0.0947537
120	0xbd2b8aed	-0.041880537
121	0x3de7c6a2	0.11317183
122	0x3d181529	0.037129555
123	0xbd168c6d	-0.036755014
124	0x3dcada91	0.099049695
125	0xbd470167	-0.04858532
126	0x3dece9e0	0.115680456
127	0x3d11265b	0.03543697
128	0x3daa222d	0.083073
129	0xbc996b3b	-0.01872789
130	0x3e25e208	0.16199505
131	0x3aef689a	0.0018265427
132	0x3c2e12fe	0.010624645
133	0x3e108a3d	0.14115234
134	0x3dd08d2e	0.10183178
135	0x3d134e09	0.035963092
136	0x3e17acc1	0.14811994
137	0x3c4e0702	0.012574913
138	0x3dbc5cf2	0.091974154
139	0xbc2e5ede	-0.010642735
140	0x3e36f4f5	0.17866881
141	0x3daf49d9	0.08559007
142	0x399aa72b	0.0002949772
143	0xba42cb49	-0.00074308045
144	0xbc0b8d73	-0.008517611
145	0x3def843b	0.11695143
146	0x3e1bdffd	0.15222163
147	0x3dff1cee	0.1245669
148	0x3db88a34	0.09010735
149	0x3c172af1	0.009226547
150	0x3de5fa10	0.11229336
151	0xbca87020	-0.020561278
152	0x3e03c197	0.12866817
153	0x3e0fca49	0.1404201
154	0x3c0e97d0	0.008703187
155	0x3e0c8785	0.13723572
156	0x37f23e62	2.8877697e-05
157	0x3e18a243	0.14905648
158	0x3bbebae2	0.005820618
159	0x3e0c686b	0.13711707
160	0x3c82648b	0.015917083
161	0x3de20879	0.11036772
162	0x3e0b611f	0.13611268
163	0x3ced9d1a	0.029005576
164	0xbd256ec6	-0.040388845
165	0xbb50ae86	-0.0031842305
166	0x3d4022d1	0.046908204
167	0x3ca4b08e	0.02010372
168	0x3d9f8e45	0.07790808
169	0x3dd03816	0.101669475
170	0x3ddc3ee9	0.10754187
171	0x3bbd3bf7	0.0057749706
172	0x3e08a8f2	0.13345698
173	0x3e12d6ed	0.143398
174	0x3dd407ac	0.10353026
175	0x3ce05dbb	0.027388444
176	0x3cb5220b	0.02211096
177	0xbd8265c3	-0.06367066
178	0x3d6f480e	0.058418326
179	0xbccd74bd	-0.02508008
180	0xbd467056	-0.048446976
181	0x3e2e06de	0.16994807
182	0x3b7af2ac	0.0038291616
183	0x3deaeedc	0.1147134
184	0x3dc8c8b2	0.098039046
185	0xbc2a5094	-0.010395188
186	0xbc326fc7	-0.010890908
187	0xbd25beb6	-0.04046508
188	0xbbf678fc	-0.0075217467
189	0xbd64ef9d	-0.055892576
190	0x3e5d6ceb	0.2162358
191	0x3dfa75d1	0.12229503
192	0xbcc65baf	-0.02421364
193	0x3dcdd91c	0.10051176
194	0x3d1d657f	0.038426872
195	0xbd1b715b	-0.0379499
196	0x3e0a6c98	0.13517988
197	0x3e05aa7d	0.13053317
198	0x3dfa1504	0.1221104
199	0xbcd53f2e	-0.026031103
200	0xbd048199	-0.032350156
201	0x3db1f6de	0.08689664
202	0x3c80c0cf	0.015716938
203	0x3b2b0210	0.0026093759
204	0x3dfc0f15	0.12307564
205	0xba7f2fc9	-0.00097345986
206	0x3ccd9e42	0.025099877
207	0x3db85486	0.090004966
208	0x3de0c203	0.10974505
209	0x3c60ca52	0.013720112
210	0x3dd69150	0.10476935
211	0x3e012f95	0.12615807
212	0x3d099cd7	0.03359684
213	0xbc998869	-0.018741803
214	0x3caf8a7e	0.021428343
215	0x3c6ca212	0.014442937
216	0x3d65b7ca	0.056083478
217	0x3dbce815	0.09223954
218	0x3ddb7cd9	0.10717172
219	0x3dcc8751	0.09986747
220	0x3dc14089	0.09436137
221	0x3d3a5bd5	0.045497734
222	0x3d04cf24	0.032424107
223	0x3d09f3a3	0.033679616
224	0x3e0bc5c6	0.13649663
225	0x3e1fccea	0.15605512
226	0xbca5d739	-0.020244228
227	0x3d844563	0.06458547
228	0x3ddee6d5	0.108838715
229	0xbd1bc9ad	-0.03803413
230	0xbbb799f6	-0.0056030704
231	0x3cbd4c04	0.023107536
232	0x3d7c80f4	0.061646417
233	0x3de61ab6	0.112355635
234	0x3e1a5505	0.15071495
235	0xbccd9798	-0.0250967
236	0x3e191db9	0.14952745
237	0x3e240c75	0.16020377
238	0x3e1b01a4	0.15137345
239	0x3dbc8c4a	0.092064455
240	0x3e25f5a5	0.16206987
241	0x3dbfeffa	0.09371944
242	0x3d159137	0.03651544
243	0xbc9054ef	-0.017618624
244	0xbc459fe7	-0.0120620495
245	0x3e0fb325	0.14033182
246	0x3e137bbe	0.14402673
247	0x3d600e4d	0.05470114
248	0x3dac978e	0.08427344
249	0x3daf9a69	0.08574373
250	0x3dc0c9a5	0.09413461
251	0xbd0e3920	-0.034722447
252	0x3debfda5	0.11522988
253	0xbd10507d	-0.03523301
254	0x3e0376f9	0.12838353
255	0x3e2cf65e	0.16890857

fc3.weight f4 [2, 256]
0	0xbe729206	-0.23688516
1	0xbe2ae69b	-0.16689532
2	0x3e54d059	0.20782603
3	0xbe8b2366	-0.27175444
4	0xbc95cde1	-0.018286647
5	0x3c27e629	0.010247746
6	0x3efc6e0a	0.49302703
7	0xbce7e275	-0.028306225
8	0xbea09684	-0.31364834
9	0x3e8bfb3e	0.2734012
10	0xbc6d7e1a	-0.014495397
11	0x3cfaeb7c	0.030629866
12	0x3e838c3b	0.25692925
13	0xbdeedb7b	-0.11662956
14	0xbea646c0	-0.32475853
15	0x3e8ba2cf	0.2727265
16	0xbea03a58	-0.31294513
17	0xbe5d8f16	-0.21636614
18	0x3e666e03	0.22502904
19	0xbdbfe1e7	-0.09369259
20	0xbc9f0e2b	-0.019415936
21	0x3e4e8427	0.201676
22	0xbd04c6fd	-0.032416333
23	0x3d2acbf0	0.041698396
24	0xbe1a501e	-0.15069625
25	0xbe15ec4e	-0.14640924
26	0x3e82cd9f	0.255475
27	0xbe78d9f4	-0.24301893
28	0xbe7720c2	-0.2413359
29	0xbcc7aca7	-0.02437432
30	0xbea5d80e	-0.323914
31	0xbeac1f1f	-0.33617494
32	0xbe03ee98	-0.12883985
33	0xbe61033d	-0.21973892
34	0xbc507718	-0.012723707
35	0x3d1b5441	0.037922148
36	0x3e4d8363	0.20069651
37	0xbe8d19df	-0.275588
38	0x3ea20850	0.31646967
39	0x396fac2a	0.00022856952
40	0xbda7d607	-0.08195119
41	0x3aab8dc1	0.0013088511
42	0x3c23cfbc	0.009998258
43	0x3d2f2215	0.042757113
44	0xbdb1b4f6	-0.08677094
45	0xbeada4ba	-0.3391474
46	0x3e6af62f	0.22945474
47	0x3e6dd7e7	0.23226891
48	0xbea846f3	-0.3286663
49	0x3e6b8824	0.23001152
50	0xbd250710	-0.04028994
51	0x3bd9778a	0.0066365646
52	0xbd0d303d	-0.03446983
53	0x3e8bf241	0.27333263
54	0x3e4ff188	0.2030698
55	0x3e597dd3	0.21239404
56	0xbe287fb1	-0.1645496
57	0x3e3b997e	0.18320271
58	0x3e66af1c	0.22527736
59	0xbd1b6391	-0.03793675
60	0x3e913105	0.2835771
61	0xbe92955e	-0.28629583
62	0xbe9cf19d	-0.30653086
63	0xbe6f66ac	-0.2337901
64	0x3c30e82f	0.010797544
65	0x3e7a5534	0.24446565
66	0xbea96a6d	-0.3308901
67	0xbc08d0f6	-0.008350601
68	0x3e1d28e0	0.15347624
69	0x3e426f6f	0.18987821
70	0x3aebba02	0.0017984512
71	0xbdabe96d	-0.08394132
72	0xbe407267	-0.18793641
73	0xba209bb9	-0.000612672
74	0xbd8156b4	-0.063153654
75	0x3e54f0d9	0.20795001
76	0x3cf11cb2	0.029432628
77	0xbe0ed00e	-0.13946554
78	0xbd610e05	-0.05494501
79	0x3e6694ca	0.22517696
80	0x3e3ccd13	0.18437605
81	0xbd875726	-0.06608419
82	0xbd27d1ae	-0.04097145
83	0x3e8c52d8	0.27406955
84	0xbe81030e	-0.25197643
85	0x3e87b509	0.26505306
86	0xbe851ea2	-0.25999933
87	0x3e6a5db0	0.22887301
88	0xbe7f6c66	-0.24943694
89	0x3e85e1f5	0.26148954
90	0x3c96e177	0.018418057
91	0x3e760d98	0.24028623
92	0x3d218503	0.03943349
93	0xbde57c1b	-0.11205312
94	0x3e66a4c9	0.22523798
95	0x3ea7d615	0.3278052
96	0x3e3c6979	0.1839961
97	0x3e3cd3cb	0.18440168
98	0x3e82c86d	0.25543538
99	0xbe1821f0	-0.14856696
100	0xbd156f3b	-0.03648303
101	0x3e36ea89	0.17862906
102	0x3e67bbc1	0.22630216
103	0x3ee2e6be	0.44316667
104	0x3e956297	0.2917678
105	0x3e8c992f	0.2746062
106	0x3e5021c7	0.20325385
107	0x3e5fbc47	0.21849166
108	0xbe80fa2b	-0.25190863
109	0xbc912e16	-0.01772217
110	0x3d100ab9	0.035166476
111	0x3ca55d6a	0.020186145
112	0x3e7499c9	0.2388679
113	0x3e8fe432	0.28103787
114	0xbe231f60	-0.15929937
115	0xbcfcdcda	-0.030867029
116	0xbe9e369f	-0.30901048
117	0x3e7a5a3c	0.24448484
118	0x3e4ba3a5	0.19886644
119	0x3e53478c	0.20632762
120	0xbd084d06	-0.03327658
121	0x3e6733e3	0.22578387
122	0x3cc7f181	0.02440715
123	0xbe8e324d	-0.2777275
124	0x3e39721e	0.18109939
125	0xbe422f70	-0.18963408
126	0x3e708b34	0.23490602
127	0xbd080e76	-0.033216916
128	0x3e61a9b3	0.22037391
129	0xbe207e36	-0.15673146
130	0x3e5abb33	0.21360473
131	0xbe859586	-0.2609064
132	0xbea48410	-0.32132006
133	0x3e8c6697	0.2742202
134	0x3e3f6f65	0.18694837
135	0xbe935ca5	-0.2878162
136	0x3e8a5dfe	0.27024835
137	0xbe96f864	-0.29486382
138	0x3e725637	0.23665701
139	0xbdded0fc	-0.10879704
140	0x3e39e527	0.18153821
141	0x3e841613	0.2579809
142	0xbe1e2e50	-0.15447354
143	0xbdf96d98	-0.121791065
144	0xbe01b323	-0.12665991
145	0x3e731fac	0.2374255
146	0x3e62e140	0.22156239
147	0x3e86f534	0.2635895
148	0x3e902f44	0.2816106
149	0x3d268e06	0.040662788
150	0x3e6abce6	0.22923622
151	0xbe7c6588	-0.24648106
152	0x3e8abcca	0.2709716
153	0x3e491706	0.19637689
154	0xbc255a36	-0.010092309
155	0x3e707d8a	0.2348539
156	0xbe98aa6b	-0.2981752
157	0x3e76be19	0.24095954
158	0xbe3e7a47	-0.18601333
159	0x3e40c5bf	0.18825434
160	0x3c94a605	0.01814557
161	0x3e8c71f7	0.27430698
162	0x3e96acfd	0.29428855
163	0xbe0e8775	-0.1391886
164	0x3ea98c7a	0.33114988
165	0xbac290b1	-0.0014844147
166	0xbd038fca	-0.03211955
167	0xbd042b83	-0.03226806
168	0x3e961ca2	0.2931872
169	0x3e6d3b14	0.23167068
170	0x3e7af31f	0.24506806
171	0xbe583a7c	-0.2111606
172	0x3e79b685	0.24386032
173	0x3e7523f9	0.23939504
174	0x3e763fbe	0.24047753
175	0xbc14f1cd	-0.009090853
176	0xbb1256f7	-0.0022329667
177	0xbe68425b	-0.22681563
178	0x3e88ef5b	0.26745114
179	0xbe87f44b	-0.26553568
180	0xbe9ccec5	-0.30626503
181	0x3e8647c4	0.26226628
182	0xbdcf4577	-0.10120671
183	0x3e764d2e	0.24052879
184	0x3e6d64b8	0.23182952
185	0x3d7840ec	0.06060879
186	0xbd978d2f	-0.073999755
187	0x3ba734c3	0.0051027252
188	0xbe29626d	-0.16541453
189	0xbdf58c73	-0.11989679
190	0x3eb9c1f3	0.36280784
191	0x3e8cb6e5	0.27483287
192	0xbb94942b	-0.0045342646
193	0x3e5425e0	0.20717573
194	0x3c73c2a4	0.014877949
195	0x3d07581b	0.03304301
196	0x3e466924	0.19376045
197	0x3e7b3649	0.24532427
198	0x3e722756	0.23647818
199	0x3c66a50e	0.014077438
200	0x3d201537	0.039082732
201	0x3eb443a6	0.35207862
202	0xbe95e1ff	-0.29273984
203	0xbe719db4	-0.23595315
204	0x3e793e34	0.24340135
205	0xbe135165	-0.14386518
206	0xbd0e8341	-0.034793142
207	0x3e75e1f3	0.24011974
208	0x3e762d8f	0.24040817
209	0x3df2bd97	0.11852568
210	0x3e611613	0.21981077
211	0x3e857687	0.26066992
212	0xbd1a17cf	-0.037620362
213	0x3c1d7339	0.009609991
214	0xbdd845d2	-0.10560192
215	0xbd9d4cfb	-0.076806985
216	0x3e8cc598	0.27494502
217	0x3e82d714	0.25554717
218	0x3e60661c	0.21913952
219	0x3e5178a4	0.20456177
220	0x3e189c25	0.14903314
221	0x3e146ad6	0.1449388
222	0xbe441f31	-0.19152524
223	0xbe79980a	-0.24374405
224	0x3e4efe29	0.20214142
225	0x3e595ec5	0.21227558
226	0x3c2ecc9e	0.010668902
227	0x3e82b50d	0.25528756
228	0x3e77e6a0	0.2420907
229	0xbd17e315	-0.037081797
230	0x3ec7f0c7	0.39050886
231	0xbe349d5b	-0.17638151
232	0xbdf59e94	-0.11993137
233	0x3e827d9f	0.25486466
234	0x3e3c7d9b	0.1840729
235	0x3c74a49b	0.014931823
236	0x3e400da1	0.18755199
237	0x3e74baa0	0.23899317
238	0x3e77354f	0.2414143
239	0x3e4734e4	0.1945377
240	0x3e55541a	0.20832863
241	0x3e56536c	0.2093026
242	0xbe376ca3	-0.17912535
243	0xbe5d8916	-0.21634325
244	0xbd242e4a	-0.040083207
245	0x3e6e82c0	0.23292065
246	0x3e803bdb	0.25045666
247	0x3dd7ebbd	0.105430104
248	0x3d5cee02	0.05393792
249	0x3e571d42	0.21007255
250	0x3e75fab0	0.24021411
251	0xbcb65a8b	-0.022259971
252	0x3e4b9a4d	0.1988308
253	0x3cad2249	0.021134512
254	0x3e8b0ec0	0.2715969
255	0x3e7e22f7	0.24818026

fc3.bias f4 [2]
0	0x3dd9896c	0.10621914
1	0x3cb9dd57	0.02268855
