weights/dqn_cartpolev1.pt (torch, 272591 bytes, 6 tensors)

fc1.weight f4 [256, 4]
-0.18061192 -0.26468796 -0.18912192 0.036087714 -0.073022686 0.06385979 1.1096689 0.20495176
-0.0374755 0.026494348 0.33659363 -0.14294592 -0.37300056 -0.40352345 -0.30989468 0.10345076
-0.056364663 0.029159356 1.0944986 0.1075512 -0.14211778 0.24278694 -0.023689896 0.20698148
0.0824049 0.029665876 -0.85259867 -0.072708935 0.08432701 0.07888097 -0.052789044 -0.020194449
0.008216855 0.0032487598 0.12404564 -0.07182083 -0.12704884 0.2901784 -0.06951851 0.11192003
0.63667524 -0.09501888 -0.1214627 0.2749423 0.37254792 -0.13067645 -0.029856212 0.1521155
0.23132293 0.25359985 -0.13302329 0.09579368 0.12410263 -0.08865173 -0.33753887 -0.082070805
0.11063104 -0.14213279 0.2913439 -0.18455662 -0.06700526 -0.06199989 -0.31237957 0.011477299
-0.0013453822 0.09056783 -0.17973383 0.034907933 0.10341353 0.15116328 0.31443 -0.31205252
-0.07593229 0.09839712 0.60219514 0.19099072 -0.064013325 0.056570683 -0.069638275 -0.062427998
0.26850304 0.18945397 0.58258116 0.12351871 -0.22333525 -0.026029618 0.47637987 -0.080191396
0.38055974 0.23263952 -0.5641207 -0.15695837 0.38011685 0.042583812 -0.06588145 -0.024547927
0.5045787 0.22825672 -0.59411716 -0.18363225 0.106069855 -0.055368986 -0.15020254 0.04903742
-0.22330734 -0.23714398 -0.5167328 -0.23431128 0.1457653 0.0042893905 0.31498313 0.0256305
-0.06914397 0.055815488 0.80612385 0.23941225 0.22751404 0.106342226 0.6516844 0.11568739
-0.019364381 -0.19921698 0.63172877 0.24362873 -0.08933207 0.046638798 0.8777123 0.106201455
0.53163457 0.13839659 -0.41561672 0.096504875 0.23865621 -0.029624298 -0.5025866 -0.1958578
0.33219686 -0.032471046 -0.63866436 -0.051198903 -0.11258627 0.23194371 0.13980712 0.10646907
-0.02362232 0.09368693 0.1252117 -0.16476949 0.03595932 0.066691756 -0.14274842 0.09308297
-0.0028605484 -0.05809129 0.20171195 0.12957853 0.1351049 -0.00076171407 0.74087495 0.21965435
0.09017441 0.036972597 0.7767271 0.040886004 0.51409215 0.1704146 0.2884934 0.192908
0.23371175 -0.045888565 -0.81614363 -0.21177658 -0.096801475 0.0651867 0.93260443 0.18449143
0.14306736 -0.034500606 -1.0061601 -0.25720555 -0.21703696 -0.10859189 -0.72499084 -0.21901533
-0.050821595 0.14698122 0.78622806 0.069063306 -0.07860231 -0.44537267 -0.0718526 -0.34913033
0.06498521 -0.23174495 -0.28259158 0.11671817 -0.1785775 -0.091395356 -0.7391989 -0.09760414
0.04124477 0.16443117 -0.5485842 -0.15563916 -0.002616438 -0.03195868 0.32719296 0.11781992
0.09311831 0.11541867 0.8584544 -0.09493005 -0.11871841 -0.13769557 0.37909475 0.19211228
-0.48429874 -0.05667235 0.26672325 0.066945806 -0.42551747 0.040685628 0.2342677 0.023080882
-0.031314734 -0.13498224 0.25534034 -0.18761447 0.1586138 -0.09000443 -0.573487 -0.0017948521
-0.37290183 0.045520876 0.3340631 0.05417127 0.014628042 -0.10311532 0.12962508 0.1388464
0.3708034 -0.049542096 -0.5639671 0.065371424 -0.40892655 0.12439532 0.4530878 -0.00671913
-0.118435755 0.21110946 0.17254242 -0.14615951 0.16803394 0.23003553 -0.71349305 -0.07189657
00000000: 55f2 38be 2e85 87be 2da9 41be b6d0 133d
00000010: eb8c 95bd ecc8 823d a109 8e3f e0de 513e
00000020: e97f 19bd ad0a d93c 0056 ac3e 6a60 12be
00000030: eef9 bebe a09a cebe 84aa 9ebe fedd d33d
00000040: a2de 66bd 9adf ee3c 8818 8c3f ce43 dc3d
00000050: 5387 11be 249d 783e 5011 c2bc f4f2 533e
00000060: e6c3 a83d da05 f33c e843 5abf 6ce8 94bd
00000070: a4b3 ac3d 598c a13d 5339 58bd d46e a5bc
00000080: fd9f 063c 25e9 543b a40b fe3d cd16 93bd
00000090: 1719 02be 4392 943e b85f 8ebd 5436 e53d
000000a0: 26fd 223f 4299 c2bd 70c1 f8bd 3dc5 8c3e
000000b0: 9abe be3e 0cd0 05be 0495 f4bc 2ac4 1b3e
000000c0: ebdf 6c3e d7d7 813e 4237 08be 7a2f c43d
000000d0: 8529 fe3d 0a8f b5bd e5d1 acbe bd14 a8bd
000000e0: 8792 e23d 428b 11be 072b 953e 69fc 3cbe
000000f0: 0e3a 89bd 99f3 7dbd 37f0 9fbe 480b 3c3c
00000100: 8957 b0ba a07b b93d 250c 38be 9ffb 0e3d
00000110: 79ca d33d 8cca 1a3e f8fc a03e 59c5 9fbe
00000120: 6382 9bbd 6e84 c93d 7629 1a3f 1293 433e
00000130: 6b19 83bd a9b6 673d 839e 8ebd 80b4 7fbd
00000140: 3b79 893e 3900 423e 0a24 153f 61f7 fc3d
00000150: ffb1 64be 113c d5bc 10e8 f33e 633b a4bd
00000160: bad8 c23e 0e39 6e3e 376a 10bf b2b9 20be
00000170: ad9e c23e 5d6c 2e3d dbec 86bd bc18 c9bc
00000180: 122c 013f 21bc 693e 1018 18bf 180a 3cbe
00000190: 273b d93d 97ca 62bd b2ce 19be 76db 483d
000001a0: aeaa 64be dfd5 72be 9a48 04bf 4cef 6fbe
000001b0: 8043 153e 048e 8c3b 7845 a13e 0ef7 d13c
000001c0: 5b9b 8dbd c89e 643d 225e 4e3f 7c28 753e
000001d0: 71f9 683e f4c9 d93d cad4 263f 83ed ec3d
000001e0: 0da2 9ebc 89ff 4bbe fab8 213f cf79 793e
000001f0: bbf3 b6bd 5308 3f3d c1b1 603f 2680 d93d
00000200: 3419 083f d6b7 0d3e b7cb d4be 59a4 c53d
00000210: 4b62 743e a8ae f2bc 84a9 00bf f28e 48be
00000220: b515 aa3e 5c00 05bd 827f 23bf f1b5 51bd
00000230: a193 e6bd a782 6d3e 9929 0f3e 750c da3d
00000240: 9883 c1bc efde bf3d 7f37 003e 55b9 28be
00000250: 144a 133d b095 883d a42c 12be 49a2 be3d
00000260: 0a78 3bbb 22f1 6dbd 948d 4e3e 3cb0 043e
00000270: f058 0a3e c4ad 47ba fba9 3d3f 12ed 603e
00000280: 5cad b83d 9470 173d 96d7 463f 1578 273d
00000290: 8b9b 033f 2a81 2e3e 68b5 933e ad89 453e
000002a0: 2252 6f3e a6f5 3bbd caee 50bf f6db 58be
000002b0: da3f c6bd 9b80 853d 2abf 6e3f 52eb 3c3e
000002c0: 4080 123e 8250 0dbd dbc9 80bf 72b0 83be
000002d0: f03e 5ebe 6d65 debd 0099 39bf 8e45 60be
000002e0: 4e2a 50bd 3f82 163e 3e46 493f 1071 8d3d
000002f0: 3ffa a0bd e307 e4be 7527 93bd 36c1 b2be
00000300: f716 853d 8c4e 6dbe d8af 90be f009 ef3d
00000310: 05dd 36be 7d2d bbbd 243c 3dbf aee4 c7bd
00000320: 47f0 283d a560 283e 0470 0cbf df5f 1fbe
00000330: 8c78 2bbb 1be7 02bd d685 a73e 924b f13d
00000340: d0b4 be3d a060 ec3d abc3 5b3f b06a c2bd
00000350: a322 f3bd 1100 0dbe b518 c23e 15b9 443e
00000360: 01f6 f7be 4421 68bd f38f 883e e21a 893d
00000370: 6ddd d9be f9a5 263d dfe3 6f3e 1e14 bd3c
00000380: e143 00bd c938 0abe f8bb 823e 021e 40be
00000390: a86b 223e 3e54 b8bd 0bd0 12bf 3e41 ebba
000003a0: fdec bebe 1974 3a3d 520a ab3e b2e2 5d3d
000003b0: 74aa 6f3c 202e d3bd 70bc 043e c02d 0e3e
000003c0: f1d9 bd3e a7ec 4abd 2660 10bf 74e1 853d
000003d0: d25e d1be f9c2 fe3d 20fb e73e 262c dcbb
000003e0: 728e f2bd 142d 583e f6ae 303e d7aa 15be
000003f0: 1711 2c3e 6f8e 6b3e 7ba7 36bf 823e 93bd

fc1.bias f4 [256]
0.17970735 -0.21443112 0.38369966 -0.15184958 -0.19449551 0.27917883 -0.16590261 0.39893442
0.32566458 -0.12198308 0.17568928 -0.23724104 -0.12340479 0.31464162 0.35691857 0.40425757
0.30080014 0.23463358 0.30328757 0.33212402 -0.08220267 0.17846838 -0.21545242 0.22031891
0.05321398 0.33261016 -0.046745144 0.3255906 -0.11998776 -0.13825831 -0.22124125 -0.1809781
0.2206819 -0.19439289 -0.08622054 0.21791741 0.22493523 0.21624641 0.3537533 -0.071445234
0.09002392 0.093362324 -0.24245803 -0.1991365 -0.25261465 -0.15629439 0.23987506 0.07290461
-0.0037350778 -0.05677745 0.24659084 0.31685662 0.10036673 -0.28889334 0.07370086 -0.0375753
0.39652392 0.32332754 0.2309049 0.20402405 -0.06942076 0.16695611 0.39177486 -0.21625851
0.13044243 -0.041066635 -0.17939848 -0.19298765 0.11971326 0.040271536 0.38705453 -0.09859166
0.2858981 -0.09898553 0.34499723 0.4170247 0.16813278 0.087108895 0.1101533 -0.22531053
0.17770429 0.19436537 -0.14098868 0.09665078 0.27663878 0.22700895 0.349015 0.31452993
0.29098883 -0.18166721 -0.09588603 0.24569346 0.035955872 -0.18445933 -0.18582617 -0.17064819
0.19365554 0.12381021 0.21735777 -0.22339538 -0.12052792 -0.1909836 -0.26374784 0.30758083
-0.08554652 0.083254285 0.21857977 -0.25187963 0.14149325 -0.1820499 -0.3336174 0.32966757
-0.11921899 0.2356278 0.40768746 0.26816452 0.33145836 0.028131014 0.3675127 0.3463414
0.18029766 0.34447244 0.3618628 0.2564294 0.2524938 -0.19268337 0.1902426 0.32535717
-0.16707806 -0.1575873 0.27772975 0.24999322 0.06065166 -0.019285837 0.10369036 0.41545495
0.33503866 0.30437163 0.38350487 -0.24608651 -0.025108729 0.34903404 0.21466953 -0.037940532
-0.076537415 0.10120958 0.21658447 -0.17249607 -0.07046143 0.22819757 0.09279774 -0.13745515
-0.14590822 -0.19491477 0.401548 0.26677948 -0.09681778 -0.09279007 0.2316008 0.37206638
-0.17464548 0.31082767 0.061945472 0.36906382 0.3706869 0.22074738 0.36113974 -0.105605364
-0.19109972 0.23855983 0.33449072 -0.257249 -0.23498654 0.090634964 -0.07503084 0.14868833
0.19746383 0.09353888 -0.2097578 0.03212239 0.041017048 0.14852189 0.32932132 -0.012473429
-0.20049436 0.37917513 0.2822326 0.22043532 0.23839101 0.009006003 0.17159487 0.054958183
0.29372832 -0.21212746 0.13219734 -0.22285438 0.019886788 0.40285715 0.12982273 0.40183353
-0.20068234 -0.22070214 -0.20934573 0.3296823 0.27002582 0.3646274 -0.19453925 -0.25320157
-0.15704693 -0.052997313 0.15405498 0.23484913 -0.11928635 0.34509605 0.120456696 0.22419591
0.33346114 0.23357959 0.37195507 -0.09764867 -0.18947522 0.080606826 0.1284922 -0.18485834
0.1672016 0.3908786 0.29377237 0.3837892 0.2886769 -0.21458298 0.34434262 0.25651538
0.10831664 0.34591562 0.36661667 -0.036293507 -0.22576068 0.10050262 -0.13504235 -0.18819687
-0.114563495 0.2817648 -0.18452457 -0.024405817 0.15083048 0.24289136 0.37411284 0.38377938
0.15919991 -0.049081873 0.19795206 0.38317397 -0.17023152 -0.17944096 -0.12857883 -0.019373044
00000000: 3405 383e d593 5bbe 4874 c43e 757e 1bbe
00000010: d529 47be 87f0 8e3e 60e2 29be 2241 cc3e
00000020: 82bd a63e 44d2 f9bd e4e7 333e 51ef 72be
00000030: a7bb fcbd b518 a13e 08be b63e d9fa ce3e
00000040: 7a02 9a3e c943 703e 8248 9b3e 290c aa3e
00000050: e059 a8bd 6ac0 363e 8f9f 5cbe 489b 613e
00000060: e7f6 593d e14b aa3e d677 3fbd d0b3 a63e
00000070: 25bc f5bd 9693 0dbe 118d 62be 5352 39be
00000080: 70fa 613e ee0e 47be 6594 b0bd be25 5f3e
00000090: 6c55 663e b36f 5d3e 271f b53e e151 92bd
000000a0: 765e b83d bf34 bf3d eb46 78be 70ea 4bbe
000000b0: b556 81be a30b 20be cfa1 753e 034f 953d
000000c0: 35c8 74bb 798f 68bd 4f82 7c3e 083b a23e
000000d0: 128d cd3d d4e9 93be 7af0 963d 8fe8 19bd
000000e0: 2f05 cb3e 308b a53e 5672 6c3e aeeb 503e
000000f0: 792c 8ebd 8bf6 2a3e b796 c83e df72 5dbe
00000100: b392 053e 7d35 28bd 3cb4 37be 8e9e 45be
00000110: 3a2c f53d c4f3 243d 032c c63e 6dea c9bd
00000120: 3c61 923e edb8 cabd 7aa3 b03e 4384 d53e
00000130: 002b 2c3e 2666 b23d 0e98 e13d ceb7 66be
00000140: 1df8 353e b707 473e 565f 10be d8f0 c53d
00000150: 99a3 8d3e 0975 683e 18b2 b23e 110a a13e
00000160: 7dfc 943e f806 3abe e55f c4bd 1197 7b3e
00000170: 7746 133d e8e2 3cbe 3749 3ebe 66be 2ebe
00000180: a34d 463e 3590 fd3d 0993 5e3e c2c1 64be
00000190: 58d7 f6bd 3491 43be f509 87be 3c7b 9d3e
000001a0: 0433 afbd 3981 aa3d 60d3 5f3e 5ef6 80be
000001b0: 9be3 103e 4a6b 3abe e6cf aabe 30ca a83e
000001c0: 1629 f4bd 6a48 713e 69bc d03e dc4c 893e
000001d0: e9b4 a93e 0373 e63c a02a bc3e a953 b13e
000001e0: f39f 383e b15e b03e 1546 b93e b74a 833e
000001f0: de46 813e ca4e 45be f5ce 423e 3795 a63e
00000200: 8316 2bbe 915e 21be 9832 8e3e 39fe 7f3e
00000210: e06d 783d 55fd 9dbc 9d5b d43d 83b6 d43e
00000220: 308a ab3e 99d6 9b3e c05a c43e 1afe 7bbe
00000230: d2b0 cdbc 97b4 b23e 54d2 5b3e 8867 1bbd
00000240: a6bf 9cbd f846 cf3d 52c8 5d3e cfa2 30be
00000250: 154e 90bd a0ac 693e be0c be3d 0bc1 0cbe
00000260: f768 15be bd97 47be b397 cd3e 5297 883e
00000270: 6648 c6bd b808 bebd c328 6d3e 7c7f be3e
00000280: 44d6 32be ce24 9f3e 89ba 7d3d eff5 bc3e
00000290: acca bd3e 9a0b 623e 4fe7 b83e a047 d8bd
000002a0: a5af 43be 0749 743e 5e42 ab3e 24b6 83be
000002b0: 50a0 70be d39e b93d c5a9 99bd c141 183e
000002c0: f533 4a3e 5091 bf3d c0ca 56be c492 033d
000002d0: 7e01 283d 1f16 183e ce9c a83e 5a5d 4cbc
000002e0: 654e 4dbe 3e23 c23e cb80 903e ccb9 613e
000002f0: c61c 743e ea8d 133c 91b6 2f3e d51b 613d
00000300: 8f63 963e f137 59be bd5e 073e f033 64be
00000310: 9ee9 a23c 4b43 ce3e 40f0 043e 20bd cd3e
00000320: ac7f 4dbe beff 61be ba5e 56be 1ecc a83e
00000330: d340 8a3e 71b0 ba3e 4c35 47be a3a3 81be
00000340: e9d0 20be b613 59bd 97c0 1d3e 4a7c 703e
00000350: 674c f4bd 6eb0 b03e 00b2 f63d 9d93 653e
00000360: 6bbb aa3e 7d2f 6f3e e570 be3e 07fc c7bd
00000370: cb05 42be 3115 a53d 7693 033e 814b 3dbe
00000380: e536 2b3e 3d21 c83e 5569 963e 0580 c43e
00000390: 75cd 933e a4bb 5bbe ad4d b03e fc55 833e
000003a0: 1dd5 dd3d da1b b13e 2eb5 bb3e 80a8 14bd
000003b0: cf2d 67be 51d4 cd3d 8b48 0abe aeb6 40be
000003c0: 44a0 eabd 7a43 903e 02f4 3cbe b5ee c7bc
000003d0: 4e73 1a3e 83b8 783e b88b bf3e bb7e c43e
000003e0: 4d05 233e 130a 49bd f2b3 4a3e 612f c43e
000003f0: 2c51 2ebe 5fbf 37be 2baa 03be 38b4 9ebc

fc2.weight f4 [256, 256]
0.019254224 0.18657157 0.25448573 -0.32057407 0.22844976 0.1325426 -2.1051047 0.19489634
0.187901 0.050428014 0.016823703 -0.34567425 -0.48015082 0.17080921 0.20383433 0.10229625
0.15154372 0.15664965 0.09759667 0.21781825 -0.09820764 0.22640266 -0.574564 0.12855193
-0.7503989 0.07634911 -0.20109847 0.16361704 -0.12852794 -0.50414187 -0.13441233 0.050220013
-0.24782248 -1.2903116 -1.2574972 0.20041706 0.19377631 0.104014814 0.075168826 0.06638992
-0.22615184 0.017007535 -2.049835 0.12501724 -2.1200807 -0.9126912 0.10672147 -0.0030946273
-0.0826335 -0.33818668 -0.14861676 0.09236765 0.13290697 -0.40170035 0.20399277 -0.050185464
0.22190556 0.10246135 0.10950135 0.08853386 -0.70184964 0.34506118 0.22149871 -0.8489708
0.11488521 -0.6382156 -2.0694394 0.31278744 -0.32754165 0.064016186 0.058425993 -0.7590023
0.14597839 -1.9111423 0.20321083 0.21783435 0.15981056 0.06971216 0.38758138 -1.7299192
0.32102287 0.18254583 -0.19957688 -0.117779024 -0.09367536 0.0364747 0.11734456 -0.099266246
0.05684571 0.040074714 0.035529386 0.10115413 0.45609558 0.14167681 -0.05752448 0.0758802
0.13666768 -0.03696344 0.101902604 -2.4629948 -1.1107228 -0.40469575 -0.3545671 0.14428566
0.08789072 0.37801245 -0.35770348 -0.1395896 0.04678547 0.01993551 -0.47850102 0.06609014
-0.42126307 0.09861621 0.17526843 0.11967785 0.15034501 0.22378807 0.102501005 0.06623787
-0.18076415 0.17080157 0.06883864 0.037359472 0.108171165 -0.13531028 0.17860138 0.11868789
0.015492299 -0.036128093 0.19911695 0.13898803 -0.09160278 0.12047552 -0.069800355 0.18700251
0.18410653 0.21155877 0.19143604 -0.47807926 -0.8062737 0.09517232 0.22023647 0.06271425
-0.29088634 -0.06069752 0.19065665 -0.22100453 -0.8485916 0.11432557 -0.41763636 -0.12938501
-0.08609361 -0.14611408 0.08029277 0.042837717 -0.013831973 -1.200012 0.07353288 0.16249771
-0.093843184 0.115922935 -0.31186402 0.21143319 0.15585734 0.113048315 0.1512507 -1.715329
-1.1470628 0.17874324 0.18336728 -2.4770415 0.01618993 0.30498573 -0.14456496 0.13647436
0.16569246 0.11416921 0.17856525 -0.3347727 0.019843867 0.02644931 0.12348566 0.090772845
0.32297996 0.1610094 0.16722545 -0.17857601 0.071857095 -0.2708278 0.105132975 -0.961852
0.06496587 -0.5584689 -0.13468213 0.22123641 -0.16440901 0.18220247 0.181329 0.20176905
0.165497 -2.591905 0.27079758 0.07801343 0.19721782 0.19851403 0.0015585476 -0.21925373
-1.5144681 0.1820695 -0.10918918 0.018158453 -0.19251962 0.14160496 -0.23899151 0.06334013
0.20563334 -0.13521732 0.0687479 0.020742536 0.042844158 0.21696898 -0.76954436 0.24557737
-0.020369785 0.1527261 0.22219509 0.09950289 0.13335542 0.1188403 0.09005801 0.0030864992
0.3056727 0.19943438 0.14576083 -0.15069124 -0.10781354 0.0016690582 -2.1100657 -1.9086022
-2.009581 0.05286882 0.20959017 -0.074694835 -0.08708564 0.1383692 0.13156125 0.0744786
0.19642742 0.15787467 0.09902698 0.15860952 0.29613972 -0.41073227 -1.0642612 0.3023509
00000000: 09bb 9d3c 9e0c 3f3e f44b 823e 4922 a4be
00000010: bcee 693e 3fb9 073e 09ba 06c0 e892 473e
00000020: 1f69 403e 9b8d 4e3d ddd1 893c 37fc b0be
00000030: 54d6 f5be 9ce8 2e3e f2b9 503e b280 d13d
00000040: 472e 1b3e c468 203e c3e0 c73d bf0b 5f3e
00000050: 1621 c9bd 19d6 673e a016 13bf 1ea3 033e
00000060: 241a 40bf ec5c 9c3d c2ec 4dbe 3a8b 273e
00000070: d49c 03be 710f 01bf 63a3 09be 80b3 4d3d
00000080: 2dc5 7dbe ee28 a5bf abf5 a0bf 213a 4d3e
00000090: 4c6d 463e b805 d53d 1df2 993d 70f7 873d
000000a0: 5994 67be 6353 8b3c 7f30 03c0 8504 003e
000000b0: 67af 07c0 21a6 69bf c990 da3d 3bcf 4abb
000000c0: c13b a9bd ce26 adbe fe2e 18be 402b bd3d
000000d0: c418 083e abab cdbe 7be3 503e 468f 4dbd
000000e0: 363b 633e 42d7 d13d 3e42 e03d 3e51 b53d
000000f0: 6bac 33bf dcab b03e 8fd0 623e 2656 59bf
00000100: f048 eb3d 1962 23bf b271 04c0 ad25 a03e
00000110: 8ab3 a7be eb1a 833d 1850 6f3d fa4d 42bf
00000120: 5c7b 153e 50a0 f4bf 8016 503e f80f 5f3e
00000130: 61a5 233e 40c5 8e3d 1171 c63e fe6d ddbf
00000140: 1c5d a43e 4bed 3a3e e25d 4cbe 2136 f1bd
00000150: ded8 bfbd 7f66 153d 5852 f03d 1a4c cbbd
00000160: 0cd7 683d 6225 243d 4387 113d e629 cf3d
00000170: 5c85 e93e ba13 113e ca9e 6bbd 1467 9b3d
00000180: 9df2 0b3e fa66 17bd 50b2 d03d b5a1 1dc0
00000190: 2a2c 8ebf 4834 cfbe d289 b5be 9fbf 133e
000001a0: 0d00 b43d d98a c13e e924 b7be 93f0 0ebe
000001b0: 1fa2 3f3d cb4f a33c 16fe f4be 445a 873d
000001c0: cbaf d7be 4cf7 c93d 9179 333e a919 f53d
000001d0: 0bf4 193e b328 653e 0cec d13d b8a7 873d
000001e0: 3d1a 39be 9be6 2e3e 46fb 8c3d 3f06 193d
000001f0: d888 dd3d c78e 0abe 48e3 363e a312 f33d
00000200: 69d3 7d3c 0dfb 13bd 50e5 4b3e e152 0e3e
00000210: 3d9a bbbd dfbb f63d 7df3 8ebd 967d 3f3e
00000220: 6c86 3c3e dda2 583e cf07 443e cec6 f4be
00000230: f467 4ebf b5e9 c23d ab85 613e 5470 803d
00000240: 0eef 94be f69d 78bd 7f3b 433e 034f 62be
00000250: 4d3d 59bf 8623 ea3d 6fd4 d5be 817d 04be
00000260: d951 b0bd ee9e 15be 8970 a43d 9a76 2f3d
00000270: 809f 62bc fe99 99bf 6898 963d cd65 263e
00000280: db30 c0bd 0169 ed3d a4ac 9fbe f181 583e
00000290: 1199 1f3e e085 e73d 77e1 1a3e e78f dbbf
000002a0: f4d2 92bf 7808 373e a2c4 3b3e d987 1ec0
000002b0: bea0 843c 1727 9c3e d608 14be efbf 0b3e
000002c0: 49ab 293e 8cd1 e93d cfd9 363e 5467 abbe
000002d0: 9b8f a23c 39ac d83c 0de6 fc3d 1de7 b93d
000002e0: a15d a53e a6df 243e 263d 2b3e a1dc 36be
000002f0: d029 933d f1a9 8abe f54f d73d ef3b 76bf
00000300: d30c 853d d1f7 0ebf 1dea 09be cc8b 623e
00000310: d65a 28be 4993 3a3e 4fae 393e 8c9c 4e3e
00000320: 0c78 293e c6e1 25c0 fba5 8a3e 81c5 9f3d
00000330: 78f3 493e 4347 4b3e 2e48 cc3a 0d84 60be
00000340: 17da c1bf 6d70 3a3e 949e dfbd 09c1 943c
00000350: dd23 45be e400 113e 31ba 74be 78b8 813d
00000360: 8c91 523e 6976 0abe b3cb 8c3d 40ec a93c
00000370: 5b7d 2f3d 1e2d 5e3e dc00 45bf a278 7b3e
00000380: 89de a6bc 3b64 1c3e 1c87 633e 2cc8 cb3d
00000390: 538e 083e 8b62 f33d 5570 b83d dd46 4a3b
000003a0: 2281 9c3e 8738 4c3e 5442 153e ce4e 1abe
000003b0: 58cd dcbd 4dc4 da3a 510b 07c0 144d f4bf
000003c0: fa9c 00c0 fa8c 583d ce9e 563e 9bf9 98bd
000003d0: f559 b2bd a8b0 0d3e feb7 063e 3c88 983d
000003e0: 4524 493e e6a9 213e a8ce ca3d 896a 223e
000003f0: a09f 973e 804b d2be b639 88bf bdcd 9a3e

fc2.bias f4 [256]
0.15196157 0.03465305 0.13368776 -0.06270477 0.01546919 0.0018992902 0.0827188 0.022691606
-0.028033683 0.03917698 -0.00532414 -0.023217158 0.14045759 0.10297228 -0.016454758 0.10598766
-0.008082454 -0.06592588 0.16003247 0.1945225 0.005659887 0.14538139 -0.020066068 0.06788368
0.11163954 0.15883501 0.075095914 0.16266586 -0.048912708 -0.013966029 0.09490574 -0.021612592
0.137406 0.004260222 -0.002261924 -0.025100853 0.1352852 -0.03945787 0.10407796 0.096866496
0.16687894 -0.013412098 -0.024345083 0.15517491 0.005635777 -0.055914816 0.07949784 0.15961929
-0.04460807 0.099344015 0.02136705 0.010652838 0.010506418 0.0006197026 0.0974919 0.12022332
0.0025208585 0.1657268 0.13004486 0.01093293 0.09289098 -0.1938208 -0.016193192 -0.021843776
0.06414365 0.10452749 -0.022912113 0.014193863 0.14938055 0.14311883 0.12536427 -0.052612536
-0.0017835378 0.20662618 0.14584704 0.16246098 -0.011943115 0.14943218 -0.03573943 -0.0021202287
0.14352626 0.15633522 0.018172301 0.113148116 -0.07752906 0.03722775 -0.043973558 0.027609568
-0.02063025 0.016124073 0.005017886 0.102258734 -0.023637703 0.14660916 0.13286099 0.08641231
0.17732899 0.16569376 0.101146184 0.11635093 0.009325323 0.08611741 0.16248086 0.04423128
0.110052675 0.064814284 0.17291798 0.16512194 0.14508241 0.01919802 -0.022963852 -0.008413237
0.15506767 0.07640962 -0.03068097 -0.02339728 0.02041362 0.12513253 0.14239687 0.12515418
-0.025878262 0.11263449 0.022916911 -0.023239166 0.092267 -0.05231712 0.117099114 0.020336086
0.11843349 0.088432945 0.16653906 -0.0063872663 0.024993427 0.09970311 0.13251355 -0.021814793
0.12625074 0.00020330877 0.090481296 0.20133702 0.1787158 0.084278986 0.024677537 -0.055098847
0.11319235 0.12561245 0.16115654 0.11569222 0.09295956 0.0056948154 0.10731357 -0.056681722
0.11674633 0.15486175 0.005382305 0.13437773 -0.01583173 0.13715777 0.122504905 0.15420282
0.00983528 0.09729607 0.100377224 0.1882433 0.06997938 0.0012045577 0.1181185 0.012410691
-0.012436526 0.14911716 0.09683206 0.11200798 0.1113454 0.1537445 0.119910784 0.014654222
0.08144458 -0.065604046 0.11939366 0.0007530639 -0.037811395 0.13946082 -0.020511685 0.01971962
0.14094688 -0.059412878 0.1506712 -0.024988081 0.021891138 -0.031195277 0.18079725 0.090260215
-0.017121902 0.088050686 0.09279778 -0.023453716 0.15268758 0.11979862 0.021356858 -0.016089546
-0.019995803 0.08450459 -0.03867006 -0.049190022 0.13217212 0.1576839 0.015505402 0.07980603
0.11331399 -0.08078594 0.008382282 0.121324494 0.020729955 -0.06495504 0.15355778 0.19672297
0.061591793 0.082579054 0.09563846 0.08661883 0.11371325 0.08504309 0.089188196 0.1443969
0.14445184 0.16397983 -0.05577357 0.06788698 0.09025955 -0.025983553 -0.0008228605 0.18046822
0.14576773 0.09746054 0.16238447 -0.015503533 0.117431074 0.12370728 0.12644042 0.057971317
0.16717146 0.10856786 0.2068319 -0.013036378 -0.007451912 0.12966041 0.113276616 0.18162492
0.21512827 0.12032153 0.08558668 -0.021466851 0.13946554 -0.021787837 0.12778637 0.15189202
00000000: d09b 1b3e 5bf0 0d3d 72e5 083e 5c6b 80bd
00000010: 7c72 7d3c 9bf1 f83a 7968 a93d bfe3 b93c
00000020: e5a6 e5bc 0a78 203d 2076 aebb e931 bebc
00000030: 1dd4 0f3e 21e3 d23d 21cc 86bc 0f10 d93d
00000040: 456c 04bc 2604 87bd 8ddf 233e e830 473e
00000050: 9376 b93b dcde 143e 9861 a4bc 9906 8b3d
00000060: 45a3 e43d a5a5 223e e3cb 993d e191 263e
00000070: b158 48bd c5d1 64bc f15d c23d e40c b1bc
00000080: 29b4 0c3e 5599 8b3b ca3c 14bb 4ea0 cdbc
00000090: 3488 0a3e 939e 21bd d326 d53d f161 c63d
000000a0: 50e2 2a3e 6bbe 5bbc 576f c7bc 2ce6 1e3e
000000b0: 53ac b83b ef06 65bd c3cf a23d 3d73 233e
000000c0: f4b6 36bd e074 cb3d f409 af3c 3e89 2e3c
000000d0: 1c23 2c3c 8a73 223a d5a9 c73d a537 f63d
000000e0: fd34 253b 49b4 293e 7b2a 053e 0820 333c
000000f0: a03d be3d f678 46be 96a7 84bc b8f1 b2bc
00000100: bf5d 833d 8212 d63d 2fb2 bbbc 608d 683c
00000110: 37f7 183e be8d 123e 7e5f 003e 3e80 57bd
00000120: 99c5 e9ba d095 533e ed58 153e 2c5c 263e
00000130: 0ead 43bc c004 193e 8263 12bd 89f3 0abb
00000140: 8cf8 123e 5716 203e 14de 943c 33ba e73d
00000150: 8ec7 9ebd 207c 183d 9e1d 34bd 762d e23c
00000160: c500 a9bc a216 843c 146d a43b 076d d13d
00000170: dba3 c1bc b620 163e b60c 083e f0f8 b03d
00000180: bb95 353e a0ab 293e bb25 cf3d 6549 ee3d
00000190: 3dc9 183c 535e b03d 6261 263e dc2b 353d
000001a0: 4c63 e13d 5abd 843d 6911 313e ba15 293e
000001b0: 7c90 143e 2b45 9d3c b01e bcbc acd7 09bc
000001c0: 0fca 1e3e a67c 9c3d a856 fbbc a7ab bfbc
000001d0: 773a a73c be22 003e 7cd0 113e 6b28 003e
000001e0: a6fe d3bc e9ac e63d 3fbc bb3c 1060 bebc
000001f0: 7bf6 bc3d 7a4a 56bd a9d1 ef3d dd97 a63c
00000200: 428d f23d 551c b53d 3789 2a3e 464c d1bb
00000210: 04bf cc3c 2531 cc3d a2b1 073e f0b4 b2bc
00000220: e047 013e 482f 5539 424e b93d 4b2b 4e3e
00000230: 4601 373e 769a ac3d 8c28 ca3c 54af 61bd
00000240: 64d1 e73d 8da0 003e 3806 253e 0bf0 ec3d
00000250: 9561 be3d 939b ba3b 38c7 db3d 182b 68bd
00000260: b318 ef3d 1494 1e3e 0c5e b03b 519a 093e
00000270: 8bb1 81bc 1673 0c3e dae3 fa3d 58e7 1d3e
00000280: 2724 213c 2943 c73d 9392 cd3d dac2 403e
00000290: 5951 8f3d 40e2 9d3a 1de8 f13d 3656 4b3c
000002a0: 92c2 4bbc 2bb2 183e e34f c63d 7164 e53d
000002b0: 0f09 e43d 336f 1d3e c993 f53d 4318 703c
000002c0: 6acc a63d 6a5b 86bd aa84 f43d 4369 453a
000002d0: 1fe0 1abd d1ce 0e3e 1f08 a8bc 0a8b a13c
000002e0: 6154 103e eb5a 73bd 8d49 1a3e ceb3 ccbc
000002f0: 0b55 b33c 3d8d ffbc ea22 393e 59da b83d
00000300: 3b43 8cbc eb53 b43d c30c be3d 0222 c0bc
00000310: 225a 1c3e fb58 f53d 94f4 ae3c 39ce 83bc
00000320: 3dce a3bc be10 ad3d 7f64 1ebd 7a7b 49bd
00000330: 2158 073e e377 213e 5f0a 7e3c 5871 a33d
00000340: 2a11 e83d 1973 a5bd d755 093c fa78 f83d
00000350: ded1 a93c 2607 85bd 403e 1d3e bf71 493e
00000360: ad47 7c3d 351f a93d 19de c33d 3765 b13d
00000370: 7ee2 e83d 122b ae3d 4da8 b63d c8dc 133e
00000380: 2feb 133e 54ea 273e d472 64bd 5408 8b3d
00000390: 00da b83d 76db d4bc 3cb5 57ba a9cc 383e
000003a0: 2344 153e 6499 c73d 1d48 263e 8802 7ebc
000003b0: b47f f03d 3e5a fd3d 9979 013e 5573 6d3d
000003c0: ff2e 2b3e d458 de3d becb 533e 8896 55bc
000003d0: 2b2f f4bb b3c5 043e 92fd e73d e2fb 393e
000003e0: 964a 5c3e 226b f63d 1248 af3d 40db afbc
000003f0: 0ed0 0e3e 687c b2bc 6eda 023e 9589 1b3e

fc3.weight f4 [2, 256]
-0.68470436 -0.5135128 0.18997712 0.22899678 -0.0112871295 0.0063285166 0.79780245 -0.017483775
-1.1380839 0.3657175 -0.008964436 0.018937046 0.51045716 -0.3754285 -1.1653006 0.61760193
-0.63139397 -0.68058264 0.21186814 0.11034941 -0.011997329 0.18264212 -0.020034753 0.87720174
-0.41766614 0.04769069 0.5439629 -0.5256054 -0.94808453 -0.014017936 -1.7768006 -0.99488276
-0.7623032 -0.5709255 -0.007859349 0.023436496 0.17532036 -0.5737483 0.6596483 -0.5259631
0.15559328 -0.0013944529 0.0061730775 0.47938755 0.32227808 -1.213858 0.83533597 0.48338014
-1.1396492 0.56291586 -1.0680214 -0.00042985877 -0.021292105 0.3830836 0.50510734 0.19894129
0.31773958 0.16230997 0.20961717 -0.02257759 0.63210565 -0.7041023 -0.9436204 -0.60307443
0.02593679 0.46554103 -1.2007581 -0.0051538656 0.7641429 0.17183688 0.8592994 -0.028414855
-0.57066596 0.30497554 -0.37351906 0.8426194 0.01822155 -0.09565609 0.25509316 1.2791549
0.16650619 0.19945137 -0.023894733 0.639155 -1.2096821 0.32960624 -0.50807464 0.3860714
-0.881325 0.35794705 0.3347007 0.48236164 0.024355767 -0.3832749 0.21047251 0.7408132
0.16595569 0.16365899 0.62689465 -0.50616306 -0.022518817 0.41891965 0.19672298 0.50037855
0.6619617 0.8382102 0.17906994 0.18681882 -0.5367782 -0.009165397 0.23944406 0.012464087
0.47362196 0.5937573 -0.012141411 -0.017144097 -0.829317 0.22324497 0.17623739 0.18743712
-0.020541374 0.44250146 0.015075849 -0.51590747 0.19402537 -0.09050994 0.46399745 -0.020506324
0.19038051 -0.24702673 0.18436359 -0.5859136 -0.8588638 0.41785175 0.16779928 -1.1067315
0.6118873 -0.62302035 0.60954225 0.16896747 0.1731722 0.6453347 -0.013762439 0.44368815
-0.59536016 0.21917562 0.19667229 0.7548617 0.63358676 0.025115855 0.96300364 -1.0754713
0.74423385 0.18066663 -0.00623158 0.44600528 -1.1186612 0.46545127 -0.50227606 0.16769715
0.011200266 0.6196338 0.49777728 0.033182196 1.1054869 1.526144 0.0045856806 -0.019947488
0.45006615 0.4848872 0.53268796 0.038186833 0.53400344 0.21039742 0.21548975 -0.0033553797
-0.19773391 -0.59332246 0.502022 -0.79230106 -0.95284855 0.6316508 -0.05569696 0.37499416
0.48326147 0.568769 0.16283849 0.0031514768 -0.3145413 -0.38208097 0.2632348 0.55947566
-0.00063297735 0.59043145 0.061222 0.020403817 0.17278017 0.99183136 0.42721528 0.008696478
0.024145363 0.6266028 -1.0150965 0.29537797 0.22020033 0.064442694 -0.02151572 0.5393132
0.47112864 0.76566446 0.443041 0.48105603 -0.023239229 0.5888152 -0.5639402 0.17804928
0.70116395 0.52685183 0.52169997 0.60659873 0.81615335 -0.07192967 -0.34250522 -0.5939971
0.18550201 0.1858796 0.519029 0.63987327 0.228926 -0.02037449 0.5903375 -0.028284073
-0.47215006 0.59899926 0.16965684 0.009241458 0.82444334 0.55808264 0.6791492 1.1844643
0.1884898 0.41788408 0.14190769 -0.38711262 -0.024746573 0.4582299 0.5534619 0.65225285
0.44477656 0.1858705 0.6116785 -0.013771261 0.17420715 0.01306371 0.24914213 0.24488941
00000000: c948 2fbf 9375 03bf 5d89 423e 227e 6a3e
00000010: a7ed 38bc 725f cf3b c83c 4c3f 223a 8fbc
00000020: bcac 91bf 533f bb3e 92df 12bc dd21 9b3c
00000030: 52ad 023f 2a38 c0be 9228 95bf 291b 1e3f
00000040: 09a3 21bf aa3a 2ebf f6f3 583e dffe e13d
00000050: 7290 44bc 8906 3b3e ec1f a4bc 4b90 603f
00000060: 56d8 d5be 5057 433d 2741 0b3f 138e 06bf
00000070: abb5 72bf 7cab 65bc 346e e3bf a3b0 7ebf
00000080: 4d26 43bf 2c28 12bf 80c4 00bc e5fd bf3c
00000090: 2e87 333e 2be1 12bf b6de 283f 85a5 06bf
000000a0: d853 1f3e 13c6 b6ba 8747 ca3b 4972 f53e
000000b0: a201 a53e b35f 9bbf 94d8 553f 9a7d f73e
000000c0: 06e0 91bf 411b 103f edb4 88bf ab5e e1b9
000000d0: c86c aebc 8923 c43e b74e 013f 44b7 4b3e
000000e0: c3ae a23e 9634 263e e2a5 563e a3f4 b8bc
000000f0: add1 213f 0c40 34bf 1b91 71bf 1663 1abf
00000100: 6479 d43c 655b ee3e 71b2 99bf c2e1 a8bb
00000110: de9e 433f 02f6 2f3e 0cfb 5b3f 45c6 e8bc
00000120: 2a17 12bf c125 9c3e e43d bfbe e8b5 573f
00000130: 5c45 953c 57e7 c3bd 929b 823e 59bb a33f
00000140: 9980 2a3e fb3c 4c3e e3be c3bc a99f 233f
00000150: ddd6 9abf 26c2 a83e 2e11 02bf 27ab c53e
00000160: 849e 61bf d644 b73e e45d ab3e 1bf8 f63e
00000170: bf85 c73c 9c3c c4be 1b86 573e efa5 3d3f
00000180: 4af0 293e 3996 273e 2b7c 203f e793 01bf
00000190: 6279 b8bc a37c d63e c071 493e cf18 003f
000001a0: 5276 293f f294 563f 1c5e 373e 6f4d 3f3e
000001b0: 4c6a 09bf 762a 16bc d330 753e 2c36 4c3c
000001c0: 947e f23e 7a00 183f c5ec 46bc c771 8cbc
000001d0: 1e4e 54bf 549a 643e 9377 343e 84ef 3f3e
000001e0: 6246 a8bc 8d8f e23e b200 773c 8312 04bf
000001f0: 96ae 463e 475d b9bd 1391 ed3e e1fc a7bc
00000200: 1cf3 423e 93f4 7cbe cfc9 3c3e 6ffe 15bf
00000210: 7fde 5bbf aaf0 d53e 93d3 2b3e 61a9 8dbf
00000220: a5a4 1c3f 437e 1fbf f60a 1c3f cf05 2d3e
00000230: 0e54 313e a834 253f da7b 61bc 182b e33e
00000240: 8669 18bf 936f 603e 7664 493e 9e3e 413f
00000250: be32 223f c4bf cd3c 6887 763f 0ba9 89bf
00000260: 1c86 3e3f ac00 393e 4832 ccbb ce5a e43e
00000270: 4a30 8fbf a14f ee3e 2a95 00bf cdb8 2b3e
00000280: 5281 373c 52a0 1e3f aadc fe3e 0eea 073d
00000290: 9880 8d3f b058 c33f 7a43 963b ea68 a3bc
000002a0: 126f e63e 2343 f83e 3d5e 083f cc69 1c3d
000002b0: 73b4 083f 6c72 573e 58a9 5c3e eee5 5bbb
000002c0: c27a 4abe fbe3 17bf 8484 003f 3ed4 4abf
000002d0: e2ed 73bf deb3 213f 7f22 64bd 3cff bf3e
000002e0: 0c6e f73e d89a 113f 22bf 263e 0289 4e3b
000002f0: 8f0b a1be 1ea0 c3be b6c6 863e cc39 0f3f
00000300: 64ee 25ba 8426 173f ebc3 7a3d e825 a73c
00000310: 49ed 303e a9e8 7d3f f6bb da3e ac7b 0e3c
00000320: 7fcc c53c 0b69 203f afee 81bf c83b 973e
00000330: 327c 613e 88fa 833d bc41 b0bc 6e10 0a3f
00000340: c637 f13e 9602 443f 45d6 e23e fa4c f63e
00000350: 3260 bebc 98bc 163f 635e 10bf 8d52 363e
00000360: 7b7f 333f c3df 063f 218e 053f 0e4a 1b3f
00000370: 6def 503f dd4f 93bd d85c afbe 3210 18bf
00000380: 3df4 3d3e 3957 3e3e 16df 043f bcce 233f
00000390: 946b 6a3e 67e8 a6bc 5c20 173f 00b4 e7bc
000003a0: a7bd f1be 0458 193f 86ba 2d3e 7c69 173c
000003b0: b80e 533f 81de 0e3f b9dc 2d3f 879c 973f
000003c0: 7803 413e e7f4 d53e 4050 113e a033 c6be
000003d0: 53b9 cabc 1c9d ea3e aeaf 0d3f 0bfa 263f
000003e0: c1b9 e33e d654 3e3e f696 1c3f dba0 61bc
000003f0: 5c63 323e 2c09 563c 1d1f 7f3e 4ac4 7a3e

fc3.bias f4 [2]
0.08766947 0.085069165
00000000: 0d8c b33d be38 ae3d
