weights/dqn_cartpolev1.pt (torch, 272591 bytes, 6 tensors)

fc1.weight f4 [256, 4]
-0.2353806 -0.31354237 -0.17522569 0.077195145 -0.087523356 0.119513884 1.1100057 0.23326097
-0.06622803 0.0133184185 0.32414857 -0.13742153 -0.34682637 -0.34230024 -0.35187685 0.027601827
-0.0380106 0.059225082 1.0936093 0.1617508 -0.17402536 0.22120945 -0.042224813 0.21204856
0.15701854 0.053612366 -0.806312 -0.07683019 0.168165 0.11176807 -0.059508752 -0.007583798
-0.015854063 -0.01374404 0.10985142 -0.063744225 -0.09992176 0.30533534 -0.18540059 0.060948793
0.49806234 -0.18187025 -0.14827114 0.29298505 0.21661401 -0.18979672 -0.073841244 0.10714379
0.14793779 0.24980503 -0.18418658 0.049903113 0.12075259 -0.11637565 -0.35140288 -0.07463034
0.08859698 -0.1591755 0.27370608 -0.17866527 -0.08632083 -0.093829975 -0.33659577 0.014236665
-0.021526182 0.06731708 -0.19289301 0.04218917 0.06273072 0.15695184 0.3203263 -0.3006112
-0.13315886 0.08583324 0.57991636 0.19180322 -0.0861799 0.035280243 -0.08252387 -0.05765092
0.2223534 0.25206906 0.6243778 0.16126832 -0.2705719 -0.04493467 0.4507962 -0.083813734
0.30763677 0.14800426 -0.51577675 -0.18647544 0.35566574 0.052239217 -0.07591175 -0.0053907824
0.62408227 0.23684718 -0.57186794 -0.10384947 0.09098439 -0.08271527 -0.17247203 0.05950727
-0.20436083 -0.2792763 -0.4860877 -0.22992305 0.13265447 -0.003393075 0.3003645 0.03457873
-0.036515135 0.19253248 0.799716 0.27219638 0.20559841 0.16268572 0.6924091 0.18365867
0.00023065293 -0.098514095 0.6067871 0.2465171 -0.10574707 0.04582165 0.8562402 0.1672626
0.60454684 0.26455528 -0.4538886 0.012475958 0.32758802 -0.059672087 -0.47195494 -0.17669326
0.35650548 -0.01705488 -0.5872748 -0.08001311 -0.13448435 0.19594362 0.11229192 0.09288471
0.05497834 0.15050268 0.10462411 -0.17392795 0.059947483 0.06934866 -0.15000032 0.10459081
-0.03590011 -0.084650695 0.16918862 0.13391443 0.06887921 0.013889058 0.7324165 0.2630313
0.095423505 0.015500854 0.72145075 0.07372805 0.43750048 0.19189 0.35883427 0.21866527
0.28146547 -0.06397293 -0.7746823 -0.22316624 -0.09210062 0.13235614 0.92154276 0.23040001
0.24114968 -0.04928237 -1.0176413 -0.22686948 -0.18542418 -0.08633548 -0.65729606 -0.20259959
-0.08190664 0.1421055 0.7637326 0.09628385 -0.14747521 -0.48347142 0.07227176 -0.25595844
0.021794567 -0.29502296 -0.25057003 0.100231044 -0.18204127 -0.10267025 -0.6669941 -0.12643956
0.24171351 0.19021334 -0.52669245 -0.121436395 -0.040677242 -0.056604516 0.2953188 0.12317297
0.1093413 0.09234856 0.8117192 -0.07830335 -0.07131949 -0.09565471 0.35068905 0.23179354
-0.5272549 -0.07038451 0.31510094 0.050879177 -0.43085322 0.056975894 0.13317876 0.03521771
-0.07233323 -0.16709128 0.23638032 -0.19126427 0.17113163 -0.1231946 -0.590929 0.007935157
-0.4417393 -0.009682792 0.31984106 0.082593605 -0.049822796 -0.14169759 0.11021434 0.160081
0.4247179 -0.102713674 -0.48842824 0.044276938 -0.44276333 0.097405344 0.45496076 -0.036264505
-0.1536777 0.19749828 0.16682807 -0.1479223 0.17146492 0.18709363 -0.6483114 -0.061501786
00000000: 9d07 71be a088 a0be 5d6e 33be 7d18 9e3d
00000010: 723f b3bd b2c3 f43d ab14 8e3f f7db 6e3e
00000020: 90a2 87bd 7f35 5a3c cdf6 a53e 3bb8 0cbe
00000030: 3a93 b1be fa41 afbe 3429 b4be 3a1d e23c
00000040: 01b1 1bbd 0096 723d 64fb 8b3f 00a2 253e
00000050: b433 32be bb84 623e edf3 2cbd 4223 593e
00000060: 78c9 203e a498 5b3d 776a 4ebf 2659 9dbd
00000070: 7233 2c3e a8e6 e43d 73bf 73bd 8281 f8bb
00000080: 61e0 81bc af2e 61bc c8f9 e03d 558c 82bd
00000090: c8a3 ccbd ea54 9c3e a7d9 3dbe 71a5 793d
000000a0: 0702 ff3e 323c 3abe 64d4 17be 2302 963e
000000b0: 10d0 5d3e 125a 42be 143a 97bd 346e db3d
000000c0: 017d 173e e4cc 7f3e 689b 3cbe 3567 4c3d
000000d0: 224d f73d 5b56 eebd 14eb b3be cbd7 98bd
000000e0: 5572 b53d e7fe 22be 3423 8c3e 07f4 36be
000000f0: fac8 b0bd ee29 c0bd 4856 acbe e740 693c
00000100: ad57 b0bc 8add 893d bf85 45be 8dce 2c3d
00000110: f778 803d fcb7 203e cf01 a43e b6e9 99be
00000120: cc5a 08be 56c9 af3d 6675 143f 1068 443e
00000130: 167f b0bd 0482 103d 4602 a9bd 5f23 6cbd
00000140: 9cb0 633e 320f 813e 39d7 1f3f 8623 253e
00000150: 6688 8abe 6b0d 38bd c2ce e63e 89a6 abbd
00000160: 9182 9d3e 6e8e 173e f209 04bf 6bf3 3ebe
00000170: d219 b63e caf8 553d 9f77 9bbd 29a5 b0bb
00000180: dbc3 1f3f 1188 723e f065 12bf 08af d4bd
00000190: 0656 ba3d a066 a9bd 829c 30be e5bd 733d
000001a0: f743 51be 4efd 8ebe 7de0 f8be f370 6bbe
000001b0: 93d6 073e 5a5e 5ebb 60c9 993e 6da2 0d3d
000001c0: e590 15bd 3c27 453e 30ba 4c3f 535d 8b3e
000001d0: 6488 523e 1697 263e b941 313f 0511 3c3e
000001e0: 6ddb 7139 c2c1 c9bd 6656 1b3f fb6e 7c3e
000001f0: eb91 d8bd 7caf 3b3d 8f32 5b3f e346 2b3e
00000200: 95c3 1a3f ca73 873e 1664 e8be f667 4c3c
00000210: 9eb9 a73e b86a 74bd 14a4 f1be 14ef 34be
00000220: e387 b63e adb6 8bbc a457 16bf eadd a3bd
00000230: 44b6 09be 72a5 483e 4ef9 e53d 573a be3d
00000240: f830 613d 601d 1a3e 2a45 d63d 2b1a 32be
00000250: 7e8b 753d ac06 8e3d af99 19be b533 d63d
00000260: fe0b 13bd 585d adbd c83f 2d3e dd20 093e
00000270: 8b10 8d3d ee8e 633c a67f 3b3f 0aac 863e
00000280: 666d c33d 4bf7 7d3c ffb0 383f bbfe 963d
00000290: 1000 e03e d07e 443e 20b9 b73e cae9 5f3e
000002a0: 3e1c 903e 3d04 83bd 9451 46bf b185 64be
000002b0: 409f bcbd 5e88 073e 3aea 6b3f fbed 6b3e
000002c0: f1ef 763e 4fdc 49bd 1242 82bf 7950 68be
000002d0: d6df 3dbe a8d0 b0bd 8e44 28bf 4476 4fbe
000002e0: abbe a7bd 1b84 113e fb83 433f 7830 c53d
000002f0: be03 17be 9189 f7be 3703 943d fc0c 83be
00000300: 858a b23c 400d 97be b74a 80be ef45 cd3d
00000310: 0769 3abe c844 d2bd 20c0 2abf 5f79 01be
00000320: bf83 773e 49c7 423e 51d5 06bf a5b3 f8bd
00000330: 2e9d 26bd 23da 67bd 0734 973e 1c42 fc3d
00000340: 55ee df3d 3e21 bd3d d4cc 4f3f 825d a0bd
00000350: f40f 92bd 9ee6 c3bd 848d b33e 495b 6d3e
00000360: 2dfa 06bf c125 90bd e954 a13e af66 503d
00000370: cb98 dcbe 8e5f 693d 0360 083e 7240 103d
00000380: 7223 94bd fa19 2bbe af0d 723e c8da 43be
00000390: 213d 2f3e 734d fcbd 1f47 17bf 7602 023c
000003a0: a72b e2be 93a4 1ebc 35c2 a33e d626 a93d
000003b0: fd12 4cbd 2c19 11be 0eb8 e13d 46ec 233e
000003c0: a074 d93e 8c5b d2bd 4413 fabe bc5b 353d
000003d0: e0b1 e2be 747c c73d 9ef0 e83e 178a 14bd
000003e0: b05d 1dbe fd3c 4a3e fad4 2a3e f278 17be
000003f0: 8094 2f3e 7995 3f3e bcf7 25bf 4ce9 7bbd

fc1.bias f4 [256]
0.14367962 -0.20369402 0.39141095 -0.22783747 -0.17786366 0.2810385 -0.1439776 0.39320022
0.3299659 -0.09901777 0.16042796 -0.2939769 -0.28007516 0.3149478 0.364376 0.40690315
0.30125472 0.25765058 0.30756935 0.33480394 -0.052386478 0.16667417 -0.28370506 0.23799822
0.014613632 0.33245787 0.006877526 0.32776278 -0.041171256 -0.09704234 -0.21441244 -0.16633907
0.14438334 -0.17774177 -0.094227955 0.22856829 0.21261401 0.2065708 0.35878295 -0.082535505
0.08200765 0.13503602 -0.21601932 -0.18112832 -0.18228616 -0.12536024 0.21223915 -0.03116539
-0.039829392 -0.053351495 0.19521181 0.3214961 0.096315876 -0.26387033 0.068578884 -0.08802107
0.4003594 0.31804276 0.209977 0.20263018 -0.026355645 0.13570878 0.3982541 -0.25114432
0.10087475 -0.04470603 -0.16417985 -0.17527401 0.105095804 0.06980429 0.3952419 -0.060109492
0.300319 -0.116887756 0.34842902 0.4253984 0.1779324 0.08113761 0.09986842 -0.20078966
0.16581827 0.17718935 -0.1290966 0.04146586 0.22067904 0.22693631 0.35260835 0.28509626
0.30932915 -0.16391984 -0.10389911 0.22997142 0.010319661 -0.17095286 -0.17491294 -0.16714635
0.20096911 0.064770065 0.21273296 -0.18554115 -0.10948707 -0.15814713 -0.21434392 0.31114417
-0.08731952 0.071832724 0.18780288 -0.21261966 0.14460504 -0.167519 -0.23897202 0.33175576
-0.078770615 0.24708973 0.41253197 0.27396417 0.33777043 0.021816645 0.37196788 0.35072243
0.18842538 0.34846494 0.3612391 0.2654834 0.25271702 -0.1936674 0.18993552 0.33041865
-0.17509955 -0.006240561 0.279207 0.27650973 0.03118522 -0.11651588 0.011189663 0.420825
0.33822203 0.307053 0.38439664 -0.2243588 -0.0024501358 0.3557878 0.21624206 -0.01597816
-0.053199884 0.091606654 0.22055373 -0.16242057 -0.066718586 0.2307258 0.07052744 -0.18497524
-0.16224585 -0.18451437 0.40636864 0.29203963 -0.10319913 -0.0863768 0.21397637 0.37725526
-0.16370183 0.31369507 0.08239076 0.37267348 0.37614882 0.19495939 0.36406568 -0.11289635
-0.17334421 0.23671736 0.3364444 -0.19267073 -0.21414137 0.06598415 0.027814176 0.12012574
0.15481755 0.10120178 -0.19348055 0.059894856 0.006418237 0.0721306 0.33405313 -0.0239921
-0.18716352 0.38357738 0.28761446 0.18309025 0.23156257 -0.0259515 0.17303252 0.07070644
0.2838577 -0.20683846 0.11955383 -0.2068981 0.009804812 0.4105317 0.121460915 0.4069625
-0.18177237 -0.2014906 -0.18894328 0.32574034 0.26251617 0.36535433 -0.203807 -0.25916103
-0.1716082 -0.025369348 0.1466653 0.22748673 -0.106426686 0.34552842 0.14693536 0.21952115
0.33504635 0.25894025 0.37398213 -0.15140948 -0.1667395 0.12899187 0.035805978 -0.18105654
0.1826092 0.39100495 0.28739133 0.38916028 0.28804597 -0.19872235 0.34708494 0.23925118
0.07222865 0.35136983 0.37386915 -0.04190425 -0.1967266 0.116196975 -0.09655388 -0.15436627
-0.1243469 0.28356132 -0.16000728 0.013235335 0.08187174 0.24422 0.38645557 0.3877373
0.14870508 -0.022968274 0.18652886 0.3851854 -0.15426086 -0.12510495 -0.10821847 -0.053274773
00000000: c020 133e 2a95 50be 0467 c83e 3a4e 69be
00000010: e421 36be 47e4 8f3e dd6e 13be 8a51 c93e
00000020: 4af1 a83e d4c9 cabd 3a47 243e 2484 96be
00000030: 0366 8fbe d740 a13e 7e8f ba3e 9c55 d03e
00000040: 0f3e 9a3e c7ea 833e bb79 9d3e 6c6b ab3e
00000050: 3493 56bd a2ac 2a3e ca41 91be ceb5 733e
00000060: 046e 6f3c eb37 aa3e df5c e13b 86d0 a73e
00000070: 31a3 28bd 22be c6bd ef8e 5bbe ca54 2abe
00000080: 3ad9 133e f001 36be 96fa c0bd ce0d 6a3e
00000090: 7db7 593e 4c87 533e 66b2 b73e 6008 a9bd
000000a0: a0f3 a73d e246 0a3e 2b34 5dbe b479 39be
000000b0: 39a9 3abe 6f5e 00be 3855 593e 8f4e ffbc
000000c0: 2524 23bd 1987 5abd 9be5 473e 239b a43e
000000d0: 4241 c53d 031a 87be 1673 8c3d 6444 b4bd
000000e0: e8fb cc3e 80d6 a23e 3604 573e 497e 4f3e
000000f0: cbe7 d7bc 3ef7 0a3e f6e7 cb3e fd95 80be
00000100: 6c97 ce3d ac1d 37bd c31e 28be 087b 33be
00000110: 783c d73d 8df5 8e3d 255d ca3e 5f35 76bd
00000120: 69c3 993e d962 efbd 4a65 b23e d2cd d93e
00000130: e933 363e 7a2b a63d d087 cc3d ce9b 4dbe
00000140: 44cc 293e 2071 353e e631 04be 1bd8 293d
00000150: b0f9 613e fe61 683e 1589 b43e 23f8 913e
00000160: 6460 9e3e 9ada 27be 0ec9 d4bd a17d 6b3e
00000170: cc13 293c 440e 2fbe 611c 33be 6a28 2bbe
00000180: d9ca 4d3e 2ba6 843d abd6 593e 80fe 3dbe
00000190: c23a e0bd 52f1 21be f97c 5bbe 4a4e 9f3e
000001a0: 94d4 b2bd 091d 933d 664f 403e f8b8 59be
000001b0: 5813 143e 1a8a 2bbe 15b5 74be e4db a93e
000001c0: 7d52 a1bd 1705 7d3e 6437 d33e 0845 8c3e
000001d0: 3ff0 ac3e d2b8 b23c 9372 be3e e491 b33e
000001e0: 95f2 403e ff69 b23e 55f4 b83e 71ed 873e
000001f0: 2064 813e bf50 46be 757e 423e a22c a93e
00000200: 4c4d 33be 9f7d ccbb 38f4 8e3e af92 8d3e
00000210: 2678 ff3c e19f eebd d954 373c 6076 d73e
00000220: 702b ad3e 0d36 9d3e a3cf c43e 50be 65be
00000230: 7592 20bb d229 b63e 8f6e 5d3e a1e4 82bc
00000240: 1fe8 59bd 459c bb3d d6d8 613e 9451 26be
00000250: c1a3 88bd 6243 6c3e b170 903d 266a 3dbe
00000260: c723 26be 56f1 3cbe 8d0f d03e 3886 953e
00000270: 115a d3bd 52e6 b0bd 9f1c 5b3e 9a27 c13e
00000280: 74a1 27be a49c a03e 7dbc a83d 0fcf be3e
00000290: 9496 c03e 6fa3 473e d166 ba3e 3436 e7bd
000002a0: 2581 31be 0966 723e 7142 ac3e 7a4b 45be
000002b0: e047 5bbe b322 873d 8eda e33c 7c04 f63d
000002c0: 7e88 1e3e e142 cf3d c41f 46be 4f54 753d
000002d0: 1350 d23b 35b9 933d 0309 ab3e 158b c4bc
000002e0: cba7 3fbe 4164 c43e 3442 933e 037c 3b3e
000002f0: bd1e 6d3e 3d98 d4bc 702f 313e 8ace 903d
00000300: cc55 913e 76cd 53be a3d8 f43d 18dd 53be
00000310: 5da4 203c 3631 d23e 80c0 f83d 645d d03e
00000320: 8922 3abe 8d53 4ebe 597a 41be 70c7 a63e
00000330: 8568 863e b90f bb3e c8b2 50be c1b0 84be
00000340: 0fba 2fbe 61d3 cfbc 6e2f 163e 48f2 683e
00000350: 3cf6 d9bd 1ae9 b03e 3976 163e 27ca 603e
00000360: 328b ab3e d193 843e 967a bf3e 160b 1bbe
00000370: c2bd 2abe 7216 043e 4aa9 123d e366 39be
00000380: e8fd 3a3e cd31 c83e f524 933e 0440 c73e
00000390: c37a 933e df7d 4bbe 1eb5 b13e 43fe 743e
000003a0: 9dec 933d bfe6 b33e c76b bf3e caa3 2bbd
000003b0: b372 49be aef8 ed3d 0abe c5bd 3112 1ebe
000003c0: 96a9 febd f32e 913e f3d8 23be 05d9 583c
000003d0: 5fac a73d cf14 7a3e 81dd c53e 8185 c63e
000003e0: 2546 183e f627 bcbc 6c01 3f3e 0537 c53e
000003f0: 8ff6 1dbe 831b 00be a5a1 ddbd a636 5abd

fc2.weight f4 [256, 256]
0.014185397 0.20417029 0.24984154 -0.3621484 0.26072696 0.0925733 -2.02301 0.20005478
0.18430926 0.14898086 0.0069111483 -0.26265404 -0.6140762 0.18051568 0.21508849 0.094713174
0.14057928 0.18707262 0.06900532 0.20742324 -0.12804598 0.19381684 -0.6590449 0.12899728
-0.7727573 0.07834103 -0.15238135 0.16651706 -0.13902988 -0.4687861 -0.10176517 0.068779156
-0.23945606 -0.98180526 -1.2362608 0.16542011 0.19941294 0.09487118 0.06824123 0.061991215
-0.28901753 -0.038378824 -1.7866386 0.14381613 -1.9405503 -0.96838355 0.06725408 0.03637628
-0.055561952 -0.33375454 -0.13875985 0.08384947 0.12009431 -0.38282296 0.13869315 -0.13721336
0.22265346 0.11429721 0.0635184 0.092751324 -0.7004258 0.28224018 0.20118566 -0.9750068
0.061260566 -0.6135107 -1.9535584 0.35600317 -0.35294598 0.00047880405 0.045921527 -0.7885492
0.17721047 -1.8734297 0.19472216 0.2098755 0.11914663 0.018808996 0.38003117 -1.380755
0.29721522 0.1570038 -0.17755556 -0.11857123 -0.116618335 0.060437974 0.10415392 -0.1099906
0.042960893 0.09026086 0.060548928 0.076454714 0.42280644 0.18881717 -0.032091115 0.07111925
0.097943835 -0.106585145 0.04728542 -2.316296 -1.1392266 -0.45616442 -0.33528325 0.116110414
0.15062508 0.37913957 -0.40887535 -0.16615944 0.007834798 0.024816902 -0.5366399 0.05998426
-0.43495703 0.07721109 0.18775758 0.110298514 0.15012865 0.1715073 0.08989433 0.04928301
-0.16482675 0.18119606 0.0503509 0.0375226 0.10923716 -0.10091552 0.20785336 0.10679384
0.016253887 -0.04483991 0.20046319 0.12819073 -0.08062241 0.049659695 -0.08158702 0.18434241
0.15882 0.20194602 0.1949915 -0.46592957 -0.8600958 0.10289139 0.20610243 0.02490492
-0.36703607 -0.06822145 0.16216826 -0.23594737 -0.87975997 0.118301734 -0.41586787 -0.18729594
-0.13367358 -0.16378103 0.07314939 0.06717233 -0.07461077 -1.2411343 0.058972694 0.15968713
-0.092671014 0.090292536 -0.3310725 0.20568833 0.14502057 0.07002562 0.1381539 -1.724678
-1.1518289 0.1623937 0.16952518 -2.2753153 0.0063544633 0.23749955 -0.11855599 0.06353059
0.11949795 0.043718137 0.19354816 -0.367578 0.101065315 -0.00627356 0.118241824 -0.0018089537
0.28643236 0.15317725 0.13862383 -0.17581277 0.05078888 -0.21606201 0.051657032 -1.0106739
0.04940103 -0.6324262 -0.18995357 0.23895672 -0.17304961 0.16919947 0.14418758 0.20863256
0.17804272 -2.4305756 0.30542928 0.08182002 0.16128218 0.1922204 0.00163335 -0.12608716
-1.3965275 0.0542077 -0.17049842 0.021161722 -0.09643567 0.15251808 -0.23308036 0.02808846
0.19165893 -0.1123231 0.06486105 0.020153021 0.060537163 0.1661452 -0.77904046 0.2574331
-0.028527876 0.15027599 0.21575457 0.0946786 0.14118119 0.1323131 0.091396846 -0.00799265
0.31441826 0.18725927 0.15965854 -0.1003933 -0.09871444 0.009764214 -1.9983516 -1.766507
-1.9402794 0.053108208 0.20691958 -0.18502349 -0.022454381 0.12698984 0.11871972 0.07202403
0.22842139 0.11053246 0.08183534 0.14472616 0.3308549 -0.4410458 -0.96122825 0.16372617
00000000: de69 683c 0412 513e 76d6 7f3e 846b b9be
00000010: 017e 853e 1297 bd3d ff78 01c0 29db 4c3e
00000020: 91bb 3c3e 708e 183e ea76 e23b 977a 86be
00000030: 1934 1dbf 1ad9 383e 2840 5c3e fbf8 c13d
00000040: 04f4 0f3e f78f 3f3e a952 8d3d c266 543e
00000050: 7c1e 03be ec77 463e 2bb7 28bf dd17 043e
00000060: 6cd3 45bf 4371 a03d db09 1cbe 7383 2a3e
00000070: d95d 0ebe bb04 f0be 426a d0bd 16dc 8c3d
00000080: f833 75be 9757 7bbf cb3d 9ebf e463 293e
00000090: e832 4c3e d24b c23d 0fc2 8b3d 80ea 7d3d
000000a0: 1bfa 93be 1d33 1dbd 93b0 e4bf 8944 133e
000000b0: f463 f8bf fce7 77bf 82bc 893d 4bff 143d
000000c0: ee94 63bd e0e1 aabe 1017 0ebe 45b9 ab3d
000000d0: 01f4 f53d 5f01 c4be 9405 0e3e a981 0cbe
000000e0: 45ff 633e a814 ea3d ef15 823d 68f4 bd3d
000000f0: 1b4f 33bf c981 903e 9d03 4e3e 0c9a 79bf
00000100: 5cec 7a3d 0a0f 1dbf 340e fabf 0c46 b63e
00000110: 56b5 b4be fe07 fb39 3618 3c3d 5cde 49bf
00000120: a976 353e 8bcc efbf 3f65 473e 9ae9 563e
00000130: 2603 f43d 5315 9a3c 7293 c23e 94bc b0bf
00000140: 982c 983e 9bc5 203e 20d1 35be 79d5 f2bd
00000150: 98d5 eebd cf8d 773d a74e d53d c042 e1bd
00000160: c3f7 2f3d b0da b83d 2702 783d 4a94 9c3d
00000170: 167a d83e 4a59 413e f971 03bd f8a6 913d
00000180: c796 c83d 5049 dabd 5bae 413d 323e 14c0
00000190: 2dd2 91bf 628e e9be 3faa abbe 4ccb ed3d
000001a0: 763d 1a3e 951e c23e 1c58 d1be b325 2abe
000001b0: 865d 003c d14c cb3c 3c61 09bf 0eb2 753d
000001c0: b0b2 debe d920 9e3d 8643 403e 30e4 e13d
000001d0: 53bb 193e 9c9f 2f3e 851a b83d fbdc 493d
000001e0: 58c8 28be 768b 393e bf3c 4e3d 4cb1 193d
000001f0: bbb7 df3d ccac cebd 83d7 543e bbb6 da3d
00000200: df26 853c 0eaa 37bd 3946 4d3e 6e44 033e
00000210: 5d1d a5bd f767 4b3d 1817 a7bd 42c4 3c3e
00000220: b6a1 223e f0ca 4e3e daab 473e 528e eebe
00000230: 3d2f 5cbf b9b8 d23d 840c 533e 6705 cc3c
00000240: 27ec bbbe b0b7 8bbd 700f 263e 309c 71be
00000250: f337 61bf 2e48 f23d a2ec d4be 82ca 3fbe
00000260: bae1 08be 37b6 27be 59cf 953d a691 893d
00000270: 88cd 98bd 7ddd 9ebf 5a8d 713d 0685 233e
00000280: 4dca bdbd 4beb b83d 5682 a9be f69f 523e
00000290: 4680 143e 9869 8f3d 3778 0d3e 40c2 dcbf
000002a0: 216f 93bf 894a 263e 0298 2d3e c49e 11c0
000002b0: 1a39 d03b 1533 733e 7ccd f2bd 531c 823d
000002c0: 57bb f43d ca11 333d 7d31 463e 2f33 bcbe
000002d0: 55fb ce3d 7092 cdbb c528 f23d 6a1a edba
000002e0: 43a7 923e 7fda 1c3e 68f3 0d3e 4308 34be
000002f0: 0008 503d 5c3f 5dbe 5396 533d c35d 81bf
00000300: bc58 4a3d afe6 21bf 3083 42be 12b1 743e
00000310: eb33 31be a042 2d3e e9a5 133e c6a3 553e
00000320: d550 363e 8d8e 1bc0 3a61 9c3e 4191 a73d
00000330: 2827 253e 6dd5 443e 2216 d63a fe1c 01be
00000340: 6ac1 b2bf e508 5e3d 2397 2ebe 595b ad3c
00000350: 1180 c5bd b32d 1c3e 9eac 6ebe c519 e63c
00000360: 3d42 443e a709 e6bd dfd5 843d f317 a53c
00000370: d1f5 773d f821 2a3e 326f 47bf 45ce 833e
00000380: 4bb3 e9bc f3e1 193e c4ee 5c3e dbe6 c13d
00000390: cd91 103e 167d 073e 452e bb3d 9bf3 02bc
000003a0: 6efb a03e e5c0 3f3e 877d 233e 019b cdbd
000003b0: cc2a cabd 15fa 1f3c fcc9 ffbf e71c e2bf
000003c0: 135b f8bf fe87 593d bae2 533e cc76 3dbe
000003d0: 40f2 b7bc a009 023e 5323 f33d 5681 933d
000003e0: 4ce7 693e d85e e23d 4999 a73d 1833 143e
000003f0: d065 a93e c1d0 e1be 0e13 76bf d5a7 273e

fc2.bias f4 [256]
0.14764883 0.037773516 0.13743202 -0.013656226 0.016229417 0.0019922976 0.080128916 0.023779087
-0.011646959 0.041057713 -0.005580608 -0.024328506 0.14088994 0.10560639 0.0011490141 0.09600209
-0.0027166104 -0.049284857 0.16578063 0.15607141 0.005930673 0.1493663 -0.021006435 0.076218605
0.09718393 0.13414715 0.065570615 0.1317713 -0.03674733 -0.014631253 0.067890465 -0.0060567106
0.13156615 -0.06076392 -0.0023687887 -0.026297692 0.13867342 -0.036264196 0.113433376 0.09810102
0.15497932 -0.014053267 -0.02550568 0.15417452 0.010150916 -0.040822912 0.078308076 0.15998459
-0.029045992 0.087473445 0.0071230503 0.012614965 0.011013582 0.0006490891 0.09660651 0.12349745
-0.009198047 0.16996013 0.13496964 0.011445864 0.091723695 -0.2030333 -0.0038845115 -0.0046659173
0.05506129 0.105682254 -0.009664878 0.014874276 0.16615696 0.14718746 0.12827045 -0.055127464
0.0008315621 0.20672487 0.12892014 0.17920077 -0.012505766 0.13360949 -0.011259692 0.0054167276
0.14730328 0.16422383 0.019027218 0.12083172 -0.08571689 0.038970944 -0.040356573 0.028918512
-0.021959176 0.016893465 0.013862726 0.09774473 -0.024749048 0.13669693 0.1379271 0.08618387
0.18262118 0.17057173 0.110801175 0.09952107 0.009762963 0.07925429 0.16856061 0.068090186
0.10145458 0.05134343 0.1782683 0.17063889 0.15079977 0.020128043 0.022551239 -0.00880531
0.15390661 0.081107855 -0.003302299 -0.024508627 0.010866091 0.12977402 0.1466307 0.12886322
-0.027105154 0.11748608 0.02402317 -0.021858184 0.080253564 -0.054810945 0.123210765 0.021288894
0.121619895 0.075684264 0.17056866 -0.0010065739 0.020763755 0.09216582 0.13513519 -0.009897656
0.13205469 0.00075266266 0.097800724 0.1604243 0.18392773 0.083346836 0.022641417 -0.051506884
0.09793005 0.13041604 0.16662537 0.105978526 0.08131499 0.005968512 0.09816899 -0.048633512
0.11963521 0.1605636 0.0056387726 0.13530025 0.0024472992 0.14086829 0.10831303 0.15886654
0.010305463 0.08486466 0.08978476 0.15888882 0.07658518 0.032382403 0.10924551 0.01300911
-0.013034945 0.1485444 0.100494 0.11648485 0.10361796 0.15982637 0.1235654 0.015348918
0.05803663 -0.059761554 0.11851505 -0.0027147217 -0.026087435 0.14632998 -0.021480456 0.020659987
0.1401273 -0.03414219 0.1524731 -0.02618492 0.021592919 -0.03345605 0.18654512 0.085107855
-0.017938875 0.089911595 0.07751346 -0.02456506 0.15680322 0.11794515 0.022382729 -0.016858937
-0.02093617 0.07864679 -0.01855554 -0.024870671 0.1369917 0.14200261 0.016267762 0.07192027
0.11786571 -0.056860555 0.008770907 0.1266899 0.02171857 -0.035581023 0.15269908 0.1760268
0.06901614 0.075958885 0.099909544 0.08909606 0.12857598 0.07728465 0.07239844 0.14127547
0.14879677 0.16894151 -0.028929295 0.07007506 0.097182065 -0.027217966 -0.0008622127 0.14497639
0.13722683 0.08850844 0.16707736 -0.016265782 0.119636 0.11778818 0.13658255 0.059860215
0.17268626 0.10767286 0.18026048 -0.016023194 -0.0078070597 0.13384277 0.105766475 0.17000757
0.2180723 0.123777986 0.09485751 -0.022492722 0.14316063 -0.022813708 0.13306476 0.15845396
00000000: 4131 173e 67b8 1a3d fbba 0c3e 5dbe 5fbc
00000010: 8ef3 843c 3591 023b a11a a43d 5ccc c23c
00000020: e3d2 3ebc 222c 283d 88dd b6bb 934c c7bc
00000030: 7445 103e 2a48 d83d 849a 963a be9c c43d
00000040: 2909 32bb ebde 49bd 66c2 293e 2fd1 1f3e
00000050: 1756 c23b 7bf3 183e b015 acbc 8018 9c3d
00000060: 5e08 c73d df5d 093e e349 863d 0eef 063e
00000070: 5e84 16bd ecb7 6fbc 280a 8b3d 5f77 c6bb
00000080: 47b9 063e 97e3 78bd ae3d 1bbb 426e d7bc
00000090: 6800 0e3e c489 14bd c24f e83d 30e9 c83d
000000a0: e6b2 1e3e ad3f 66bc 4af1 d0bc eddf 1d3e
000000b0: 0750 263c ed35 27bd fc5f a03d 00d3 233e
000000c0: dcf1 edbc 4725 b33d 7a68 e93b 00af 4e3c
000000d0: 5072 343c a227 2a3a a2d9 c53d 3bec fc3d
000000e0: 68b3 16bc 070a 2e3e 7b35 0a3e 6f87 3b3c
000000f0: a2d9 bb3d f6e7 4fbe 4a93 7ebb 8de4 98bb
00000100: f287 613d f06f d83d 7059 1ebc 3cb3 733c
00000110: 0d25 2a3e 4fb8 163e 5459 033e 56cd 61bd
00000120: 30fd 593a afaf 533e a403 043e 6880 373e
00000130: fce4 4cbc edd0 083e 927a 38bc ce7e b13b
00000140: acd6 163e 4b2a 283e f8de 9b3c 9f76 f73d
00000150: 568c afbd ff9f 1f3d ef4c 25bd 84e6 ec3c
00000160: bbe3 b3bc 2a64 8a3c 7d20 633c 642e c83d
00000170: 84be cabc 48fa 0b3e c33c 0d3e 2b81 b03d
00000180: 0c01 3b3e 5baa 2e3e baeb e23d b4d1 cb3d
00000190: d6f4 1f3c 1350 a23d 279b 2c3e de72 8b3d
000001a0: 6bc7 cf3d 7d4d 523d f78b 363e f6bb 2e3e
000001b0: 416b 1a3e 91e3 a43c 60bd b83c 2644 10bc
000001c0: b299 1d3e e01b a63d 626b 58bb 51c6 c8bc
000001d0: b007 323c 7be3 043e 5c26 163e b8f4 033e
000001e0: a10b debc 8b9c f03d 3dcc c43c ef0f b3bc
000001f0: fb5b a43d 7181 60bd ed55 fc3d 0c66 ae3c
00000200: da13 f93d 5a00 9b3d 8da9 2e3e 04ef 83ba
00000210: c018 aa3c 6fc1 bc3d e160 0a3e c729 22bc
00000220: 5839 073e 564e 453a bf4b c83d 4546 243e
00000230: 8d57 3c3e bfb1 aa3d 7e7a b93c e2f8 52bd
00000240: 8d8f c83d c88b 053e d79f 2a3e 450b d93d
00000250: 7988 a63d 8293 c33b d30c c93d ef33 47bd
00000260: 4e03 f53d c96a 243e 74c5 b83b 268c 0a3e
00000270: de62 203b c73f 103e 39d3 dd3d e9ad 223e
00000280: 3fd8 283c 86cd ad3d 12e1 b73d c0b3 223e
00000290: b1d8 9c3d 69a3 043d 1cbc df3d 2a24 553c
000002a0: 8690 55bc 061c 183e cccf cd3d 9c8f ee3d
000002b0: a735 d43d 86a9 233e db0f fd3d 077a 7b3c
000002c0: d1b7 6d3d 88c8 74bd 05b8 f23d 79e9 31bb
000002d0: 51b5 d5bc 87d7 153e c8f7 afbc 223f a93c
000002e0: 887d 0f3e aed8 0bbd e921 1c3e c281 d6bc
000002f0: a2e3 b03c 3609 09bd af05 3f3e 074d ae3d
00000300: 8cf4 92bc 9223 b83d 60bf 9e3d aa3c c9bc
00000310: 0691 203e 3a8d f13d fc5b b73c c11b 8abc
00000320: 5582 abbc 9111 a13d ca01 98bc 94bd cbbc
00000330: 8d47 0c3e 2269 113e f843 853c ef4a 933d
00000340: 9463 f13d 9de6 68bd dab3 0f3c ffba 013e
00000350: 24eb b13c 68bd 11bd 265d 1c3e 5f40 343e
00000360: 5658 8d3d 5590 9b3d 609d cc3d ff77 b63d
00000370: 6ca9 033e 6a47 9e3d a245 943d 84aa 103e
00000380: 2e5e 183e 01ff 2c3e 21fd ecbc 8383 8f3d
00000390: 6407 c73d 36f8 debc 1d06 62ba b174 143e
000003a0: 3185 0c3e ea43 b53d 5416 2b3e d13f 85bc
000003b0: b803 f53d ee3a f13d 4cdc 0b3e fc2f 753d
000003c0: abd4 303e 9783 dc3d 3496 383e 1343 83bc
000003d0: 5dd2 ffbb 140e 093e 189c d83d 7716 2e3e
000003e0: 584e 5f3e 507f fd3d a744 c23d a842 b8bc
000003f0: b398 123e d0e3 babc 2142 083e c141 223e

fc3.weight f4 [2, 256]
-0.691365 -0.52189523 0.20152502 0.034262363 -0.011825982 0.0066277264 0.6892066 -0.018338691
-0.96815324 0.38333815 -0.009391895 0.019840958 0.5017494 -0.35974348 -0.9952132 0.57390463
-0.5195815 -0.5508069 0.2207663 0.10215242 -0.012564151 0.19464254 -0.02097512 0.79883647
-0.406414 0.04761675 0.50418556 -0.4780375 -0.7854032 -0.014686618 -1.7722067 -0.83545077
-0.7734773 -0.52171236 -0.008244045 0.02454784 0.1868932 -0.4683708 0.58059263 -0.5178096
0.1369409 -0.0014604395 0.0064699044 0.44463202 0.11597234 -1.0463601 0.8038164 0.47430068
-0.9707238 0.5264659 -0.8567783 0.004302579 -0.022317976 0.40115798 0.45386967 0.20766324
0.11589353 0.17440432 0.21701668 -0.023655571 0.5491681 -0.73706603 -0.79554677 -0.60754657
0.072489254 0.44580567 -1.0261667 -0.005398417 0.72430706 0.18326046 0.8080565 -0.02977749
-0.4603278 0.27782765 -0.3616353 0.803185 0.019076467 -0.071609564 0.051536046 1.2411683
0.17842522 0.19147275 -0.025020689 0.55876166 -1.0319009 0.3452356 -0.39919347 0.4043756
-0.7642793 0.37492022 0.3146228 0.4465297 0.025517188 -0.3718487 0.21817848 0.6519442
0.17738445 0.17526755 0.5425941 -0.44805408 -0.023591897 0.41027465 0.208335 0.53065777
0.6345927 0.84565187 0.19144714 0.19925685 -0.46470606 -0.009592855 0.14180483 0.013062507
0.46862724 0.52726257 -0.19904931 -0.017963536 -0.71070707 0.23155847 0.18751583 0.19913636
-0.021512844 0.4170417 0.015807005 -0.41168153 0.18681169 -0.094838485 0.4384719 -0.021474607
0.20255047 -0.21876042 0.1946107 -0.4709975 -0.732596 0.36831728 0.1792974 -0.94159174
0.5369425 -0.5079248 0.5251946 0.15825874 0.18355857 0.5685076 -0.22351108 0.23940514
-0.5277561 0.2259726 0.20835367 0.7031109 0.5876856 0.026312694 0.8743101 -0.9014461
0.6528586 0.19202483 -0.0065307897 0.4275333 -0.9542171 0.4381605 -0.46533996 0.18005165
0.011731879 0.58082974 0.4184043 0.01641479 1.0077627 1.3590442 0.017987095 -0.020887855
0.47156346 0.47793716 0.50443625 0.07566043 0.51566356 0.22252439 0.2231122 -0.003515672
-0.18220069 -0.55406445 0.49495697 -0.6819721 -0.8057455 0.5482892 -0.058346704 0.39277565
0.47631767 0.38554394 0.13843057 0.0033010817 -0.32672006 -0.25155157 0.27402043 0.53881043
-0.0006625228 0.5153487 0.061642084 0.021362782 0.1850284 0.90825325 0.4477327 0.009120023
0.025290597 0.60426825 -0.85385644 0.08926788 0.23032415 0.061457474 -0.02254159 0.4965882
0.44558433 0.5903955 0.46406996 0.45120132 -0.024350576 0.40193567 -0.4827128 0.16843538
0.61123997 0.49092194 0.481651 0.52923816 0.7719276 -0.02449306 -0.28141207 -0.5964962
0.19397493 0.19842348 0.327096 0.5591163 0.22110218 -0.021330789 0.61769956 -0.025605286
-0.46015516 0.552 0.18093687 0.009670721 0.7101907 0.51537216 0.59173083 1.0303369
0.20003124 0.4022771 0.118591666 -0.3960602 -0.025938056 0.43296117 0.5121362 0.62338454
0.41126207 0.19807963 0.52688026 -0.014423501 0.18631814 0.013686056 0.25593275 0.24937196
00000000: 4cfd 30bf ed9a 05bf 935c 4e3e b156 0c3d
00000010: c3c1 41bc 662d d93b d86f 303f 063b 96bc
00000020: e4d8 77bf e644 c43e 76e0 19bc 8189 a23c
00000030: a672 003f 4c30 b8be 4bc6 7ebf 6aeb 123f
00000040: 4b03 05bf ae01 0dbf 9010 623e 4a35 d13d
00000050: ded9 4dbc 6050 473e 04d4 abbc 8c80 4c3f
00000060: 7f15 d0be c809 433d 4e12 013f 55c1 f4be
00000070: 2f10 49bf 24a0 70bc abd7 e2bf 1ae0 55bf
00000080: 9c02 46bf f18e 05bf 0812 07bc 8d18 c93c
00000090: ee60 3f3e 4cce efbe b8a1 143f 2c8f 04bf
000000a0: 3c3a 0c3e 386c bfba 7e01 d43b cfa6 e33e
000000b0: e882 ed3d 21ef 85bf e9c6 4d3f 8ad7 f23e
000000c0: 5b81 78bf 78c6 063f d355 5bbf a6fc 8c3b
000000d0: 30d4 b6bc 9464 cd3e 9b61 e83e aca5 543e
000000e0: 9659 ed3d 0c97 323e 9f39 5e3e 54c9 c1bc
000000f0: 4896 0c3f 5cb0 3cbf f4a8 4bbf 2c88 1bbf
00000100: 3f75 943d a440 e43e 6e59 83bf 34e5 b0bb
00000110: 306c 393f a1a8 3b3e cadc 4e3f ecef f3bc
00000120: 16b0 ebbe 6d3f 8e3e 4328 b9be 889d 4d3f
00000130: 4046 9c3c 09a8 92bd 7617 533d 9ade 9e3f
00000140: 1ab5 363e 6f11 443e 30f8 ccbc 010b 0f3f
00000150: 5415 84bf b8c2 b03e 1663 ccbe 520a cf3e
00000160: cfa7 43bf 8bf5 bf3e 3d16 a13e 8a9f e43e
00000170: 6c09 d13c f462 bebe 2e6a 5f3e d1e5 263f
00000180: 45a4 353e 5679 333e 72e7 0a3f 5867 e5be
00000190: cb43 c1bc 850f d23e c555 553e 30d9 073f
000001a0: ab74 223f a47c 583f b80a 443e fd09 4c3e
000001b0: f4ed edbe 5a2b 1dbc 4935 113e 2004 563c
000001c0: e9ef ef3e aefa 063f 95d3 4bbe 4428 93bc
000001d0: e6f0 35bf aa1d 6d3e 2604 403e 67ea 4b3e
000001e0: b43b b0bc 7d86 d53e b17d 813c ecc7 d2be
000001f0: 904b 3f3e ae3a c2bd 647f e03e 84eb afbc
00000200: 6469 4f3e bb02 60be 0748 473e 9626 f1be
00000210: 698b 3bbf 1594 bc3e bd99 373e 280c 71bf
00000220: 1075 093f 5c07 02bf 2773 063f 940e 223e
00000230: c7f6 3b3e b789 113f 17e0 64be 9f26 753e
00000240: 061b 07bf 5c65 673e aa5a 553e 13ff 333f
00000250: 9072 163f b88d d73c c9d2 5f3f 2cc5 66bf
00000260: be21 273f 28a2 443e 3c00 d6bb a5e5 da3e
00000270: 9247 74bf 9356 e03e 0a41 eebe 765f 383e
00000280: 1137 403c 42b1 143f 1739 d63e 4f78 863c
00000290: 5efe 803f 29f5 ad3f ac59 933c 021d abbc
000002a0: c470 f13e 2eb4 f43e bc22 013f dbf3 9a3d
000002b0: 8702 043f 6fdd 633e 8677 643e 3067 66bb
000002c0: d192 3abe 2bd7 0dbf 006b fd3e b995 2ebf
000002d0: 5645 4ebf ae5c 0c3f f4fc 6ebd e419 c93e
000002e0: e9df f33e 0466 c53e bec0 0d3e f656 583b
000002f0: da47 a7be 5ecb 80be 684c 8c3e 7bef 093f
00000300: 27ad 2dba e4ed 033f 697c 7c3d 0001 af3c
00000310: 1678 3d3e 4983 683f 383d e53e 266c 153c
00000320: 3a2e cf3c 53b1 1a3f 5696 5abf 14d2 b63d
00000330: 18da 6b3e d5ba 7b3d 24a9 b8bc cf40 fe3e
00000340: a123 e43e 2924 173f 949a ed3e dc03 e73e
00000350: dc7a c7bc 83ca cd3e 2226 f7be 537a 2c3e
00000360: 397a 1c3f 1f5a fb3e f69a f63e 277c 073f
00000370: 0c9d 453f aba5 c8bc 3e15 90be fab3 18bf
00000380: 5da1 463e 862f 4b3e 2079 a73e 3f22 0f3f
00000390: 9c68 623e e8bd aebc 8f21 1e3f 2dc2 d1bc
000003a0: 7599 ebbe df4f 0d3f 8447 393e f271 1e3c
000003b0: 0fcf 353f 6eef 033f ac7b 173f 14e2 833f
000003c0: fdd4 4c3e 44f7 cd3e 30e0 f23d 67c8 cabe
000003d0: 0c7c d4bc 16ad dd3e 5c1b 033f 2196 1f3f
000003e0: f190 d23e 63d5 4a3e a0e1 063f 8c50 6cbc
000003f0: 2fca 3e3e 7b3b 603c 9e09 833e 5d5b 7f3e

fc3.bias f4 [2]
0.105138086 0.07419892
00000000: a352 d73d 9af5 973d
