weights/dueling_dqn_cartpolev1.pt (torch, 274405 bytes, 7 tensors)

fc1.weight f4 [256, 4]
0	0xbe6d21f0	-0.23157477
1	0x3d9311bb	0.07181116
2	0xbd5792bc	-0.05263017
3	0xbe97e520	-0.29666996
4	0x3d3ebe44	0.04656817
5	0xbdcfaf42	-0.1014085
6	0xbf02154e	-0.5081376
7	0xbe00b578	-0.12569225
8	0xbe1a9c8b	-0.15098779
9	0xbd2e00a8	-0.042481095
10	0x3cb4c524	0.02206666
11	0x3ea19074	0.3155552
12	0x3c9e1222	0.019295756
13	0x3e587920	0.21139956
14	0x3eedb2db	0.46425518
15	0x3d31b124	0.043381825
16	0xbe8dc887	-0.27692053
17	0xbe9f7f14	-0.3115164
18	0x3d940fde	0.07229589
19	0x3e3d120a	0.18463913
20	0x3e8836a3	0.26604185
21	0xbda5c798	-0.0809471
22	0xbeda68f2	-0.42658192
23	0xbb7a1c3e	-0.0038163806
24	0xbc915e6b	-0.017745217
25	0x3c7219d1	0.014776663
26	0xbe183cb4	-0.14866906
27	0x3cc4899e	0.023991402
28	0x3dad832b	0.08472284
29	0x3e32a185	0.17444427
30	0x3f140393	0.57817954
31	0x3e640b69	0.22269978
32	0xbe74a5c9	-0.23891367
33	0xbe1b40d1	-0.15161444
34	0xbf2df98e	-0.67958915
35	0xbe57fbca	-0.21092144
36	0x3dded876	0.108811304
37	0xbeb7e3ee	-0.35916084
38	0xbe8a1660	-0.26970196
39	0xbd61576c	-0.055015013
40	0x3ea33a95	0.31880632
41	0x3ec11b6d	0.37716237
42	0x3eed6332	0.46364743
43	0x3e861309	0.26186398
44	0x3e0dee1c	0.13860363
45	0x3e9c5746	0.30535334
46	0x3ec575ba	0.3856638
47	0x3e83b2c2	0.2572232
48	0xbe9cabf2	-0.30599934
49	0x3e890fba	0.2676981
50	0x3ee203c8	0.4414351
51	0x3d95241f	0.0728228
52	0x3e1b933e	0.15192887
53	0xbeadb745	-0.33928886
54	0x3d2f726f	0.04283374
55	0xbe521021	-0.20513965
56	0x3d6ad13c	0.057328448
57	0x3db452e5	0.088048734
58	0xbd510580	-0.051030636
59	0x3cd5b054	0.026085056
60	0x3e261881	0.16220285
61	0xbdc9e1d8	-0.098575294
62	0xbe2aff66	-0.1669899
63	0xbe483d68	-0.19554675
64	0xbe8d1fd6	-0.2756335
65	0xbe2829ee	-0.16422245
66	0x3e4d85bb	0.20070545
67	0x3ead0c15	0.3379828
68	0xbe37932f	-0.1792724
69	0x3e36297b	0.17789261
70	0xbb92661f	-0.00446774
71	0x3df9b851	0.12193359
72	0xbe87c202	-0.26515204
73	0x3e1ba6d8	0.15200365
74	0xbe510d93	-0.20415334
75	0xbe624c8b	-0.22099511
76	0xbecb8a76	-0.39754075
77	0xbec2b5ab	-0.38029227
78	0xbe20bdcf	-0.15697406
79	0xbe905345	-0.2818853
80	0x3e5a396e	0.2131097
81	0x3ec3bf8c	0.38232076
82	0x3f5d0beb	0.8634631
83	0x3e946be2	0.28988558
84	0x3e8bcb22	0.27303416
85	0xbe5d6d33	-0.21623687
86	0xbe405e10	-0.18785882
87	0xbd985065	-0.07437209
88	0x3ef966ae	0.4871115
89	0x3ebcfdb9	0.36912325
90	0xbe54390d	-0.20724888
91	0x3e61fd09	0.22069182
92	0xbe84fe7e	-0.25975412
93	0xbe0fbbb2	-0.14036444
94	0x3f0d3220	0.5515461
95	0x3e788ed6	0.24273238
96	0x3e86d955	0.26337686
97	0x3e7cc9f4	0.24686414
98	0x3ed6dcf1	0.4196544
99	0x3d10a718	0.035315603
100	0x3e44383b	0.19162075
101	0x3ded5682	0.11588766
102	0xbd5edf66	-0.054412268
103	0x3ea88dd5	0.3292071
104	0x3e449e7a	0.19201079
105	0x3de836db	0.11338588
106	0x3e9e9dc0	0.3097973
107	0xbdf89924	-0.12138584
108	0xbee4d193	-0.44691142
109	0xbe4c24bd	-0.1993589
110	0xbea287f1	-0.3174434
111	0xbdd78ab9	-0.10524506
112	0xbe9f94f7	-0.3116834
113	0xbe1f5b91	-0.15562274
114	0xbe23e26f	-0.16004346
115	0xbe0139c7	-0.12619697
116	0x3dbf4882	0.09340002
117	0xbe8b6cee	-0.27231544
118	0x3e0fce1a	0.14043465
119	0x3e093d74	0.13402349
120	0x3e17160a	0.14754501
121	0x3ea5de70	0.3239627
122	0x3ebb5642	0.36589247
123	0x3e6459a7	0.22299825
124	0x3e8be1d9	0.27320746
125	0x3e2acf27	0.16680585
126	0xbdcc577c	-0.09977624
127	0x3e5e132a	0.21686998
128	0x3eaf80a0	0.3427782
129	0x3cdc1c1a	0.026868869
130	0xbebce92a	-0.3689664
131	0xbd079df6	-0.033109628
132	0xbd7c9d43	-0.061673414
133	0xbe6b7c5d	-0.2299666
134	0x3ec4ade7	0.38413927
135	0xbc0ef619	-0.008725666
136	0x3d6d3777	0.057914224
137	0x3e89b018	0.2689216
138	0x3f0507d6	0.5196508
139	0x3cd9d430	0.026590437
140	0xbdb716c1	-0.08939887
141	0x3ea2fc73	0.31833228
142	0xbe828f03	-0.25499734
143	0x3e3ee667	0.18642579
144	0xbe9c5fb7	-0.30541775
145	0x3e5e0a55	0.21683629
146	0x3f0bea82	0.54654706
147	0x3ea4f3f0	0.3221736
148	0xbefae68a	-0.49004012
149	0x3d9c3629	0.07627518
150	0xbe176b66	-0.14787063
151	0x3b903baf	0.004401646
152	0x3df487d6	0.11939971
153	0x3dc9e1e9	0.09857542
154	0xbefc7ca0	-0.4931383
155	0xbe379361	-0.17927314
156	0x3da1fb5f	0.07909273
157	0x3d897048	0.06710869
158	0xbf1a779c	-0.6033876
159	0xbec0580f	-0.37567183
160	0x3ea95a8c	0.33076894
161	0xbe4d7b02	-0.20066455
162	0xbdaca341	-0.08429576
163	0xbe49319d	-0.19647832
164	0xbefbe5aa	-0.49198657
165	0xbdfde95c	-0.123980254
166	0xbe6f784f	-0.23385738
167	0xbaaf7c35	-0.0013388457
168	0xbe0e1802	-0.13876346
169	0xbeae243c	-0.3401202
170	0xbf13c400	-0.5772095
171	0xbebb98ba	-0.3663996
172	0x3e5aba36	0.21360096
173	0x3b7f0fa7	0.0038919242
174	0xbe6c44bc	-0.23073095
175	0xbe48bef0	-0.19604087
176	0x3e93d226	0.28871268
177	0x3ea85433	0.3287674
178	0xbecfff14	-0.40624297
179	0x3e606ecd	0.21917267
180	0xbe513417	-0.20430027
181	0x3e98f9f5	0.29878202
182	0xbd50d7d1	-0.05098707
183	0xbe83316f	-0.25623652
184	0x3e588a88	0.21146595
185	0x3cb038fb	0.021511545
186	0xbeb90e7f	-0.36143872
187	0xbe29ed0b	-0.16594331
188	0x3ea97953	0.33100376
189	0xbe855293	-0.26039562
190	0xbd010508	-0.03149894
191	0xbe697f8a	-0.22802559
192	0xbd1fd323	-0.039019715
193	0x3e920549	0.28519657
194	0xbe8ae24f	-0.27125785
195	0xbd8d2e5e	-0.068936095
196	0xbe946a3e	-0.28987306
197	0xbe999fb8	-0.30004668
198	0x3d6eae05	0.058271427
199	0x3e859cd4	0.26096213
200	0x3e0c5488	0.13704121
201	0xbdb58ab5	-0.08864347
202	0x3ec78ca1	0.3897448
203	0x3e4a0bbf	0.19731043
204	0xbe349ae0	-0.17637205
205	0x3e3b0a9a	0.18265763
206	0xbe5ee9df	-0.21768902
207	0xbcb16fe0	-0.021659791
208	0x3dfb3ab7	0.12267058
209	0x3ea1a88a	0.31573898
210	0xbe5d2a5c	-0.2159819
211	0xbdd0d771	-0.10197342
212	0x3e6cc989	0.23123755
213	0x3e97bf07	0.2963793
214	0xbca2ba2f	-0.01986417
215	0xbd3297cd	-0.0436018
216	0x3e7d753e	0.24751756
217	0x3d38f282	0.04515315
218	0x3d3593e3	0.04433049
219	0xbe59021c	-0.21192211
220	0x3e8f330e	0.2796864
221	0x3e62a23d	0.22132201
222	0x3edf3e89	0.43602398
223	0x3e22192f	0.1582992
224	0x3eea61cc	0.45777738
225	0x3e668e88	0.22515309
226	0x3caaed3e	0.020865079
227	0x3d6fff12	0.058592863
228	0x3d6fe5f3	0.058568906
229	0x3d599f72	0.053130575
230	0xbee880f6	-0.4541089
231	0x3dd6b61a	0.10483952
232	0xbed1b48a	-0.40958053
233	0xbe8ad72e	-0.27117294
234	0xbed55592	-0.41666847
235	0xbe37ed1e	-0.17961547
236	0xbddf64b3	-0.10907879
237	0x3dd47058	0.1037299
238	0xbd3dfe01	-0.046384815
239	0x3e3e85b0	0.18605685
240	0xbed1d022	-0.40979105
241	0xbeb25693	-0.34831676
242	0x3abac9a1	0.0014250764
243	0x3e1ee962	0.15518716
244	0x3e6cb982	0.2311764
245	0xbddeb5fa	-0.10874553
246	0xbf0753f6	-0.5286249
247	0xbe27b754	-0.16378528
248	0xbd2365bd	-0.039891947
249	0x3e856569	0.26053932
250	0x3f08f738	0.53502226
251	0x3d9665bb	0.07343622
252	0x3e342ef3	0.17596035
253	0x3e8c459d	0.2739686
254	0x3eb89183	0.36048517
255	0x3e35bef3	0.17748623

fc1.bias f4 [256]
0	0x3ea45c4c	0.32101667
1	0x3ea92242	0.3303395
2	0x3e8209fd	0.25398245
3	0x3eb5876e	0.35454887
4	0x3ebb62ee	0.36598915
5	0x3e4d6dd7	0.20061432
6	0x3e8a1f88	0.2697718
7	0xbd32c00c	-0.04364018
8	0xbd4f7376	-0.05064722
9	0x3e0866a5	0.13320406
10	0xbd7b0f65	-0.06129398
11	0x3c318983	0.010836008
12	0x3e9d3f08	0.30712152
13	0x3e19da87	0.15024768
14	0x3ec6a85b	0.3880032
15	0x3edc9156	0.43079633
16	0x3ef9cc64	0.4878875
17	0xbe5497d0	-0.20761037
18	0xbe8ddc17	-0.27706978
19	0xbd2bc643	-0.041937124
20	0xbd851396	-0.06497876
21	0x3eede12a	0.4646085
22	0xbd9381e3	-0.07202508
23	0xbe5d2838	-0.21597373
24	0x3e2325c8	0.15932381
25	0xbebd5be4	-0.3698417
26	0x3e6eb3c5	0.23310764
27	0xbd20e79b	-0.039283376
28	0x3e74eddc	0.23918861
29	0x3ed06096	0.4069869
30	0xbe305867	-0.17221223
31	0xbe9df043	-0.30847368
32	0x3ef9ac23	0.48764142
33	0x3ef547b4	0.47906268
34	0x3dafaf6e	0.085783824
35	0x3f0086ef	0.5020589
36	0xbe5b0514	-0.21388656
37	0xbd3ea833	-0.046547126
38	0xbe3e9eb3	-0.18615226
39	0xbe9a19bf	-0.30097768
40	0xbe9cc32b	-0.3061765
41	0xbde228c2	-0.1104293
42	0xbde850e6	-0.11343555
43	0xbe3b852c	-0.1831252
44	0x3ee94c20	0.4556589
45	0x3eb16d6e	0.346538
46	0xbea1683c	-0.31524837
47	0xbe7c0627	-0.24611722
48	0x3eaa6a17	0.33284065
49	0x3ed0695e	0.4070539
50	0x3f032ff4	0.51245046
51	0x3eba8eb9	0.36437014
52	0xbe199696	-0.1499885
53	0x3ef7e1db	0.48414502
54	0x3e9acab1	0.30232766
55	0xbd39e5af	-0.04538506
56	0x3dc147ac	0.094374985
57	0x3e9e4d0d	0.3091816
58	0xbd421129	-0.047379646
59	0x3eae6c12	0.34066826
60	0xbe14dfe4	-0.14538532
61	0xbe077be2	-0.13230851
62	0x3efe4ea5	0.49669376
63	0xbe490e3f	-0.1963434
64	0xbeab420e	-0.33448833
65	0x3d81dac4	0.06340554
66	0xbe5dfc0f	-0.21678184
67	0x3ede70dc	0.4344548
68	0x3e930075	0.28711286
69	0x3ee37be3	0.44430456
70	0x3d89b2d3	0.06723561
71	0xbe90e0ed	-0.28296605
72	0x3ec12936	0.37726754
73	0xbd653aac	-0.055964157
74	0x3ed7e2c4	0.42165196
75	0x3eb7078a	0.3574794
76	0x3d96431f	0.07337021
77	0x3ebaa717	0.36455604
78	0x3e835714	0.25652373
79	0x3ea341e3	0.31886205
80	0x3e967a19	0.29390028
81	0x3ecd396c	0.40082872
82	0x3eb963c0	0.36208916
83	0xbe24e793	-0.16103964
84	0x3f0340e5	0.51270896
85	0xbd407d0c	-0.046994254
86	0xbdd3b5e8	-0.1033743
87	0x3e116d52	0.14201859
88	0x3e5f8845	0.21829326
89	0xbea47047	-0.3211691
90	0xbe9ab713	-0.302178
91	0x3e9a4310	0.3012929
92	0x3eab3cde	0.33444875
93	0xbe06fe84	-0.13183028
94	0xbe8b756d	-0.27238026
95	0xbe6e2ee2	-0.23260072
96	0xbe0db955	-0.1384023
97	0x3eaa27a7	0.33233377
98	0x3ec7d1f7	0.39027378
99	0x3eb6cf23	0.35704908
100	0x3ede90b3	0.43469772
101	0xbe072847	-0.13198958
102	0xbddd8e22	-0.10818125
103	0xbe836259	-0.2566097
104	0xbd3dfdf8	-0.04638478
105	0xbea0214d	-0.31275406
106	0xbe6eb802	-0.23312381
107	0x3e6858c4	0.22690111
108	0x3dc9578d	0.09831152
109	0xbe97bb29	-0.2963498
110	0x3e96a126	0.29419822
111	0xbd5cc25b	-0.05389629
112	0xbd3195b4	-0.04335566
113	0xbdad7a75	-0.084706225
114	0x3ec1ae3b	0.3782824
115	0x3ec284e4	0.37992013
116	0x3ed2ca17	0.41169807
117	0xbe4b9c56	-0.19883856
118	0xbe561ddb	-0.20909826
119	0x3ef43e43	0.47703752
120	0xbe135467	-0.14387666
121	0x3e6da425	0.23207147
122	0x3e58c19f	0.2116761
123	0xbe2cbb8d	-0.1686842
124	0xbe548280	-0.20752907
125	0x3e6cb0dc	0.23114341
126	0xbe62ede2	-0.22161058
127	0x3ec9216e	0.39283317
128	0xbe9e5d33	-0.3093048
129	0x3eafe3a3	0.3435336
130	0xbe8e3b4c	-0.27779615
131	0xbe81d215	-0.25355592
132	0x3ecdab49	0.40169743
133	0x3ce55430	0.027994245
134	0xbd3da9ce	-0.046304516
135	0xbd9d3d7f	-0.07677745
136	0xbe96f720	-0.29485416
137	0x3eb56d62	0.35435015
138	0xbe3af757	-0.18258415
139	0x3eb06a4f	0.34456107
140	0x3ea23d6f	0.31687495
141	0xbe5daa50	-0.21647
142	0x3ed03949	0.40668705
143	0xbe9f39b3	-0.3109871
144	0xbe0b127b	-0.13581268
145	0x3e6cba23	0.2311788
146	0xbc75d8e3	-0.015005323
147	0xbece82f2	-0.40334278
148	0x3ee178ef	0.44037578
149	0xbca49d51	-0.020094546
150	0x3ed56605	0.41679397
151	0x3ee88508	0.45413995
152	0x3e2a4e06	0.16631326
153	0x3e6d86f7	0.23196016
154	0xbe9a9230	-0.30189657
155	0x3d2a277c	0.04154156
156	0x3d04abbb	0.032390337
157	0x3e82eb3b	0.25570092
158	0x3eb0f8a1	0.3456469
159	0x3e767da6	0.24071369
160	0x3ed18032	0.40918118
161	0xbe0cc780	-0.13747978
162	0x3eaabcd1	0.3334718
163	0x3cce9699	0.025218295
164	0x3e9696ab	0.29411826
165	0x3e11ab6e	0.14225551
166	0xbd9cd68b	-0.07658108
167	0x3e9065ec	0.2820276
168	0x3b8f180a	0.0043668794
169	0x3cce80e3	0.025207942
170	0x3eaaddb5	0.33372274
171	0x3e58d9c3	0.2117682
172	0x3dc2906a	0.09500201
173	0x3e7ffd44	0.24998957
174	0xbd56d9b7	-0.052453723
175	0xbd5aa928	-0.053383976
176	0xbbb47464	-0.005507039
177	0x3ea24410	0.31692553
178	0x3e9850d2	0.2974916
179	0x3efcea1a	0.49397355
180	0x3eca896c	0.3955797
181	0xbe066005	-0.13122566
182	0xbe10b0f8	-0.14130008
183	0xbe8b3a63	-0.27192983
184	0x3bbbd8ce	0.0057326322
185	0x3ed7069d	0.41997233
186	0x3f03f5bf	0.51546854
187	0x3ef3b155	0.4759623
188	0x3ee7dcec	0.45285738
189	0x3e9f5cb4	0.31125414
190	0xbe33bec8	-0.17553246
191	0x3ea337cb	0.31878504
192	0xbd7442eb	-0.05963413
193	0xbea4cb0b	-0.3218616
194	0x3e9e1e8d	0.30882683
195	0x3edf15c4	0.43571293
196	0xbda08134	-0.078371435
197	0x3ecaaaf0	0.3958354
198	0x3eeadfc6	0.4587385
199	0xbe2b282a	-0.1671454
200	0xbe2aa608	-0.16664898
201	0x3ee69836	0.45038003
202	0x3e5d0a6a	0.21586004
203	0x3e864ab8	0.2622888
204	0xbdb4ac06	-0.08821873
205	0x3e367c0d	0.17820759
206	0x3dca59a8	0.09880382
207	0x3ef769c8	0.48322892
208	0xbe6be5e2	-0.23036912
209	0x3ed47ee6	0.41503066
210	0x3ecba96c	0.39777696
211	0x3ebdc7cc	0.37066495
212	0x3ee1dce0	0.44113827
213	0x3db8ec1f	0.090294115
214	0xbe8b5b16	-0.2721793
215	0xbd0ae71b	-0.033911806
216	0x3ec4c94b	0.38434824
217	0x3e9dbbeb	0.30807433
218	0x3d914872	0.07093896
219	0x3ea6b50b	0.3256
220	0x3ecb3cf6	0.39694947
221	0x3eaf40fb	0.34229264
222	0x3d9d9dbb	0.076961
223	0x3de7465c	0.11292717
224	0xbd498487	-0.049198654
225	0xbe6694aa	-0.22517648
226	0xbdfa53ce	-0.12223016
227	0x3e74f993	0.2392333
228	0x3ef20145	0.47266594
229	0xbe8a3ec3	-0.27001008
230	0x3e623e54	0.22094089
231	0xbdd227d8	-0.10261506
232	0xbe8f82aa	-0.28029376
233	0xbc9586e1	-0.018252792
234	0x3e7ba686	0.24575242
235	0x3eb74ea8	0.35802197
236	0x3e52e61e	0.20595595
237	0x3eb42def	0.35191295
238	0x3ec9f072	0.39441258
239	0x3ec689e9	0.38777092
240	0xbda55cf0	-0.08074367
241	0x3eadb133	0.33924255
242	0x3e416abd	0.18888374
243	0xbd00c74e	-0.03144007
244	0xbe9cf32d	-0.30654278
245	0x3e3c9e1d	0.1841969
246	0xbe49a170	-0.1969049
247	0x3ef8b993	0.48579082
248	0xbd16ee77	-0.03684851
249	0xbe53b6a8	-0.20675147
250	0xbe48350e	-0.19551489
251	0xbd1b60f2	-0.03793425
252	0x3e5f411a	0.21802178
253	0xbe89d0ad	-0.2691702
254	0x3ef7f6a6	0.48430365
255	0x3ee4eb06	0.4471056

fc2.weight f4 [256, 256]
0	0x3d9946e4	0.074842244
1	0x3df0d56d	0.11759458
2	0x3d222f74	0.039596036
3	0x3e169fcd	0.14709397
4	0x3defa6ba	0.117017224
5	0x3dc506bf	0.09620427
6	0x3e1ed648	0.1551143
7	0xbd587210	-0.052843153
8	0xbe1121c6	-0.1417304
9	0x3da31c28	0.07964355
10	0xbd6afbea	-0.05736915
11	0xbdaca1e8	-0.08429319
12	0x3e1be9b1	0.15225865
13	0x3db7fc40	0.0898366
14	0x3e388c20	0.18022203
15	0x3e10a1fb	0.1412429
16	0x3def3f89	0.1168204
17	0xbd17b0f7	-0.037034
18	0xbe243265	-0.16034849
19	0x385ac4be	5.215848e-05
20	0xbcbd5eab	-0.02311643
21	0x3e19f2d3	0.15034036
22	0xbb6c359f	-0.0036042703
23	0xbd200674	-0.039068654
24	0x3c56e451	0.013115958
25	0xbe0203b0	-0.12696719
26	0x3d5a1687	0.05324414
27	0xbda23890	-0.07920945
28	0x3d958b20	0.073019266
29	0x3e03fe60	0.12890005
30	0xbda63cec	-0.08117089
31	0xbdc74448	-0.097298205
32	0x3ddf67a8	0.10908443
33	0x3e02c8cd	0.12771912
34	0x3d4a2fff	0.04936218
35	0x3e2c6606	0.16835794
36	0xbdf4612b	-0.11932596
37	0xbd7fb4a5	-0.062428135
38	0xbdd9e305	-0.10639004
39	0xbe2dc7b9	-0.1697072
40	0xbe2b97e3	-0.16757159
41	0xbd9a2a04	-0.07527545
42	0xbe2d002c	-0.16894597
43	0xbde8edb7	-0.113734655
44	0x3d944072	0.072388545
45	0x3e2d31f6	0.1691359
46	0xbe59a152	-0.21252945
47	0xbdd94586	-0.10608964
48	0x3e030d06	0.12797937
49	0x3d669035	0.05628987
50	0x3dcd9aaa	0.100392655
51	0x3e0b901c	0.13629192
52	0xbd981f68	-0.07427865
53	0x3dbfd2db	0.09366389
54	0x3d43df89	0.0478206
55	0xbd04bce4	-0.032406703
56	0xbc2610e6	-0.010135865
57	0x3e302e2b	0.17205112
58	0xbd409f4f	-0.04702693
59	0x3de3dc76	0.11126034
60	0xbc289871	-0.010290251
61	0xbe5520ea	-0.20813337
62	0x3e06ab7d	0.13151355
63	0xbc33752a	-0.010953227
64	0xbe213b17	-0.15745197
65	0x3ccb12b7	0.024789197
66	0xbda4096c	-0.080096096
67	0x3e0d5d43	0.13805108
68	0x3d577444	0.052601114
69	0x3e1092a0	0.14118433
70	0xbd4edf4c	-0.05050592
71	0xbdea38b0	-0.114365935
72	0x3dc3b7a5	0.09556512
73	0xbdc9d31e	-0.098547205
74	0x3e0debd0	0.13859487
75	0x3dcd27e0	0.10017371
76	0x3d59834f	0.05310374
77	0x3dd14569	0.10218317
78	0x3dc62621	0.09675241
79	0x3e15aa3a	0.14615718
80	0x3ddf52b6	0.10904448
81	0x3ddd7a44	0.10814336
82	0x3d8e743a	0.06955762
83	0x3d0a7cc2	0.033810385
84	0x3e2f6dad	0.17131682
85	0xbd88fc02	-0.06688692
86	0xbd2943e3	-0.041324507
87	0x3d96fc4e	0.07372342
88	0x3da0a00d	0.07843027
89	0xbe61c667	-0.2204834
90	0xbd8926b0	-0.06696832
91	0x3df9650e	0.12177478
92	0x3e1445ca	0.14479747
93	0xbd98eeb2	-0.074674025
94	0xbd8dfabd	-0.0693259
95	0xbc18c127	-0.009323395
96	0xbe1453f3	-0.14485149
97	0x3d94ed09	0.07271773
98	0x3e0f0fdc	0.13970894
99	0x3dc8a9ca	0.0979801
100	0x3e3bf64d	0.18355675
101	0xbd236375	-0.03988977
102	0xbd2b36c1	-0.041800264
103	0xbdefa4e6	-0.11701374
104	0xbddb1d9e	-0.106990084
105	0xbd97a85d	-0.074051596
106	0xbe0b9fd7	-0.13635193
107	0x3b3923be	0.0028250064
108	0x3d5ffc33	0.054683875
109	0xbe063e37	-0.1310967
110	0x3dd062e3	0.10175111
111	0xbb4dd99a	-0.0031410218
112	0xbddff5b9	-0.1093554
113	0xbe3c85db	-0.18410437
114	0x3dc859a2	0.09782721
115	0x3e24cd6e	0.1609399
116	0x3ded2505	0.115793265
117	0xbdd3fbf6	-0.10350792
118	0xbc34deca	-0.011039445
119	0x3e277351	0.16352583
120	0xbe26157f	-0.16219138
121	0x3bb579d8	0.0055382065
122	0x3da521de	0.080631
123	0xbde7cac6	-0.11317973
124	0xba03af95	-0.0005023417
125	0x3d7f6ca6	0.062359475
126	0x3d04c07a	0.032410122
127	0x3de32176	0.110903665
128	0xbdb06e3f	-0.08614778
129	0x3d5def1a	0.054183103
130	0xbd208847	-0.039192464
131	0xbde973bc	-0.11399028
132	0x3dad37c0	0.08457899
133	0xbd30692d	-0.043069053
134	0xbd3f275d	-0.0466684
135	0xbdffba50	-0.12486708
136	0xbe3ef35d	-0.18647523
137	0x3e0aa20e	0.13538381
138	0xbdbbccc4	-0.09169915
139	0x3dd4d05c	0.10391304
140	0x3d7ffa47	0.062494542
141	0xbd71c6e5	-0.05902757
142	0x3dd68ea9	0.10476429
143	0x3a9df954	0.0012052455
144	0x3ca68be2	0.020330373
145	0x3d8fd758	0.070234954
146	0xbd652f74	-0.055953458
147	0xbe82bbd1	-0.25533918
148	0x3deaf253	0.11472001
149	0xbd54696e	-0.051858358
150	0x3e3141e0	0.17310286
151	0x3e0f0e4c	0.13970298
152	0x3d68694d	0.056741048
153	0x3e154804	0.14578253
154	0xbdeaf972	-0.11473359
155	0xbd2513ec	-0.040302202
156	0x3d9407d7	0.07228058
157	0x3d82b89f	0.0638287
158	0x3db71947	0.08940368
159	0x3dbd7c79	0.09252257
160	0x3dbc19df	0.09184622
161	0xbcfd2dca	-0.030905623
162	0x3dfa0a6f	0.12209021
163	0xbdb31b48	-0.08745438
164	0x3e29eb9b	0.16593783
165	0x3d5a711f	0.053330537
166	0xbda85bff	-0.08220672
167	0x3db043ed	0.08606706
168	0xbd90bf3f	-0.07067727
169	0xbd5402c6	-0.051760457
170	0x3e02178a	0.12704292
171	0x3e0c7090	0.13714814
172	0x3d8fc764	0.070204526
173	0x3cc3eed2	0.02391759
174	0xbca6d91d	-0.0203672
175	0xbd3ef7e8	-0.04662314
176	0xbd7d09a4	-0.061776772
177	0x3e062c4f	0.1310284
178	0x3e07e767	0.13271867
179	0x3e3bd2de	0.18342158
180	0x3e30288a	0.17202964
181	0xbdea0bbc	-0.114280194
182	0xbcac98ad	-0.021068895
183	0xbd378476	-0.04480406
184	0xbdb544bf	-0.08851003
185	0x3dca1a54	0.09868303
186	0x3e199a38	0.15000236
187	0x3dc90eac	0.098172516
188	0x3de0fe3f	0.109859936
189	0x3df61486	0.12015633
190	0xbdcc0b34	-0.09963074
191	0x3db41af1	0.08794201
192	0xbcb45b62	-0.022016231
193	0xbe2ab6d2	-0.16671303
194	0x3de7c2cc	0.113164514
195	0x3e3202b4	0.17383844
196	0xbde93f4f	-0.11389028
197	0x3dafc47f	0.085824005
198	0x3d98e057	0.074646644
199	0xbd5eee58	-0.05442652
200	0x3ce2bcb4	0.027677871
201	0x3e30b072	0.17254809
202	0x3de79aa1	0.1130879
203	0x3d8eab8f	0.06966316
204	0xbd8223dd	-0.06354497
205	0x3e334857	0.17508064
206	0x3e609599	0.21932067
207	0x3e35bc87	0.17747699
208	0xbe87bb35	-0.26510015
209	0x3e01ebe8	0.12687647
210	0x3e0e28a6	0.13882694
211	0x3dad3964	0.08458212
212	0x3e1e08ad	0.15432997
213	0x3cfe65b6	0.031054359
214	0xbdbf909d	-0.09353755
215	0xbb8c9ad6	-0.004290919
216	0x3da7183d	0.0815892
217	0x3d8f2ad6	0.06990592
218	0x3d308803	0.04309846
219	0x3d5caa56	0.053873383
220	0x3df20948	0.118181765
221	0x3e0e1539	0.13875283
222	0x3cf7e8ad	0.030262316
223	0x3d5a2eb1	0.053267185
224	0xbd562932	-0.05228538
225	0xbe0a4e04	-0.13506323
226	0xbd584ef4	-0.05280967
227	0x3e314555	0.17311604
228	0x3da61daf	0.081111304
229	0xbd842850	-0.064530015
230	0x3d7c0977	0.061532464
231	0xbd9fed36	-0.07808916
232	0x3cf9525e	0.030434784
233	0xbc986f0f	-0.018607644
234	0x3d85a5a3	0.06525733
235	0x3e412a63	0.18863826
236	0x3cb56f77	0.022147877
237	0x3e01c7f5	0.12673934
238	0x3cb38dd4	0.021918215
239	0x3db1ffe9	0.08691389
240	0xbd865fe3	-0.06561258
241	0x3e005fbe	0.12536523
242	0x3e3c8abd	0.184123
243	0xbd8244a8	-0.063607514
244	0xbc15bf09	-0.009139785
245	0x3da14d59	0.07876081
246	0xbe0c989f	-0.13730095
247	0x3e3e526a	0.18586126
248	0xbce058e2	-0.027386133
249	0xbdc1e179	-0.094668336
250	0x3a6f1cea	0.0009121435
251	0xbe26719f	-0.1625428
252	0x3e0f9325	0.14020975
253	0xbe275992	-0.16342762
254	0x3e2d4add	0.1692309
255	0x3e0ab3f7	0.13545214

fc2.bias f4 [256]
0	0x3e2b4996	0.1672729
1	0x3c9fb095	0.01949338
2	0xbce4f637	-0.027949436
3	0xbaae9b88	-0.0013321498
4	0x3cce104f	0.02515426
5	0x3e1e1f6e	0.15441677
6	0xbd392855	-0.04520448
7	0x3d1207e8	0.03565207
8	0x3e37eb87	0.1796094
9	0x3e0f68c7	0.14004813
10	0xbc42f1e2	-0.01189849
11	0x3dafc075	0.0858163
12	0xbb84963a	-0.0040462287
13	0x3e02eacc	0.1278488
14	0x3e3c3cb7	0.18382536
15	0x3cd8d8ca	0.02647056
16	0x3e20be72	0.15697649
17	0x3e092615	0.13393433
18	0xbc88ea98	-0.016713426
19	0xba3e8937	-0.00072683714
20	0x3e0fcff2	0.14044169
21	0xbca77612	-0.020442042
22	0xbd6106d0	-0.054938138
23	0x3e0970a2	0.13421872
24	0x3bb6aa2e	0.005574486
25	0xbd16c787	-0.036811378
26	0x3dc2a1a5	0.095034875
27	0x3e28c3de	0.16480967
28	0x3cb357b3	0.021892404
29	0x3b56d5a0	0.003278114
30	0x3dfe58d3	0.124192856
31	0x3e19569a	0.14974442
32	0x3db28a74	0.08717814
33	0x3df9026b	0.12158664
34	0x3e346554	0.17616779
35	0xbce9553c	-0.028483026
36	0x3c04cd31	0.008105562
37	0x3dcc9a98	0.09990424
38	0x3e00b8ba	0.12570468
39	0xbda63773	-0.08116045
40	0x3debddd4	0.1151692
41	0x3c8ea5e4	0.017413087
42	0x3c0f0736	0.008729747
43	0xbc083f1a	-0.008315826
44	0x3e3404e8	0.17579997
45	0xbcb70cf3	-0.022345042
46	0xbd452317	-0.048129167
47	0x3de2b298	0.1106922
48	0x3e4073e8	0.18794215
49	0xbdc9d46e	-0.09854971
50	0xbc1da72d	-0.009622377
51	0x3be77213	0.0070631593
52	0x3ba89146	0.005144271
53	0xbceb60a2	-0.028732602
54	0x397ed4ab	0.00024302553
55	0x3e2a5cb3	0.16636924
56	0x3b9d3d33	0.0047985553
57	0xbd03d355	-0.032183964
58	0xbbba388b	-0.00568301
59	0x3cd03657	0.025416536
60	0x3e1e767b	0.15474884
61	0xbd592ddc	-0.05302225
62	0x3e02b031	0.12762524
63	0xbb3bf763	-0.002868139
64	0xbb23b28f	-0.0024978255
65	0xbd3abcb7	-0.04559013
66	0x3df85bc9	0.12126882
67	0xbd1a0dbb	-0.03761075
68	0xbd09390d	-0.033501673
69	0x3df3dd9f	0.11907505
70	0x3da406e3	0.08009126
71	0xbcf8aa0d	-0.030354524
72	0x3cc00dbf	0.023444055
73	0x3e32e3ce	0.17469713
74	0x3e0e2b13	0.13883619
75	0xbd088bb6	-0.033336364
76	0x3e2180a4	0.15771729
77	0x3e3191a6	0.17340717
78	0xbc20fc3b	-0.009825761
79	0xbd350fa6	-0.044204377
80	0xbab730d6	-0.0013976346
81	0x3d16033d	0.036624182
82	0x3cb22c82	0.021749739
83	0xbc67bb1a	-0.01414373
84	0xbcfc8c08	-0.03082849
85	0x3da3d90d	0.080003835
86	0x3dee7c5c	0.116448134
87	0xbd4c2fbe	-0.049850218
88	0x3e2cc9de	0.16873881
89	0x3e1d5a71	0.15366532
90	0x3e2b7811	0.1674502
91	0x3cc42f96	0.023948472
92	0xbd6b22ca	-0.057406224
93	0x3cc84fbe	0.024452087
94	0x3c98c05f	0.018646417
95	0xbcf8bff7	-0.030364973
96	0x3dac7d71	0.084223635
97	0xbd874e6a	-0.06606753
98	0x3dac5c71	0.08416069
99	0x3e2faf6e	0.17156765
100	0x3ddcfe33	0.10790672
101	0x3e2ce3cd	0.16883774
102	0x3cd8108a	0.026375074
103	0x3ccd3634	0.02505026
104	0x3cc55dc6	0.024092566
105	0x3e020170	0.12695861
106	0x3e2d2d42	0.16911796
107	0x3e4a7eb8	0.19774902
108	0x3dff9aab	0.124806724
109	0xbc128fd7	-0.008945427
110	0x3dcc1e9a	0.09966774
111	0x3e0fa7c3	0.1402884
112	0x3de29a58	0.11064595
113	0x3e20bb96	0.15696558
114	0xbc156077	-0.009117237
115	0xbdbf3ab4	-0.093373686
116	0xbc347f2b	-0.011016647
117	0xbd08d5a4	-0.03340687
118	0x3e46ed93	0.19426565
119	0xbc69186f	-0.014227017
120	0xbc2d4b02	-0.010576965
121	0xbd7755cb	-0.060384553
122	0x3e17e664	0.14833981
123	0x3daddf62	0.084898725
124	0xbcf7e8a2	-0.030262295
125	0x3de7c4a6	0.113168046
126	0x3e53c9a1	0.20682384
127	0x3d85a112	0.06524862
128	0x3df9e470	0.12201774
129	0x3e495fba	0.19665423
130	0xbb8af294	-0.0042403433
131	0x3e3c3e62	0.18383172
132	0x3e4360d8	0.19079912
133	0x3e12793f	0.14304064
134	0x3e20a8d5	0.15689404
135	0x3e115b8a	0.14195076
136	0x3d0f6a04	0.035013214
137	0x3d5e638a	0.054294147
138	0xbba7d4d1	-0.0051218052
139	0x3de9c684	0.11414817
140	0xbd7175eb	-0.058950346
141	0x3d25cea3	0.040480267
142	0xbc8454f8	-0.016153798
143	0xbc2e713a	-0.0106471125
144	0xbd67955e	-0.056538932
145	0xbd13ac55	-0.03605302
146	0xbd14e287	-0.036348846
147	0xbd1caafd	-0.038249005
148	0x3b54a306	0.0032445802
149	0x3d3307ee	0.043708734
150	0x3d148dff	0.03626823
151	0x3c494bd7	0.012286148
152	0x3b39e948	0.0028367806
153	0xbcd223f2	-0.025651906
154	0xbcb02b82	-0.021505121
155	0xbd4e999a	-0.050439455
156	0xbd577580	-0.05260229
157	0xbd342283	-0.043978225
158	0x3d097ce0	0.033566356
159	0x3e3c7362	0.1840339
160	0x3ce0af41	0.027427318
161	0x3cb4a5b7	0.022051675
162	0x3e4e7018	0.20159948
163	0x3e1d43e6	0.15357932
164	0x3e05d9c9	0.1307136
165	0x3da34749	0.07972581
166	0xbd78944e	-0.06068831
167	0x3ce0d2eb	0.027444324
168	0x3e3a5ce3	0.18199496
169	0x3dec8288	0.11548334
170	0x3e1361a5	0.14392717
171	0x3e0c3a91	0.13694216
172	0x3e1716bf	0.1475477
173	0xbc5270e4	-0.012844298
174	0x3e382720	0.17983675
175	0xbb9744eb	-0.00461637
176	0xbc3a6dc9	-0.011378714
177	0x3e264fd5	0.16241391
178	0x3c1d335b	0.009594764
179	0x3d0196fb	0.031638127
180	0x3e3c1bab	0.1836993
181	0xbdb55dae	-0.088557586
182	0x3bb76f93	0.0055980175
183	0xbd43085a	-0.047615387
184	0xbc5c4aac	-0.013445538
185	0x3dfee1ab	0.124453865
186	0x3e519866	0.20468292
187	0x3e3b932f	0.18317865
188	0x3e0d6f57	0.13812004
189	0x3e33ba46	0.17551526
190	0xbd2d9e91	-0.04238755
191	0xbd252fee	-0.040328912
192	0x3e314578	0.17311656
193	0x3de81940	0.11332941
194	0x3e20e966	0.15714034
195	0x3e17ea5e	0.14835498
196	0x3cb718a6	0.02235062
197	0x3ddcfdcb	0.10790595
198	0x3e1744d6	0.14772353
199	0x3cb08ff6	0.02155302
200	0xbcdd6a38	-0.027028188
201	0x3be32c47	0.0069327685
202	0x3e04849e	0.12941214
203	0x3c81237a	0.015763987
204	0xbcbf5ad8	-0.023358747
205	0xbcef8152	-0.02923647
206	0x3bb345e6	0.005470979
207	0xbc071a6c	-0.008246046
208	0x3e24c15a	0.16089383
209	0xbd175207	-0.03694346
210	0x3e4b37ef	0.19845556
211	0x3e118bc8	0.14213479
212	0x3de38a84	0.11110404
213	0x3b1859df	0.0023246927
214	0xbb48154c	-0.0030530272
215	0x3e281a8a	0.16416374
216	0x3e4cd0c5	0.20001514
217	0x3e1f257a	0.1554164
218	0x3e0525f0	0.13002753
219	0x3dcae975	0.0990781
220	0x3e2edc6f	0.17076276
221	0xbd190e61	-0.03736723
222	0xbcb90062	-0.02258319
223	0x3e4de980	0.20108604
224	0xbdaeec8e	-0.08541213
225	0x3e1341dc	0.14380592
226	0x3e405aab	0.18784587
227	0xbcb41ca7	-0.021986319
228	0x3e3d624a	0.18494526
229	0x3d37f138	0.04490778
230	0x3e050014	0.12988311
231	0x3e026c2e	0.1273658
232	0x3e3910a3	0.18072753
233	0xbc98a3db	-0.01863282
234	0x3c915d3b	0.017744651
235	0xbcf91e4b	-0.030409953
236	0xbcc91e3e	-0.024550553
237	0x3ca47cd0	0.020079046
238	0xbda02661	-0.0781982
239	0xbbf03b79	-0.0073313084
240	0x3d4ad20b	0.04951672
241	0x3c23e6f4	0.010003794
242	0xbcaea93a	-0.021320928
243	0xba5aeca9	-0.0008351305
244	0x3e34f8f3	0.17673092
245	0x3e359606	0.1773301
246	0x3e380cd7	0.17973648
247	0x3e08d9e8	0.13364375
248	0x3e27f649	0.16402544
249	0xbcf4e722	-0.029895369
250	0x3d12b953	0.03582127
251	0x3e05ca09	0.13065352
252	0x3de5dd25	0.112238206
253	0x3e0036e6	0.12520942
254	0x3dfae48a	0.122506216
255	0x3c8b0a36	0.016972642

value_stream.weight f4 [1, 256]
0	0x3e4a98ad	0.19784804
1	0xbc57a5cc	-0.013162088
2	0xbcfd7c0c	-0.03094294
3	0xbe881083	-0.26575097
4	0xbcf6f4ee	-0.030146088
5	0x3e7c40c2	0.24634078
6	0xbe229a6c	-0.1587922
7	0x3e2724d3	0.16322641
8	0x3e3d000a	0.18457046
9	0x3e3bf1b7	0.18353926
10	0xbe7f95bd	-0.24959464
11	0x3e624d51	0.22099806
12	0xbe3bb09e	-0.18329093
13	0x3dba6dd8	0.09102982
14	0x3e413617	0.1886829
15	0x3b95f703	0.004576565
16	0x3dcfcc8c	0.10146436
17	0x3e68a7df	0.22720288
18	0xbe783b03	-0.24241261
19	0xbcae7e82	-0.021300558
20	0x3e672843	0.22573952
21	0x3bf00a22	0.0073254267
22	0xbe2846c6	-0.16433248
23	0x3ddb2ee5	0.10702304
24	0xbbe590d3	-0.00700579
25	0xbdcbd6f2	-0.09953107
26	0x3e2e5a86	0.1702672
27	0x3e685b8c	0.22691172
28	0x3ca0fd42	0.019652013
29	0x3c94b339	0.018151866
30	0x3db7ff30	0.0898422
31	0x3e6070c9	0.21918024
32	0x3d6892a4	0.056780472
33	0x3e55774e	0.20846292
34	0x3de867f4	0.113479525
35	0xbe045280	-0.12922096
36	0xbcc57bfa	-0.024106968
37	0x3e785626	0.24251613
38	0x3e459288	0.19294178
39	0xbe9cc76c	-0.30620897
40	0x3e5176c1	0.20455457
41	0xbd202a27	-0.0391027
42	0xbc263176	-0.010143628
43	0xbd1b53b5	-0.037921626
44	0x3e5a5a1e	0.2132344
45	0x3d222755	0.03958829
46	0xbe11301f	-0.14178513
47	0x3e296e50	0.16545987
48	0x3db5e2a6	0.088811204
49	0xbe3b8237	-0.18311392
50	0xbd9e68f3	-0.07734861
51	0x3e309597	0.17244564
52	0xbc428cfc	-0.011874434
53	0xbcc18aa6	-0.023625683
54	0xbe219692	-0.15780094
55	0x3e13f66a	0.14449468
56	0x3cbf59d1	0.023358257
57	0xbe2700d4	-0.1630891
58	0x3d271392	0.040790148
59	0x3d802c37	0.06258433
60	0x3e4cbdbd	0.19994254
61	0xbe5b4cf3	-0.21416073
62	0x3ded9694	0.11600986
63	0x3d1bbe13	0.038023066
64	0xbcab1ac6	-0.02088679
65	0x3cfa7694	0.03057412
66	0x3e7152ac	0.23566693
67	0xbe926984	-0.28596127
68	0xbbbbd13b	-0.0057317293
69	0x3dae9292	0.0852405
70	0x3e156903	0.1459084
71	0xbc8e2c12	-0.017354999
72	0xbba97d04	-0.0051723737
73	0x3e555e69	0.20836796
74	0x3df5f8d7	0.12010353
75	0xbd4ada80	-0.049524784
76	0x3e0419e0	0.12900496
77	0x3df9a2f9	0.12189288
78	0xbe505fe5	-0.20349081
79	0xbd091c5d	-0.033474315
80	0xbb9649fb	-0.004586456
81	0x3c0522fc	0.008126017
82	0xbdf61fab	-0.12017759
83	0xbe36113a	-0.17780009
84	0xbe9f1375	-0.31069532
85	0x3e2ea2a7	0.17054234
86	0x3e78102c	0.24224919
87	0xbe665b67	-0.22495805
88	0x3e312423	0.17298941
89	0x3e511811	0.20419337
90	0x3dfa6dd1	0.12227977
91	0xbb295d86	-0.0025843098
92	0xbeb1aa47	-0.34700224
93	0xbe760c6b	-0.24028175
94	0xbe6e720a	-0.2328569
95	0xbc7d2f87	-0.015453226
96	0x3da22ec4	0.07919076
97	0xbd919c04	-0.07109836
98	0x3e916277	0.28395435
99	0x3e2981b8	0.1655339
100	0x3e8665a7	0.2624943
101	0x3e5f9c02	0.21836856
102	0xbd18c311	-0.037295405
103	0xbc2a20e4	-0.010383818
104	0xbc0c51f0	-0.008564457
105	0x3e795ac5	0.24351032
106	0x3e692e08	0.22771466
107	0x3decdec0	0.11565924
108	0x3e350624	0.17678124
109	0xbe705bab	-0.23472469
110	0x3e4c793c	0.19968122
111	0x3de56a3d	0.11201904
112	0x3e4264ef	0.18983816
113	0x3e24fe6d	0.1611268
114	0xbe6f1f22	-0.2335172
115	0xbdff9ec5	-0.12481455
116	0xbd13a0a7	-0.036041882
117	0xbd184323	-0.0371734
118	0x3dfff169	0.12497217
119	0xbe4c3fc6	-0.19946203
120	0xbe0273dd	-0.12739511
121	0xbd81a93b	-0.06331106
122	0x3e433f46	0.19067106
123	0x3d1d10f0	0.03834623
124	0xbe4ebbb0	-0.20188785
125	0x3e4afa8b	0.19822137
126	0x3db650ad	0.089021064
127	0xbe1d29be	-0.15347955
128	0x3e2588b2	0.16165426
129	0x3e429e29	0.19005646
130	0xbe30683d	-0.17227264
131	0x3e2373aa	0.15962091
132	0x3dbe130f	0.09280979
133	0x3dccee23	0.100063585
134	0x3e5b7348	0.21430695
135	0x3e5c2018	0.21496618
136	0x3c9f12ef	0.019418208
137	0xbd6a80f3	-0.05725188
138	0xbe0c4b03	-0.1370049
139	0x3e76aa89	0.24088491
140	0xbe602f99	-0.21893157
141	0xbceb3492	-0.02871159
142	0xbe181803	-0.1485291
143	0xbbdf2229	-0.006809492
144	0xbe59965a	-0.21248761
145	0xbd09d248	-0.033647805
146	0xbdefadf2	-0.11703099
147	0xbbfc8fac	-0.0077075567
148	0xbdd53120	-0.104097605
149	0xbe4f3324	-0.20234352
150	0x3dd98471	0.10620964
151	0xbbda5e83	-0.0066640987
152	0xbdfb28fb	-0.12263676
153	0xbd193503	-0.03740407
154	0xbe48e01f	-0.19616745
155	0xbe8d8912	-0.2764364
156	0xbdf96371	-0.1217717
157	0xbc99dc65	-0.01878185
158	0x3e386488	0.180071
159	0x3db3d8da	0.087815955
160	0xbd1e98e9	-0.038720045
161	0x3cc791b0	0.024361461
162	0x3db93567	0.09043389
163	0x3e653a19	0.22385444
164	0x3e725737	0.23666082
165	0x3d7c27b7	0.061561313
166	0xbe543d6a	-0.20726553
167	0x3c889bea	0.016675908
168	0x3e4fa003	0.20275883
169	0x3e5d11c6	0.21588811
170	0x3e133dc2	0.14379027
171	0x3dfba077	0.122864656
172	0x3e53147b	0.20613281
173	0x3cc15f9a	0.023605157
174	0x3e6055d5	0.21907742
175	0xbc82f25a	-0.015984703
176	0xbe3b3a2d	-0.18283911
177	0x3e30a417	0.17250095
178	0xbe679a09	-0.22617353
179	0x3cb0833f	0.021546958
180	0x3e3f6487	0.18690692
181	0xbecfc21c	-0.4057778
182	0x3d4f4aa2	0.050608285
183	0xbd960635	-0.07325403
184	0x3e0bb040	0.13641453
185	0x3e3f479d	0.18679662
186	0x3df1deb6	0.11810057
187	0x3e4a2029	0.1973883
188	0x3e37f56a	0.17964712
189	0x3e2d2d9f	0.16911934
190	0xbcea5da3	-0.028609103
191	0xbc89f7b1	-0.016841741
192	0x3e2a9349	0.16657747
193	0x3e67bf42	0.22631553
194	0x3e5213cd	0.20515366
195	0x3e4ea35d	0.20179506
196	0xbe17b5f7	-0.14815508
197	0x3e517fbd	0.20458885
198	0x3e55a5bb	0.20864002
199	0xbcd67f5e	-0.02618378
200	0xbcca55cb	-0.024699112
201	0xbd187fdb	-0.037231307
202	0x3e3fc2c9	0.18726648
203	0xbb383125	-0.0028105464
204	0xbe061720	-0.13094759
205	0xbcba8c47	-0.022771968
206	0xbe24e15b	-0.16101591
207	0xbcd59fe8	-0.026077226
208	0x3e27efea	0.16400114
209	0xbd1d62e8	-0.038424402
210	0x3e0e4cce	0.13896486
211	0x3e5e159f	0.21687935
212	0x3e564ef0	0.2092855
213	0xbcaf1e0e	-0.021376636
214	0xbe08086a	-0.1328446
215	0x3e49704f	0.19671749
216	0x3e23b24a	0.1598598
217	0x3de11c25	0.10991696
218	0x3dd67d43	0.104731105
219	0x3ddcb8a9	0.10777409
220	0x3e52295d	0.20523591
221	0xbd550562	-0.052007087
222	0xbe50ea70	-0.20401931
223	0x3d67588b	0.056480926
224	0xbe34a4ff	-0.17641066
225	0x3e84d2fb	0.25942215
226	0x3e0f0f14	0.13970596
227	0xbe589f94	-0.21154624
228	0x3e3c3b4b	0.18381993
229	0x3e297153	0.16547136
230	0x3dff6b88	0.12471682
231	0x3e6dc4d2	0.23219612
232	0x3db0cf9b	0.086333476
233	0xbe4c4baa	-0.19950739
234	0xbe0c50b2	-0.13702658
235	0xbda2dad0	-0.079518914
236	0x3c2a4e14	0.010394592
237	0xbe42411f	-0.18970154
238	0xbdb4dc73	-0.0883111
239	0xbe069790	-0.13143754
240	0xbd980d2b	-0.074243866
241	0x3c4fc8b2	0.012682127
242	0xbcad9c96	-0.02119283
243	0x3cdddb4d	0.02708211
244	0x3dd31a09	0.103077
245	0x3e3c3bfb	0.18382256
246	0x3e4a86a6	0.19777927
247	0x3da9591a	0.08268948
248	0x3e968124	0.293954
249	0xbd923cb7	-0.07140487
250	0xbb7f5550	-0.0038960762
251	0x3e0551fe	0.13019559
252	0x3e615c96	0.22007975
253	0x3e3154c5	0.17317493
254	0x3e55beed	0.20873614
255	0xbe214577	-0.15749155

advantage_stream.weight f4 [2, 256]
0	0xbd2475b6	-0.04015132
1	0x3c2e20c2	0.010627927
2	0x3ce4d954	0.027935661
3	0xbe89b051	-0.2689233
4	0xbe470d5a	-0.19438687
5	0x3d6f2ebd	0.058394182
6	0x3d7cfbc6	0.061763547
7	0x3dcecc13	0.10097518
8	0x3d5f0991	0.054452483
9	0xbd4a8054	-0.04943879
10	0xbe070a55	-0.13187535
11	0x3d9f7400	0.07785797
12	0xbe95923b	-0.29213127
13	0xbdd2f9b2	-0.10301532
14	0xbc50d3dd	-0.012745825
15	0xbe6d2c2a	-0.23161379
16	0xbd8f3e5d	-0.06994317
17	0x3eaf218f	0.3420529
18	0xbe844a5a	-0.25837976
19	0xbc42a984	-0.011881236
20	0x3d061894	0.032738283
21	0xbd2a1f03	-0.04153348
22	0xbe80ab98	-0.25130916
23	0xbd9a0750	-0.07520926
24	0xbbf0cb32	-0.0073484415
25	0xbd9f0a31	-0.07765616
26	0x3d722cc2	0.059124716
27	0x3c151f7b	0.009101744
28	0x3d010b5b	0.03150497
29	0xbc5d7c44	-0.013518397
30	0xbdf049b9	-0.117328115
31	0x3d0825ec	0.03323929
32	0x3d6f648a	0.05844549
33	0x3cad110d	0.021126295
34	0xbe83c510	-0.25736284
35	0xbe1deec2	-0.1542311
36	0xbc32e793	-0.010919469
37	0x3e568142	0.20947745
38	0x3cc8accf	0.024496464
39	0xbe76ac1a	-0.24089089
40	0x3de90e28	0.11379653
41	0xbc181b55	-0.00928386
42	0x3ca32dda	0.019919325
43	0xbdceca4c	-0.10097179
44	0x3d8516b3	0.0649847
45	0x3bcf9cd4	0.006335834
46	0xbe415a3d	-0.1888208
47	0xbd934733	-0.071913145
48	0xbd8128c2	-0.06306602
49	0xbe14597f	-0.14487265
50	0xbca7cf58	-0.020484611
51	0x3dd34324	0.103155404
52	0x3c50a304	0.012734178
53	0xbcd8607c	-0.026413195
54	0xbe202190	-0.15637803
55	0xbdbc33dc	-0.09189579
56	0xbd163713	-0.036673617
57	0xbdd3c24a	-0.10339792
58	0x3c981ad3	0.018567478
59	0x3e385371	0.1800058
60	0x3d0d2d30	0.034466922
61	0xbe88868b	-0.26665148
62	0xbdab55ed	-0.083659984
63	0xbbec846a	-0.0072179334
64	0x3c85f4bf	0.016352056
65	0x3d015f15	0.031584818
66	0x3dab21df	0.0835607
67	0xbe782912	-0.24234417
68	0xbb9b5f09	-0.0047415537
69	0xbdbd5836	-0.092453405
70	0x3ce8b832	0.028408144
71	0x3c6981aa	0.014252106
72	0xbafb3514	-0.0019165599
73	0x3cfe7e3d	0.031066054
74	0xbdc289f4	-0.09498969
75	0xbd40905d	-0.047012676
76	0x3af7535c	0.0018869448
77	0xbd0f6e88	-0.03501752
78	0xbe164c4c	-0.14677542
79	0x3ccb037c	0.024781935
80	0xbcf3df6b	-0.02976962
81	0xbd1e8981	-0.038705353
82	0xbdc2a1ba	-0.09503503
83	0xbe392fcb	-0.18084638
84	0xbe9a1293	-0.30092296
85	0x3ddc2586	0.107493445
86	0x3da08ff8	0.0783996
87	0xbde30525	-0.110849656
88	0xbbb1db8c	-0.0054277834
89	0xbc70b630	-0.014691874
90	0xbd89e9d9	-0.06734056
91	0xbd25c5ce	-0.040471844
92	0xbe3c6bc8	-0.1840049
93	0xbe7ca4fb	-0.2467231
94	0xbe444722	-0.1916776
95	0x3cde0e2f	0.027106373
96	0x3d9e824e	0.077396974
97	0x3e4651f0	0.19367194
98	0x3e3870cb	0.18011777
99	0xbcd98a20	-0.026555121
100	0x3e07672c	0.1322295
101	0x3c46dcd7	0.012137613
102	0xbcc3a5fd	-0.02388286
103	0x3b0fd70a	0.0021948242
104	0x3ab7be2f	0.0014018471
105	0x3d5780a4	0.052612916
106	0xbb6508cc	-0.003494787
107	0xbda58aa6	-0.08083086
108	0xbc5b2e53	-0.013377744
109	0xbd8d44a5	-0.068978585
110	0x3eb0f18f	0.34559295
111	0xbd958a99	-0.07301826
112	0x3d94ba7f	0.07262134
113	0xbd4e3480	-0.050343037
114	0xbe75fff2	-0.24023417
115	0xbe5fb86a	-0.21847692
116	0xbddd5e71	-0.10809029
117	0xbc8c664c	-0.017138623
118	0xbdce595c	-0.10075638
119	0xbce06215	-0.02739052
120	0xbe87b7ad	-0.2650732
121	0xbda6e8f0	-0.08149898
122	0x3d03e1a5	0.032197613
123	0x3e311977	0.1729487
124	0xbe8391e4	-0.25697243
125	0x3cb8810b	0.02252247
126	0xbdc716ce	-0.097211465
127	0xbea69359	-0.32534292
128	0x3d65cfce	0.05610638
129	0xbd2a0559	-0.041509006
130	0xbea65351	-0.3248544
131	0xbd2b9e6e	-0.041899137
132	0xbdd8ed73	-0.10592165
133	0xbdd8659a	-0.10566254
134	0x3d2c9088	0.042130023
135	0x3c3c72ee	0.011502011
136	0x3d16d8e9	0.036827955
137	0x3e981ce5	0.29709545
138	0x3dccf14e	0.10006963
139	0x3d8dde1b	0.06927129
140	0xbe775ba2	-0.24156049
141	0xbbb1227f	-0.0054057236
142	0xbe23fd1c	-0.16014522
143	0x3cb94cf3	0.0226197
144	0xbe47e2c5	-0.195201
145	0x3c8ddf5c	0.01731842
146	0xbdd5dd42	-0.10442592
147	0xbcf523a3	-0.02992422
148	0xbd30687d	-0.043068398
149	0xbe94918a	-0.29017287
150	0x3e0a4652	0.13503388
151	0xbcbbd522	-0.022928778
152	0x3df10495	0.11768452
153	0xbc8f6888	-0.0175059
154	0xbdaa5932	-0.08317794
155	0xbe864c33	-0.2623001
156	0xbe467dca	-0.19383922
157	0x3ce97fc2	0.028503302
158	0x3e111d69	0.14171375
159	0xbdbb468c	-0.09144315
160	0xbd23cb98	-0.039989084
161	0x3d0dc1e5	0.03460874
162	0xbdbce311	-0.09222997
163	0x3c8cbe26	0.017180514
164	0x3adbc851	0.0016768073
165	0x3cb79223	0.02240855
166	0xbe08993d	-0.13339706
167	0xbd1296e9	-0.03578845
168	0xbc379bfd	-0.011206624
169	0x3eba0b57	0.36336777
170	0x3b8e75c8	0.0043475367
171	0xbdadceba	-0.084866956
172	0x3d4d3208	0.05009654
173	0x3ce30c87	0.027715934
174	0x3d727ce9	0.059201155
175	0x3cbdac4e	0.02315345
176	0xbe892a34	-0.2679001
177	0xbd36322a	-0.044481434
178	0xbe520f68	-0.2051369
179	0x3d303ec7	0.04302862
180	0x3c3bb6c1	0.011457146
181	0xbe48b99d	-0.19602056
182	0x3e040e08	0.12895977
183	0xbb3dfb82	-0.0028989022
184	0x3eb0b688	0.3451426
185	0x3b5d1a47	0.0033737586
186	0xbdbd5fe1	-0.09246803
187	0xbbacf7b2	-0.005278551
188	0x3daa92ed	0.08328805
189	0xbd1c7d66	-0.038205527
190	0xbd1ec587	-0.038762596
191	0x3d0012a5	0.03126778
192	0xbc92f924	-0.017941065
193	0xbc0fc902	-0.008775951
194	0x3da64ccd	0.08120117
195	0x37d21034	2.5041496e-05
196	0xbe05fe26	-0.13085231
197	0x3d83a1e9	0.06427366
198	0x3a5be874	0.0008388825
199	0x3ca3fccc	0.020018004
200	0xbcbd7cce	-0.0231308
201	0xbcce33a0	-0.025171101
202	0x3e4f2018	0.20227087
203	0xbcde00ae	-0.027099933
204	0xbd1a2cca	-0.03764037
205	0x3a79b04e	0.00095248676
206	0xbe2e5bfe	-0.1702728
207	0xbb104f01	-0.0022019746
208	0xbd543130	-0.05180472
209	0xbcf5929a	-0.029977132
210	0xbd86bcf2	-0.06579007
211	0x3ca47792	0.020076547
212	0x3c802b9e	0.015645798
213	0xbce6a58b	-0.028155109
214	0xbe3b0c15	-0.18266328
215	0x3c23a9f5	0.009989251
216	0xbd47a11b	-0.048737627
217	0xbdae2e9f	-0.08504986
218	0xbd9e19ec	-0.07719788
219	0xbea7626b	-0.32692274
220	0xbc02c622	-0.007981809
221	0xbe095136	-0.13409886
222	0xbe6b194a	-0.22958866
223	0xbdd41e47	-0.103573374
224	0x3e20374c	0.15646094
225	0x3e761139	0.24030007
226	0xbda8bbba	-0.08238931
227	0xbe32d8e6	-0.17465553
228	0xbd363bcb	-0.044490617
229	0x3df14d85	0.11782364
230	0xbbabe585	-0.0052458667
231	0x3d5ca2b8	0.05386612
232	0xbd9d5573	-0.07682314
233	0xbd6415c3	-0.055684816
234	0xbe8fc16c	-0.28077257
235	0xbd34726a	-0.044054426
236	0x3c646d4d	0.013942075
237	0xbe6b5b92	-0.2298415
238	0xbca37360	-0.019952476
239	0xbe5dce39	-0.21660699
240	0xbe1e7199	-0.15473022
241	0xbc7abf18	-0.015304349
242	0xbce3ef4e	-0.02782407
243	0x3e730a79	0.23734464
244	0xbd4a5678	-0.04939887
245	0xbcc93e68	-0.02456589
246	0xbd2868c5	-0.04111554
247	0xbde72fa6	-0.11288385
248	0x3d8c6a5c	0.06856224
249	0xbdb4e4ff	-0.0883274
250	0x3cf4524b	0.029824397
251	0xbbb1629e	-0.0054133674
252	0x3db7d904	0.08976939
253	0xbd3570ce	-0.044297032
254	0x3c565aa0	0.01308313
255	0xbe34a052	-0.17639282

advantage_stream.bias f4 [2]
0	0xbd24fea6	-0.040281914
1	0xbc0e7480	-0.008694768
