weights/testing_dqn_cartpolev1.pt (torch, 272783 bytes, 6 tensors)

fc1.weight f4 [256, 4]
00000000: ba96 933e 8cad 683d b812 833e 09ad 8bbc
00000010: 045c 153f b195 a43d 0d1e 1ebf ab71 03bd
00000020: 0df7 243f 55aa 51be ea8d b6be a8bb 93be
00000030: 90d9 2c3f 426a 323e 227b 04be c46e f1bd
00000040: 1880 373f e8ea 1a3e a7b0 f3be b232 2ebd
00000050: e8a7 ef3d 85b7 9f3e 0e8c 62be a739 68bd
00000060: a0e1 013f de19 71bc c3d7 06bf 8189 66bd
00000070: a062 a03c 4575 293e e4ad ac3d cece c5bd
00000080: 5c38 013e ecb2 8bbd cabd 9dbe fea6 3fbe
00000090: f19b cf3e cdcc 12be e4cc 24be 792c d7bd
000000a0: 9fe3 353e 506c 183e fc68 a43d 75dc 75bd
000000b0: fe45 023f cd05 993e 0a01 dfbd 7ff2 20bd
000000c0: 977f ce3d 12bf 91be 541a 06bf bd0d fabd
000000d0: d3ba 0e3f c266 b33b 23ae c3be 5164 88bc
000000e0: ccab b03d ec39 e23c 92d5 16bf 5957 29be
000000f0: a05a c73e 1fc4 46be 8dc6 99bd 1b6c 66be
00000100: 9fd0 023e 4508 9f3e c61d 3ebf 5bfd 053e
00000110: b5d2 803e ff37 12be 075c 90bd 920d 3dbe
00000120: 1b03 743d c81f e53c 7e81 8dbd eee5 be3c
00000130: 6a4e 4e3f 1505 dc3c 9b41 8d3e f0c0 f43c
00000140: 7862 e53d 0ee5 b13e 3c08 b9be ea18 0cbd
00000150: 253e c2bd 5619 ccbd 78ca babd 8283 8fbd
00000160: 9575 4d3f 62f7 f73c b079 35bc 3056 6b3e
00000170: e820 2e3f 0c01 0c3e 3965 cbbe b7cd e3bc
00000180: 3347 833e 272e 53bd 2c15 7b3d 9629 fdbd
00000190: 2dfa 7a3d 2f32 0abe dd8f 7ebe 4f69 13bf
000001a0: b2c4 193f 506b 953d 5c73 23bd aac6 bc3d
000001b0: a82a c53e b3dd 7abe 2244 9cbe 5752 ef3d
000001c0: 0a1a 823c 488a 10be 4a74 29bd a7d6 8dbd
000001d0: da6c a63d 5d10 083e adde 2dbe b5d4 973e
000001e0: e6e4 2c3f 294e 1ebe d764 1fbc 6408 98be
000001f0: 9555 2a3e e7c5 783d 5884 53be c3b6 633e
00000200: 01e9 533e 70a0 d5bd 1e0f 9fbd 94ce e4bd
00000210: ada2 e73e c962 36be 4fac 8d3c d766 64be
00000220: 4799 cf3e d5d9 93bd 5d00 553c b7bd 65be
00000230: ec9f a33e 5435 78be c059 d6be 854d 38be
00000240: 0710 ca3e 1f68 133e 3284 f1be bc3b e7bd
00000250: 5b1d 81be d68a a8be 8ae6 c33d a7b1 8bbd
00000260: 374c e03e 3ba5 6f3e 7d05 e7bd 38b9 823e
00000270: 405f 783e e98b a1bd 0cc3 8cbe 060e bebe
00000280: a8c5 d43e 9e18 453e 1ab4 3ebe a255 0cbe
00000290: 480f 38be 0518 86be 5c24 f73d 5edd 33be
000002a0: 92fd 483e 002f 80be 9034 9c3e e391 4bbe
000002b0: 64f1 aebe 4926 ea3d 1caf ef3d 46f7 f1bc
000002c0: bcd9 aabe c2bc 9bbd 9b42 ab3e ba40 12be
000002d0: 1b6b 223f 304e b63e 4cee b2bc 0dad 113d
000002e0: 1cc5 c5bd ecbb c8bd 1eb1 25be 30e6 23be
000002f0: 4257 95be 79b9 c1be 1c1b bd3d 0aac 163d
00000300: 535a 4d3e 5358 8fbd 8515 2d3f 9a00 d73d
00000310: d1e7 98be 4d7d 1dbe 7a3c b33e 6a5d 39bd
00000320: 84bd 103f fa05 273e 16f8 31be da8c 3f3d
00000330: 3277 68bd 6bff c6bd ffed cabe 7394 92be
00000340: 7962 2f3e bae4 40be 9ca3 213d e38c 6fbe
00000350: e019 713e d9c5 58be 3451 6c3c fdb4 38be
00000360: 8f14 133c 7c84 563d 8902 83be 0f44 e8bd
00000370: 94ca bf3e 97b9 933e ec90 b13d 50d1 083e
00000380: 40f9 593d d2fe aabe 165f 3a3e 6a8d bebd
00000390: cdc1 7b3e d02f 353e 784b 72be ca75 2fbd
000003a0: a221 173f d081 0abe 7f55 dabe 872d 1abe
000003b0: 4322 e93e c89b e7bd 1cb5 0ebf d91b bf3d
000003c0: 4023 0a3e 21f5 c9bd 1b11 9abe 066f 16bc
000003d0: 2158 babc 464d 543d ccb4 83be f4a3 37be
000003e0: b5cb 41be 974b d3bd 67a1 22be f2c4 183e
000003f0: 5c75 a13e febc e93d d08b c03e 7a42 093e
0.28825933 0.056806132 0.2560022 -0.017050283 0.5834353 0.08036364 -0.61764604 -0.032090824
0.6443947 -0.20475133 -0.35655147 -0.28854108 0.67519474 0.17423347 -0.12937596 -0.11788705
0.7167983 0.15128672 -0.47595713 -0.042528816 0.117019475 0.31194702 -0.22123739 -0.056695607
0.507349 -0.01471564 -0.52672976 -0.056283478 0.019578278 0.16548641 0.084316045 -0.096585855
0.12619156 -0.06821236 -0.3080886 -0.18716046 0.4054866 -0.14335938 -0.16093785 -0.10506529
0.17762612 0.14885068 0.08027837 -0.060024697 0.5088805 0.29887238 -0.1088887 -0.039293762
0.100829296 -0.28466088 -0.52383924 -0.122096516 0.5575382 0.005474896 -0.38218793 -0.016649397
0.08626518 0.02761551 -0.5891963 -0.16537227 0.3893633 -0.19410752 -0.07508574 -0.22502176
0.12774895 0.31060997 -0.7426418 0.13084929 0.25160757 -0.14279173 -0.07048803 -0.18462208
0.059573274 0.027969256 -0.06909464 0.023302998 0.805884 0.026857892 0.27589116 0.029877156
0.11200422 0.34745067 -0.36139095 -0.034203447 -0.094845094 -0.0996577 -0.09120649 -0.07007505
0.8025754 0.030269329 -0.011076376 0.22982097 0.6801896 0.13672274 -0.39725664 -0.027808053
0.25640258 -0.051557686 0.061299488 -0.123614475 0.061273742 -0.13495706 -0.24859567 -0.57582563
0.6006576 0.07295859 -0.039904937 0.0921758 0.38509107 -0.24498634 -0.3052073 0.11685627
0.015881557 -0.1411525 -0.041370668 -0.06925707 0.081262305 0.13287492 -0.16979475 0.2965447
0.6753677 -0.15459503 -0.009728632 -0.29693902 0.1663421 0.06073561 -0.20655954 0.22237687
0.20694353 -0.10430992 -0.07766555 -0.11172214 0.452413 -0.17811121 0.017294077 -0.22304855
0.4054663 -0.072192825 0.013000575 -0.22435652 0.31957948 -0.24239093 -0.4186535 -0.17998321
0.39465353 0.14395188 -0.4717117 -0.1129069 -0.2521771 -0.32918423 0.09565456 -0.06820994
0.43808147 0.23402874 -0.11280344 0.25531936 0.24255085 -0.07888014 -0.2749256 -0.37120074
0.4155705 0.19247672 -0.18623391 -0.13704541 -0.1797458 -0.261902 0.12067482 -0.17564914
0.1962798 -0.25035858 0.30508852 -0.1987987 -0.3416854 0.114330836 0.11703321 -0.029536854
-0.33369243 -0.07604362 0.33449253 -0.14282504 0.6344468 0.35606527 -0.021842144 0.035565425
-0.09656736 -0.09801468 -0.16180846 -0.16005778 -0.29168135 -0.37836817 0.09233686 0.036785163
0.20053987 -0.069992684 0.6761096 0.104981616 -0.29864362 -0.1537983 0.35007077 -0.045255102
0.5653918 0.16310874 -0.17379794 0.046765186 -0.0567543 -0.09716686 -0.39634702 -0.28628883
0.17127408 -0.18837252 0.03946267 -0.23393588 0.23545027 -0.21169223 0.014423657 -0.18037792
0.0089770695 0.05237244 -0.25587872 -0.11341106 0.37459242 0.2885253 0.0867022 0.13361096
0.05321622 -0.33397537 0.18200335 -0.09304316 0.24585648 0.1769402 -0.23661602 -0.04283694
0.59035695 -0.13526082 -0.42643353 -0.1505643 0.45533952 -0.1130901 -0.557451 0.093314834
0.1349001 -0.09861208 -0.30091175 -0.0091817435 -0.022747101 0.051831506 -0.25723875 -0.17933637
-0.18925364 -0.10317152 -0.15881883 0.14918879 0.3153485 0.114130005 0.37606668 0.13404265

fc1.bias f4 [256]
00000000: 72ad 10bf edd5 dbbe f6cf 14bf c307 64bf
00000010: 35bd 36bf fe6c 91bf 9b65 06bf 9fcf 81bf
00000020: cb9e 37bf b59f 49bf ae27 33bf 64ed 89bf
00000030: f900 04bf 52f0 4fbf 85f0 51bf b7bb 84bf
00000040: 3e63 3dbf ce93 fabe eab1 55be 14de 1ebf
00000050: fe88 4cbf 4351 e4be c4a0 2abf e3e3 06bf
00000060: 5d76 48bf 761f 48be b9cd 2abf c679 33bf
00000070: 782c 55bf f580 3fbf 094d 8fbf 4f71 40bf
00000080: 1d25 7abf c984 2dbf 4199 8ebf bcb4 29bf
00000090: bc45 61bf d003 1abf e3d9 21bf 4093 92bf
000000a0: 173d 48bf a45a 56be 0ceb 2bbe b861 8bbe
000000b0: 6170 a3be 0a22 6fbf 2e07 92be 2516 5dbf
000000c0: 55e9 83bf 34f7 f1be 2d80 53bf e8ec 04bf
000000d0: c9ae b4be 1889 0abf e1f9 febe c09e 49bf
000000e0: dd4d 3ebf 9af5 19bf 6c99 51bf d62d 1ebf
000000f0: 8c7b 19bf 6967 3ebf 7570 7cbf 7208 9abf
00000100: 06f4 47bf d6a7 41bf 0a18 1cbf f68a 35bf
00000110: 2c47 19bf 7414 30bf cba6 8bbf ba95 56bf
00000120: 9d09 6cbf 135d 3fbf 35b1 31bf 6798 3abf
00000130: e4f8 3cbf 53da debe 38e1 c7be 80a2 50bf
00000140: 826d 2cbf a441 4bbf aea4 45bf 3e88 8bbf
00000150: cf76 47bf ef43 28bf a835 fbbe 33f4 48bf
00000160: de14 6bbf be99 51bf 03fd 07bf bfd1 34bf
00000170: b375 97bf 3971 21bf 31ec 46bf d7da a6bf
00000180: 4e91 30bf 5dc7 88be f6a4 1cbf 2c7e e8be
00000190: 66ea 16bf 53d3 20bf 3f70 13bf 56be 52bf
000001a0: fda6 57bf 2e17 50bf 830c 6dbf 2655 54bf
000001b0: 4ae5 6bbf 7d48 aabe d977 68bf 24cc 1fbf
000001c0: 5078 22bf 3988 84bf 31b3 30bf 1219 b0bf
000001d0: e6a5 3abf 1f55 3fbf 4921 97be c59b 4dbf
000001e0: 4283 e3be 8876 d8be bb7c 5dbf af5a 6ebf
000001f0: a044 2bbf 1718 82bf 004c 24bf a9fe 39bf
00000200: f042 1ebf 3413 22bf d311 34bf 2a34 8ebf
00000210: 4c9a 5fbf 5f03 44bf 1db4 3cbf fdea a8bf
00000220: b470 3fbf 559f 28bf a7c8 30bf 7bd9 acbe
00000230: 57d8 85bf 5fd7 65bf 9796 7cbf 448c 35bf
00000240: ff1d 31bf b671 51bf 3c6f 1cbf b2a8 84bf
00000250: 68fa 4bbf a1cc 18bf 3a0b 58bf fedf 2abf
00000260: e475 3cbf 0018 ffbe 21cf 65bf e230 25bf
00000270: da46 f3be ad57 20bf 220b aebe f720 16bf
00000280: 734b 29bf 7e6c 08bf 9ff0 28bf d51f 1fbf
00000290: 9076 3abf c4aa 90bf 1466 73bf d928 4abf
000002a0: 6838 1abf 1f4e 6dbf c75d 58bf ff31 4fbe
000002b0: cff1 62bf 4fb0 2cbf b12b 46bf 9570 2fbf
000002c0: 5962 7abf d129 57bf df55 8ebf 2db5 05bf
000002d0: 6f9b 1fbf ce28 8cbe 2d8d 40bf d94b 2ebf
000002e0: bc1c 16bf ce70 39bf 79f6 34bf d7a5 e4be
000002f0: 2ae7 4cbf 3e9e 3dbf 0e65 43bf e5b0 4cbf
00000300: b211 34bf 3884 afbe a1cb c2be e9bc 4fbf
00000310: 880f 28bf 6d4c a3be d730 ddbe 1978 20be
00000320: 0922 8bbe e63e cbbe c56b 96bf 4827 56bf
00000330: 36b7 25bf 6cbc 30bf 1e6a 27bf 06ff 08bf
00000340: 6075 3abf ca7f 59bf 5d09 60bf b651 1abf
00000350: c1b1 69bf b80c 2cbf 8cc4 5dbf 15f7 f7be
00000360: 57d4 84be f242 2cbf 01de 32bf 11d1 33bf
00000370: 760a e1be f0ad 22bf 928e 84bf fb56 07bf
00000380: 9992 1dbf 974e 43bf 85ab 3ebf dca7 18bf
00000390: 8bbf 48bf 0fdc 27bf ed6c 46bf 8486 32bf
000003a0: 86fe 96be 6894 23bf 1b4e 50bf a932 22bf
000003b0: d48e 1dbf 2fe2 6fbf 9473 1dbf 6870 42bf
000003c0: 2323 83be 02b7 0fbf 098c 38bf 3e8e 35bf
000003d0: 316a 00bf 9714 1bbf d757 6cbf 79f3 23bf
000003e0: 106b eabd 1291 02be 569f fcbe d478 9bbe
000003f0: 773b 48bf bdd9 55bf 9ac6 3dbf 2120 a8be
-0.56514657 -0.4293665 -0.58129823 -0.89074343 -0.71382457 -1.1361387 -0.5249879 -1.0141486
-0.71726674 -0.7875932 -0.6998242 -1.0775571 -0.51563984 -0.81226075 -0.8200763 -1.0369786
-0.73979557 -0.4894089 -0.2086865 -0.62057614 -0.79896533 -0.44593248 -0.6665156 -0.5269148
-0.7830561 -0.19543251 -0.6672016 -0.70107687 -0.8327098 -0.7480615 -1.1195384 -0.75172895
-0.9771288 -0.6778074 -1.1140519 -0.66291404 -0.8799703 -0.6016207 -0.63223094 -1.1451187
-0.78218216 -0.20933014 -0.16788882 -0.2722299 -0.31921676 -0.93411314 -0.28521103 -0.86361915
-1.0305582 -0.47258914 -0.82617456 -0.5192399 -0.352896 -0.5411544 -0.49800017 -0.7875786
-0.7433756 -0.60140383 -0.8187473 -0.6178869 -0.5995414 -0.7437654 -0.98609096 -1.2033827
-0.78106725 -0.7564672 -0.6097418 -0.7091516 -0.59874225 -0.6878121 -1.0910276 -0.83822215
-0.9220217 -0.74751395 -0.6941102 -0.728888 -0.73817277 -0.43525943 -0.39039016 -0.81497955
-0.67354596 -0.79397035 -0.77204406 -1.0900953 -0.7791566 -0.6572866 -0.49064374 -0.7849762
-0.91828716 -0.81875217 -0.5312044 -0.7063255 -1.1832794 -0.6306339 -0.7770415 -1.3035535
-0.6897172 -0.26714602 -0.6118921 -0.45408762 -0.58951414 -0.62822455 -0.5759315 -0.8232168
-0.8423918 -0.8128537 -0.92597216 -0.82942426 -0.9214674 -0.3325843 -0.90807873 -0.6242087
-0.6346483 -1.0354072 -0.69023424 -1.3757651 -0.7290939 -0.7473926 -0.29517582 -0.8031581
-0.4443608 -0.42277932 -0.8651845 -0.9310712 -0.6690159 -1.0163602 -0.64178467 -0.72654206
-0.6182089 -0.6331055 -0.703397 -1.1109669 -0.87344813 -0.76567644 -0.7371233 -1.3196713
-0.74781346 -0.6586812 -0.6905617 -0.33759674 -1.0456647 -0.89781755 -0.9866728 -0.70917153
-0.69186395 -0.81814134 -0.6110723 -1.0363982 -0.79678965 -0.5968724 -0.8439213 -0.66748035
-0.73617387 -0.49822998 -0.8976918 -0.64527714 -0.47514993 -0.6263378 -0.3399287 -0.5864405
-0.6613075 -0.53290546 -0.6599216 -0.62157947 -0.7283716 -1.1302114 -0.95077634 -0.7896858
-0.6024232 -0.9269733 -0.8451809 -0.20233916 -0.8865022 -0.67456526 -0.7741042 -0.6853116
-0.97806317 -0.8404818 -1.1119956 -0.5222958 -0.6234655 -0.27374882 -0.7521542 -0.68084484
-0.58637595 -0.7243775 -0.7068859 -0.44657776 -0.8004023 -0.74069583 -0.7632607 -0.7995742
-0.703395 -0.34280562 -0.38045982 -0.8114763 -0.656487 -0.31894246 -0.43201324 -0.15670814
-0.27174404 -0.39696425 -1.1751639 -0.8365369 -0.6473268 -0.6903751 -0.65396297 -0.53514135
-0.7283535 -0.84960616 -0.8751429 -0.6028093 -0.91286856 -0.6720691 -0.8662803 -0.48430696
-0.25943252 -0.6728965 -0.6987 -0.70240885 -0.43953294 -0.6354666 -1.0356009 -0.52867097
-0.61551815 -0.76291794 -0.7448047 -0.59631133 -0.7841727 -0.6557016 -0.7750996 -0.69736505
-0.2949106 -0.63898325 -0.8136918 -0.6335855 -0.61546063 -0.93704504 -0.61504483 -0.7595277
-0.25612745 -0.5613862 -0.72088677 -0.7092017 -0.50162035 -0.6057829 -0.9232153 -0.64043385
-0.11446202 -0.12750652 -0.49340314 -0.30365622 -0.78215736 -0.8353537 -0.74131167 -0.32837012

fc2.weight f4 [256, 256]
00000000: 44a8 9d3b 9799 a1be 1d70 033c 1951 6ebc
00000010: acdc 9bbe 8e01 633c f923 e7be 7f2a 89be
00000020: 5e16 95be c641 2f3d b1c9 e93c f5cd 9cbb
00000030: 8540 bdbb f626 9cbe 7829 07be 2aee 253d
00000040: 27d4 67be 1860 cd3c 9e21 84be d72d fb3c
00000050: c14e 10bd 75bf 9ebc c9be 373d d6d5 b1be
00000060: d056 8abe c48b 8d3c a367 95bc 9673 2b3d
00000070: 0b67 b3be f026 0a3d 1d87 313d 2a0f 973c
00000080: cf91 443d f1eb 47bd 4567 6b3b fd51 70bc
00000090: c4f6 02bd bb00 423d 88a4 f9ba 2393 29bd
000000a0: 511e 1a3c 02a2 a5bc c14e 343d adf3 3cbd
000000b0: edf9 2bbd 1b6e dbbc f4d6 62bb 3f1f 6b3c
000000c0: cb99 a5bc 7630 903c 856e 8bbe e39f afbe
000000d0: 1614 2d3d ef53 febc 770b c9bc e719 f4bc
000000e0: 9610 5f3c 77b6 c93c 2ca8 dd3c adb0 59bc
000000f0: be53 22bd 946a 933c 4aa2 373d 6cd3 8dbc
00000100: e7b8 c8be 37af aebe fe91 6dbc 7748 95be
00000110: e18d 93be 6fe5 91be 4194 1dbc 8e59 2cbd
00000120: 0870 aebe 7e37 e6bc 1348 c1bb 3907 b1be
00000130: 882c f0bc 609d 9ebe d498 f53a 962c bfbe
00000140: 6a3c a8be 6097 77be 9d57 4f3c 477e 7fbc
00000150: 7408 9fbc 8718 143d 1b69 2d3d e827 913c
00000160: 91d6 99be 4753 be3b 222e a5bc a5a6 ef3c
00000170: f8f3 253d 3d5a 9cbe de8b 6c3b bf47 07bd
00000180: ff83 df3c e8b8 56bc a527 59bd 250a 0fbc
00000190: f4ca adbe 6d1a ddbc b8ef cfbe b3d8 05ba
000001a0: f599 133d da33 69be ffdf 9dbe 9561 81be
000001b0: c964 16bc f3b9 b43c e323 63bc c621 c93c
000001c0: d14c 76be f0d2 acbc 6c70 a9be 707e ecbc
000001d0: 7858 7d3c 98b7 b2be 953e 433d f741 acbc
000001e0: 9725 0cbd 167c 853a 07c0 96bc 8deb 07bd
000001f0: 5d59 9bbe dc9c 3abd c754 70be a0aa a6be
00000200: 0a50 7abe 3e2f 9abe 67b4 833a 9a93 0cbd
00000210: 88f7 99be 7cd9 1abd 7973 073c 9f33 e93c
00000220: 4780 d5bc 899a e63b 3c86 94be fe06 93bc
00000230: 5bdd 3b3d 7eeb 403b fbd7 04bd 8e8f 01bd
00000240: 9602 febc 1430 b4be 7ebc 163d 6358 6f3a
00000250: 0691 a9be c093 8c3b d2fc c93b 81f8 8d3c
00000260: 099e b8bc 7e23 053d 27e4 983b b72e 73be
00000270: 4c05 a4be 777a 96be 59f6 063c 219f 3fbd
00000280: 644b 073c 0bdc eabc 57f3 4bbc cf9b 36bc
00000290: 6d72 9cbe 2ada 35bc 809e 07bd 3f90 80be
000002a0: 3ccb bdbe 5483 86be 3893 89bc 38ff b03b
000002b0: 4ca9 9dbc 4b96 553d 161c d2bc d73b bfbc
000002c0: 5861 45bc d292 92be 44d6 8cbc 1654 8bbe
000002d0: da02 8abe 484b 923b d6d0 acbb 4388 f3bc
000002e0: ac7f b03c 8ba5 a3be a637 8abe 29e8 85be
000002f0: 0640 943c 1529 9abe 2eb3 503d 223e afbe
00000300: 4d99 99be 44b1 d73b 0f4c 6fbc 15d1 b8bc
00000310: 26e7 b7be 25a3 033c cd54 20bc a50a 0dbd
00000320: 73c5 7a38 a673 dabc 3728 8abc 73b1 0c3d
00000330: 2b00 19bd f17b d63c 691c 0cbd ec7b ff3c
00000340: c8b4 3dbc e678 3d3d 2452 afbc bbda f5ba
00000350: fea4 32bd 2e27 a2be 40b0 02bd dd07 5d3c
00000360: 895e 313d 9aad a6be c38c 9d3c dc4d adbb
00000370: 9a52 53be dbe1 04bc ce91 a63b 81cb 8cbe
00000380: e332 06bb 0910 9ebe 3d2f d63c 1a09 19bd
00000390: cbed 8fbe d49a 95be f9d9 3e3c 4a7f ddbc
000003a0: ba14 2f3d a537 e839 8d2d cc3c 4e76 85be
000003b0: eb3a 2e3d f6cb 11bd b0c4 92be 8f0f 73be
000003c0: 021d 073d 70ce 153d 60e5 a6be 9f79 2c3b
000003d0: 6c5f ae3c e102 25bc 13d1 a13c edb7 45bd
000003e0: 733f 3ebd e86c 22bd a5c1 cabe 1bd1 8fbc
000003f0: 7f92 edba dfe3 88be 49fc 18bc 45af 503d
0.0048113186 -0.31562492 0.008022335 -0.014545702 -0.30441797 0.013855351 -0.45144632 -0.26790234
-0.29118627 0.042787336 0.028538557 -0.004785294 -0.0057755136 -0.30498475 -0.13199413 0.040510334
-0.22639523 0.025070235 -0.25806898 0.030661507 -0.035231356 -0.019378403 0.04485968 -0.34733456
-0.27019358 0.01727856 -0.018237894 0.04185828 -0.35039553 0.03372854 0.043341745 0.018439848
0.047990616 -0.048808996 0.0035919708 -0.014667985 -0.031973615 0.047363978 -0.0019046227 -0.041400086
0.009406642 -0.020218853 0.044020418 -0.046130825 -0.041986395 -0.0267859 -0.0034612985 0.014350711
-0.020214936 0.017601233 -0.27232757 -0.3430167 0.042255484 -0.031045882 -0.0245416 -0.029797507
0.013614794 0.024623139 0.02705773 -0.013286752 -0.039630644 0.017995156 0.044832505 -0.017312728
-0.3920357 -0.34118053 -0.014500139 -0.2915685 -0.28819183 -0.28495356 -0.009617866 -0.042077594
-0.34069848 -0.028102633 -0.0058984845 -0.34575823 -0.02931811 -0.30979443 0.0018737563 -0.37338704
-0.32858592 -0.24178839 0.012655166 -0.015594072 -0.01941321 0.036156204 0.042336565 0.017719224
-0.30046514 0.0058082673 -0.0201636 0.029254267 0.04051587 -0.30537596 0.003609411 -0.033027407
0.02728462 -0.0131056085 -0.053016324 -0.008730446 -0.33943903 -0.02699014 -0.40612578 -0.0005105838
0.036035497 -0.22773686 -0.30834958 -0.25269762 -0.0091793025 0.022061324 -0.0138635365 0.024552237
-0.2405274 -0.021096677 -0.33093584 -0.028868884 0.015462987 -0.34905696 0.047667105 -0.021027548
-0.034215536 0.0010184075 -0.018402113 -0.033183623 -0.30341616 -0.04555975 -0.2346984 -0.32552052
-0.24444595 -0.30114168 0.0010048271 -0.03432045 -0.30071664 -0.037805066 0.008267277 0.028466998
-0.026062144 0.007037465 -0.29008663 -0.01794767 0.045865398 0.002943724 -0.032432538 -0.031631045
-0.031007092 -0.3519293 0.036800854 0.0009130297 -0.33118457 0.004290074 0.0061641717 0.01733041
-0.022536295 0.03250455 0.0046658698 -0.23748289 -0.3203529 -0.29390308 0.008237445 -0.046782617
0.008257721 -0.028669378 -0.012448153 -0.011145546 -0.3055605 -0.011099378 -0.03311014 -0.2511005
-0.37069118 -0.2627207 -0.016793832 0.005401518 -0.019245766 0.052145284 -0.025648158 -0.023343964
-0.012047134 -0.2862764 -0.017192014 -0.2721259 -0.269553 0.0044645406 -0.0052739186 -0.02972806
0.021545254 -0.31962237 -0.2699558 -0.26153687 0.018096935 -0.30109468 0.05095213 -0.3422709
-0.29999772 0.006582411 -0.014605536 -0.022560636 -0.3591854 0.008034502 -0.009785843 -0.03443398
5.9788534e-05 -0.026666474 -0.016864879 0.034348916 -0.037353676 0.026182147 -0.03420678 0.03118702
-0.011578746 0.046257876 -0.021401472 -0.0018757203 -0.04361438 -0.31670517 -0.031906366 0.013490644
0.043303046 -0.32554322 0.01923216 -0.0052888226 -0.20636979 -0.008110489 0.0050832992 -0.2749901
-0.0020477108 -0.3087161 0.026145572 -0.037362196 -0.2811111 -0.29219687 0.011648648 -0.027038235
0.042744376 0.00044291947 0.024924064 -0.26066822 0.042536657 -0.035594903 -0.28665686 -0.23736404
0.03298665 0.036573827 -0.32596874 0.002631761 0.021285735 -0.010071487 0.019753015 -0.04827111
-0.04644723 -0.039654642 -0.39600864 -0.017555764 -0.0018125324 -0.26736352 -0.009337493 0.0509484

fc2.bias f4 [256]
00000000: 553f 82be fa25 b9be 1886 aebe cd65 a1be
00000010: 2e80 9abe d0ea b6be 9586 aebe 5fbe c2be
00000020: b12a 76bd f93c 7ebe d3c4 83be c37d b1be
00000030: 664e c4be 1447 a4be afc6 4abf 854c cfbe
00000040: d221 aebd 20c9 a3be 9302 b9be 0147 4ebe
00000050: 99a6 0fbf 264f b0be 74cf 94be 5de4 ecbe
00000060: 8c10 e9be ffc3 cbbe a291 38bf 18b3 c7be
00000070: 0bdb 65be 0772 1bbf 7f82 bcbe fede efbe
00000080: 6270 72be 3e40 86be d4b1 bebe 1158 c0be
00000090: bd4e d4be 97cf 0fbf aa80 7dbe 2e6a b3be
000000a0: 3bad b7be 72d4 b7be dae9 c3be b015 46bf
000000b0: dbd4 bdbe 785f 09bf 49ea bbbe 8e28 86be
000000c0: a52f 83be e819 9fbe aeae bcbe d8e5 93be
000000d0: 227c 83be cb0e a1be 928a adbe 8519 01bf
000000e0: 1698 aabe 0dad 7bbe 3001 abbe da78 abbe
000000f0: 28ac fdbe 80b3 d8be caf6 8ebe d74d afbe
00000100: 0f38 84be 785a b7be 17be 9ebe 2867 b1be
00000110: 0b35 59bf e1fd 98be 6839 9fbe c673 9ebe
00000120: 911d 73be 4dfe b3be 2303 0cbf bda5 93be
00000130: bb10 8abe 31a7 5fbe bb0b bfbe a657 acbe
00000140: adcd a2be 12c6 82be d560 81bd 4ef8 cfbe
00000150: 997b c0be 6884 b7be 8bb1 d9be cb26 89be
00000160: 8bf6 0fbf 60a2 c0be 5294 b9be cb88 9abe
00000170: 6454 9dbe 4ea8 c1be f751 a2be f086 88be
00000180: 8be4 87be 3d4a b6be 33b8 a1be 8cd2 86be
00000190: 8894 c2be ccf8 b1be 1797 8dbe 7d3b b4be
000001a0: e7c1 a0be 2c86 0cbf c746 a4be f9ff 87be
000001b0: fd14 b5be 302d 12bf d599 9abe b5ee 86be
000001c0: 15c4 5ebe 7883 cabe bad3 a1be 7413 09bf
000001d0: 653b 8fbe ebc0 86be 9990 b2be c489 8fbe
000001e0: 1a46 9ebe 8042 14be cded afbe 5ffc 83be
000001f0: e53a 6f3f 182c 9fbe 2a81 79be 4504 20be
00000200: 1177 03bf 3cdd c1be 84e3 cabe 4a12 8cbe
00000210: cc8f 12bf 93d9 a3be 6989 a4be 9050 9abe
00000220: be79 d7be c327 1ebf 4f1f 88be 71d0 b1be
00000230: f3ea a3be 882f bebe fc22 c0be 66cb 8fbe
00000240: 2c8d b6be 0339 91be 929d 9ebb f0ca 8ebe
00000250: 4b8c b9be 4d23 3ebf 9ec4 2abf c35c cfbe
00000260: 8328 c9be 2811 71be 2fbe bfbe 65db c1be
00000270: 1036 a3be 6605 c9be c6d2 cfbe 4ba1 8ebe
00000280: 888e d7be 09f3 d2be 52e5 abbe 6b13 cebe
00000290: 8c70 ccbe bbc4 babe 1f2e c3be 5525 bebe
000002a0: dab7 c9be 9a97 99be 9aa8 79be d07d 99be
000002b0: 716a adbe 15fc 42bf a616 c6be 04a7 0bbf
000002c0: cf80 b4be 65c3 a6be 4242 9bbe 16f7 9abe
000002d0: efd5 abbe a059 18be 7cdd 9abe e23b 3abf
000002e0: de40 cbbe 85b7 b1be 5c2f e8be 167d cabe
000002f0: 2b6e b4be afc9 e6be 8b34 c8be 0436 cbbe
00000300: 135f 81be 1be5 99be 9106 45be f880 96be
00000310: 99e9 c5be 62d3 cebe 8054 a3be c7d9 07bf
00000320: f997 ccbe a621 90be bca0 a0be 8fb0 74be
00000330: 3344 aabe 44af b8be fad2 cebe aa2d df3e
00000340: e264 3cbe 1938 cbbe 9b6c cbbe f537 ccbe
00000350: 0c2f c8be 7e8d b0be f1ee b5be 3b3d bbbe
00000360: 126f 58bf 3a56 38bf c51b c9be f44a babe
00000370: d231 8abe 24b4 b8be 332e 8abe ce84 d9be
00000380: efc8 91be f36e 8dbe 6dc3 0ebe 3cf5 c3be
00000390: 4410 b4be 7102 c0be 38d5 afbe e296 ccbe
000003a0: faf2 b3be ac6f 82be 830c a3be 1604 aebe
000003b0: 51f5 cfbe 3b8d a2be 47d3 d6be cb75 aabe
000003c0: 2517 93be b456 bfbe b042 96be 6160 91be
000003d0: 3dc3 bcbe 8487 70bf 9326 8dbe f135 72be
000003e0: 2ee7 58be 3f90 97be 0625 1fbf 8191 98be
000003f0: 2089 38be 413c d1be dd60 b5be 2bc2 f8be
-0.25438944 -0.36161786 -0.3408668 -0.3152298 -0.30175918 -0.35726023 -0.34087053 -0.38035867
-0.060099307 -0.24827947 -0.25736102 -0.3466626 -0.38341063 -0.32085478 -0.7920942 -0.40488067
-0.085025445 -0.31989384 -0.36134776 -0.20144273 -0.5611358 -0.34435385 -0.29064524 -0.46267977
-0.45520437 -0.3979797 -0.7209722 -0.39003825 -0.2244684 -0.60720867 -0.3681831 -0.46849817
-0.23675683 -0.26220888 -0.37245047 -0.3756719 -0.41466323 -0.5617613 -0.24756113 -0.35041946
-0.35874352 -0.3590427 -0.38264352 -0.7737684 -0.37076458 -0.536613 -0.36702183 -0.26202816
-0.25622287 -0.31074452 -0.3685202 -0.28886294 -0.25680643 -0.314566 -0.33894783 -0.50429565
-0.33319157 -0.24577732 -0.33399343 -0.3349064 -0.49545407 -0.42324448 -0.2792266 -0.34239075
-0.2582402 -0.3581121 -0.31004402 -0.34649014 -0.8484656 -0.29881194 -0.31098485 -0.30947703
-0.23741747 -0.35154954 -0.54692286 -0.28837386 -0.2696589 -0.21841122 -0.37313637 -0.3366062
-0.31797543 -0.2554174 -0.06317297 -0.4061913 -0.37594298 -0.35843205 -0.42518267 -0.2678741
-0.5623557 -0.37623882 -0.36245972 -0.3018249 -0.30728447 -0.3782372 -0.3170316 -0.2666545
-0.26541552 -0.35603514 -0.31585845 -0.2633251 -0.38003945 -0.3476013 -0.27654335 -0.35201636
-0.31397936 -0.5489223 -0.3208525 -0.2656248 -0.35367575 -0.571002 -0.3019549 -0.26353994
-0.21754487 -0.39553428 -0.31606847 -0.5354531 -0.27975002 -0.2631906 -0.34875944 -0.28034794
-0.30912858 -0.14478493 -0.34361115 -0.2577848 0.9344924 -0.31088328 -0.24365678 -0.15626629
-0.51353556 -0.378641 -0.39626706 -0.27357703 -0.57250667 -0.32001933 -0.32136086 -0.3013959
-0.4208507 -0.6177942 -0.26586387 -0.3472934 -0.3201519 -0.37145638 -0.3752669 -0.28084868
-0.3565458 -0.2836381 -0.004840561 -0.27889204 -0.36239848 -0.74272615 -0.66706264 -0.4050046
-0.3928872 -0.23541701 -0.37449786 -0.37862697 -0.31877184 -0.3926193 -0.40590495 -0.27857432
-0.4210093 -0.41201046 -0.33573395 -0.4024919 -0.39929616 -0.36478218 -0.38121125 -0.37137857
-0.3939808 -0.29998475 -0.24380723 -0.299788 -0.3387027 -0.76165897 -0.38689154 -0.5455172
-0.35254523 -0.3257095 -0.30323988 -0.30266637 -0.33561656 -0.14877939 -0.30247104 -0.72747624
-0.39697927 -0.34710327 -0.45348632 -0.39548558 -0.352403 -0.45075747 -0.39102587 -0.39689648
-0.25267848 -0.30057606 -0.19240786 -0.2939527 -0.38654783 -0.40395647 -0.31900406 -0.53066677
-0.39959696 -0.28150672 -0.3137263 -0.23895477 -0.33255157 -0.36071217 -0.40395337 0.43589526
-0.18397859 -0.39691237 -0.39731297 -0.39886442 -0.39098394 -0.3448295 -0.3553386 -0.36570153
-0.8454448 -0.7200657 -0.39279 -0.3638531 -0.26991135 -0.36074936 -0.26988372 -0.42484134
-0.28473613 -0.2762371 -0.13941737 -0.38273036 -0.3516866 -0.37501863 -0.3434236 -0.39958864
-0.35146314 -0.25475824 -0.31845483 -0.33987492 -0.4061685 -0.31748375 -0.41958067 -0.33292994
-0.28728595 -0.37370837 -0.29347754 -0.28393844 -0.36867705 -0.9395678 -0.27568492 -0.2365339
-0.21181938 -0.2960224 -0.6216587 -0.2979851 -0.18021059 -0.40866283 -0.35425463 -0.48585638

fc3.weight f4 [2, 256]
00000000: 8efb 87be af1a b13e 75b0 b83e 561d 98be
00000010: ad64 88be 7fd9 64be e982 903e 0b17 c13e
00000020: 2fb4 bfbd f24a 90be 07f1 9dbe cd23 b73e
00000030: 97c6 4dbe 5592 1b3e a865 813e 7d35 bc3e
00000040: 0383 933d a565 41be 74c0 b33e 9feb 34bf
00000050: ece5 423e 6f8b a0be c4e3 503e 76b6 85be
00000060: a7e0 52be 137d 88bd bd8d f43c b801 b53e
00000070: 1be5 f5bd c9a1 c13e 104a aa3e 4ca5 083a
00000080: 3e04 cbbe c664 8abe 47de 74be e91c f83d
00000090: ad03 b83e 6b83 573d 8c72 7dbe c1b3 be3e
000000a0: dfbe ac3e de50 78be f19e bf3e a136 763e
000000b0: 6bf9 69be d41a 0fbe 1135 19be 129f 67be
000000c0: 5029 b6be 6523 e9bc 1e81 c63e 955b 26be
000000d0: 2239 64be cf36 82be 740f 7ebc 7822 bb3e
000000e0: 3e0e 20bd d6c5 5bbe e921 c53e ace5 f33d
000000f0: 6b25 6fbe 240b ba3e 69ab b33e 0c20 ad3e
00000100: 655e edbe 6abc b33e 6768 55be f355 96be
00000110: d0e2 5a3e 70c0 8e3e 81b7 4abe b074 a33e
00000120: 2111 7cbe f929 42be 70ce b53e 1068 76be
00000130: 2dcb 77be f59a fcbd 024a bd3e 6395 b4bc
00000140: 285b 7abe 1fbb 8abe 3a41 37bb fcb2 fcbd
00000150: 0859 b33e 2b5b 9ebe 8de4 bf3e 2a84 8cbe
00000160: c55e cebd 9da9 bc3e 876d ba3e 8758 63be
00000170: 52ac a1be b664 ac3e 4c6f 4ebe ecb1 87be
00000180: 4fdf 90be bf95 aa3e e314 8ebe f602 85be
00000190: f150 a63e 362d 9c3e 6bc7 71be ff0d ae3e
000001a0: 9c2d 973e dd67 b33e bf7f 193e fee5 4fbe
000001b0: 4727 b73e d355 85bd fdfd 86be 3a45 3abe
000001c0: d3c2 3f3e 1325 82bd 365e 9fbe f05b c5bd
000001d0: 05b9 563e 493f 7ebe a4a9 a7be 9f2b bf3e
000001e0: 2601 89be 2e89 883e ab61 72bd 1c3e a63e
000001f0: fce1 0b3f 31f6 86be 20ba 86be 1252 6abe
00000200: 1ad6 843e a17d bf3e 5933 bb3e 795c 92be
00000210: d287 ffbd 2dda 20bd 5755 a13e f2b8 8bbe
00000220: a4e6 b13e 526a 4cbd e091 92be fd09 9cbe
00000230: c745 9c3e 3d4b a1be 30c2 ad3e a03f 75be
00000240: 5c11 b43e c331 a93e 64ca dfbd 4a83 e93d
00000250: 3a34 eabc 7bc7 36bc feed eb3d 65dc fbbc
00000260: 7611 b53e 85f5 72be c328 b03e 2bb5 bc3e
00000270: 1007 20be 3015 ba3e 6e39 82bd de17 9d3e
00000280: 9d10 b53e 51c2 ba3e dae6 b73e 6d6c b83e
00000290: 399e b33e b773 84be 0b05 bc3e 2dae 993d
000002a0: 3c07 25be c34e 87be 8f3f 57be 3928 8f3e
000002b0: 1c79 22bd a631 2c3e bba8 9e3e 5c1c 013e
000002c0: 0e05 de3e 268d b4be 2fab b03e 37df b73c
000002d0: 7b31 c93d 3a09 c8bc 26b2 4abe 4244 8c3d
000002e0: ea80 9dbe 2508 913e 8e3d b73e 8ff4 7fbe
000002f0: 2801 bf3e e3dc 063e d0dc 14bd 2058 8f3c
00000300: d6d8 8cbe 20ef 9d3e dc5b 4dbe 0b2c 93be
00000310: c5fd 83bd 7edb b73e 8f43 983e 0815 323c
00000320: 292d 8a3c a738 d7be f895 4bbe e7e2 85be
00000330: 80c8 a0bb 3208 5dbe 1209 ba3e 8973 d23e
00000340: 1819 01be 675f b9bd cc5c ab3e 824a ac3e
00000350: 7121 ab3e ca61 ae3e 016f a93e 30cd ab3e
00000360: 2abf 053e 67c3 2bba 30bb 77be de22 bc3e
00000370: ba25 8cbe b965 55be b66f 8ebe 5d74 1d3c
00000380: cf4d 8f3d c589 8fbe c42d c23d 6dee be3e
00000390: cfa9 f4bc c6ea 173d e1db 82bb d086 14bd
000003a0: bb84 3bbd 8142 84be 11cc 9b3e 3346 8dbe
000003b0: 5d97 b63e b69c 98be 9ad0 a8be 8390 8e3e
000003c0: 6895 57be 2365 ba3e e695 113a 80de 92be
000003d0: cfe6 21bd 31b5 603e 48bb 923e ed4c 85be
000003e0: 881d 1e3e 14fe 9c3e b36c c43e ed90 8abe
000003f0: d42a 863d 241a 88be 3707 9a3c d64f bd3d
-0.26559108 0.3459067 0.36072126 -0.29709882 -0.2663931 -0.22348593 0.28224877 0.37712893
-0.09360539 -0.2818218 -0.30847952 0.357695 -0.20095287 0.1519254 0.2527287 0.36759558
0.07202723 -0.1888643 0.35107768 -0.7067203 0.1903302 -0.3135638 0.20399386 -0.2611577
-0.2059351 -0.06664481 0.029852742 0.35352874 -0.12006589 0.37818745 0.3325963 0.00052126194
-0.39651674 -0.2703001 -0.23912917 0.12114889 0.35940304 0.052615564 -0.24750727 0.37246516
0.33739373 -0.24249598 0.3742595 0.24044277 -0.22849052 -0.13975078 -0.1496165 -0.22619274
-0.35578394 -0.02845926 0.38770384 -0.16245873 -0.2228742 -0.2543244 -0.015506614 0.36549735
-0.039076082 -0.21462187 0.38502434 0.11909041 -0.23354118 0.36336625 0.35091713 0.33813512
-0.4636108 0.35104686 -0.20840608 -0.2936245 0.21375585 0.27881193 -0.19796564 0.31924963
-0.24615909 -0.18961324 0.35509062 -0.24063134 -0.24198599 -0.12334243 0.36970526 -0.02204389
-0.24448836 -0.27095887 -0.0027962462 -0.12338826 0.35028863 -0.3092893 0.37479058 -0.27444583
-0.100766696 0.36848155 0.36411688 -0.22201739 -0.31576782 0.33670586 -0.20159644 -0.2650293
-0.2829537 0.33317372 -0.2775031 -0.25978822 0.32483628 0.30503243 -0.23611228 0.33995053
0.29526985 0.3504018 0.14990138 -0.20302579 0.35772154 -0.0651051 -0.26365653 -0.1819047
0.18726663 -0.063547276 -0.31126565 -0.09636676 0.20969017 -0.24828829 -0.32746613 0.37337968
-0.2675869 0.2666716 -0.059175175 0.3246926 0.546417 -0.26359704 -0.26313877 -0.2288287
0.25944597 0.37400535 0.36562613 -0.28586176 -0.124770775 -0.03927057 0.31510422 -0.2728954
0.34746277 -0.049906082 -0.2862692 -0.3047637 0.30521986 -0.31502715 0.33937216 -0.23950052
0.35169494 0.33045778 -0.10927275 0.114019945 -0.028589357 -0.011155958 0.11520003 -0.03074474
0.35364884 -0.23726471 0.344061 0.3685697 -0.15627694 0.3634429 -0.0635861 0.30682272
0.35364237 0.36476377 0.35918313 0.36020222 0.35081652 -0.25869533 0.36722597 0.075039245
-0.16116041 -0.26427278 -0.2102034 0.27960375 -0.03966628 0.16815814 0.30988106 0.12608474
0.4336323 -0.35263938 0.34505603 0.022445304 0.09823891 -0.024418462 -0.1979452 0.06848957
-0.30762416 0.28326526 0.3578915 -0.24995635 0.3730557 0.13170199 -0.036343396 0.017498076
-0.27509183 0.308465 -0.20054573 -0.2874454 -0.06444887 0.35909647 0.29739043 0.010869272
0.016867237 -0.4203541 -0.19881427 -0.26149675 -0.004906714 -0.21585158 0.36335045 0.4110377
-0.12607229 -0.090514 0.33469236 0.33650595 0.3342395 0.34058982 0.33092502 0.33554983
0.13061205 -0.00065522495 -0.241925 0.36745352 -0.27372533 -0.20839585 -0.27819604 0.009610263
0.06997263 -0.28034797 0.09481385 0.3729128 -0.029866127 0.03708913 -0.0039934968 -0.03626138
-0.04578088 -0.25831988 0.30429128 -0.2759262 0.35662356 -0.2980706 -0.3297165 0.2784463
-0.21053088 0.36405286 0.00055536476 -0.2868538 -0.039526757 0.21944119 0.2865851 -0.26035252
0.15440953 0.30662596 0.3836418 -0.27063695 0.065511376 -0.26582444 0.018802268 0.09243743

fc3.bias f4 [2]
00000000: 5a71 873f ce90 3b3f
1.0581467 0.7326783
