weights/testing_dqn_cartpolev1.pt (torch, 272783 bytes, 6 tensors)

fc1.weight f4 [256, 4]
0.31204045 0.061492592 0.27712193 -0.018456906 0.59718424 0.05565939 -0.6369025 -0.0037998194
0.77112484 -0.16646212 -0.4546691 -0.36679673 0.7308967 0.18860738 -0.1400493 -0.12761264
0.7633325 0.14982913 -0.5089039 -0.032967605 0.12667337 0.33768234 -0.23948914 -0.06137291
0.54920405 -0.01592966 -0.57018465 -0.060926806 0.039331943 0.21678807 0.011506555 -0.15184863
0.36517394 0.1268783 -0.31314802 -0.40692255 0.6704737 0.044352643 -0.40805352 -0.31406596
0.1922798 0.16113068 0.08690122 -0.064976655 0.5508626 0.3235291 -0.11787179 -0.042535443
0.10914761 -0.30814514 -0.56705505 -0.13216925 0.73278654 0.13338017 -0.52605957 -0.14361481
0.062008433 0.0024468903 -0.6156728 -0.15324485 0.1444446 -0.45573667 0.22167484 0.006037534
0.43518347 0.6544489 -0.68787 -0.17991443 0.20727277 -0.18690604 -0.01042929 -0.16916014
0.064487986 0.030276679 -0.0747948 0.025225462 0.8723678 0.029073616 0.2986518 0.032341983
0.069272585 0.3682837 -0.3043387 -0.023623968 -0.10266969 -0.10787924 -0.09873091 -0.075856104
0.8687867 0.032766487 -0.011990153 0.24878077 0.7363037 0.14800224 -0.43002984 -0.030102162
0.5146897 0.18412848 -0.1681897 -0.37376866 0.07419633 -0.11031227 -0.10213911 -0.15240754
0.650211 0.07897757 -0.043197084 0.099780165 0.41686055 -0.2651974 -0.33038667 0.12649675
0.017191755 -0.15279727 -0.04478368 -0.074970685 0.0879664 0.14383699 -0.18380255 0.3210092
0.731084 -0.16734882 -0.010531233 -0.32143614 0.1800652 0.065746225 -0.22360039 0.2407226
0.2240161 -0.112915345 -0.08407276 -0.12093908 0.48973635 -0.19280532 0.018720835 -0.24144976
0.43891683 -0.0781486 0.014073105 -0.2428656 0.45390815 -0.14451432 -0.5554579 -0.31245348
0.44905677 0.15404132 -0.52451855 -0.11784933 -0.27298108 -0.35634166 0.1035459 -0.07383716
0.4742227 0.25333583 -0.12210951 0.27638295 0.262561 -0.085387684 -0.29760644 -0.40182412
0.60302544 0.2884594 -0.44812477 -0.23132253 -0.1945746 -0.28350863 0.13063022 -0.1901401
0.21247256 -0.271013 0.33025786 -0.21519929 -0.30717 0.1608991 0.20225395 -0.07467901
-0.36122093 -0.08231708 0.36208773 -0.15460785 0.7652286 0.46069568 -0.11204205 -0.037256826
-0.10453394 -0.10610072 -0.17515735 -0.17326234 -0.31574467 -0.409583 0.09995453 0.039819896
0.21708417 -0.07576695 0.7318871 0.11364248 -0.3522624 -0.196375 0.46086892 -0.017103583
0.8109037 0.33294705 -0.38058594 -0.10476796 0.116839975 0.042294815 -0.6709368 -0.46294448
0.1854038 -0.20391297 0.042718302 -0.25323516 0.25487465 -0.22915661 0.015613592 -0.19525881
0.009717671 0.056693096 -0.27698848 -0.12276731 0.6158308 0.5198877 -0.11910063 -0.06290833
0.057606477 -0.36152792 0.1970185 -0.10071912 0.26613918 0.19153762 -0.25613636 -0.04637093
0.8301016 -0.010482489 -0.65276873 -0.30073002 0.49290416 -0.12241992 -0.6034399 0.101013176
0.14602914 -0.106747344 -0.32573643 -0.009939228 0.10495106 0.14536667 -0.35650703 -0.27846065
-0.20486669 -0.11168304 -0.17192112 0.16149676 0.34136435 0.123545684 0.4070916 0.14510107
00000000: c4c3 9f3e a8df 7b3d ede2 8d3e f032 97bc
00000010: 11e1 183f 1afb 633d 0b0c 23bf 6406 79bb
00000020: 7068 453f 0c75 2abe 63ca e8be c8cc bbbe
00000030: 0c1c 3b3f 4b22 413e 1569 0fbe e3ac 02be
00000040: c269 433f cf6c 193e 8747 02bf 0a09 07bd
00000050: aab6 013e b3e4 ac3e a43c 75be 2962 7bbd
00000060: a398 0c3f eb7e 82bc 9ff7 11bf 638e 79bd
00000070: 881a 213d b1fd 5d3e fd85 3c3c 357e 1bbe
00000080: 14f8 ba3e 63ec 013e f054 a0be 2758 d0be
00000090: 2aa4 2b3f 1eab 353d 64ec d0be 41cd a0be
000000a0: ffe4 443e 71ff 243e 44f9 b13d 7b12 85bd
000000b0: 5505 0d3f 9ba5 a53e c466 f1bd a539 2ebd
000000c0: c888 df3d 33c5 9dbe 852a 11bf 6057 07be
000000d0: e697 3b3f d094 083e d7ab 06bf c30f 13be
000000e0: 8efc 7d3d 025c 203b bc9c 1dbf 38ec 1cbe
000000f0: 49e9 133e 5156 e9be bbfe 623e 82d6 c53b
00000100: 5ed0 de3e f789 273f 4018 30bf 7d3b 38be
00000110: 503f 543e 4c64 3fbe 9ddf 2abc 5138 2dbe
00000120: 4712 843d cc06 f83c 042e 99bd a1a5 ce3c
00000130: 7f53 5f3f cb2b ee3c e4e8 983e 0779 043d
00000140: c9de 8d3d ae8f bc3e 48d2 9bbe 0d87 c1bc
00000150: 7d44 d2bd caef dcbd 6e33 cabd 725a 9bbd
00000160: ce68 5e3f 2736 063d 5972 44bc 63c0 7e3e
00000170: 667e 3c3f e68d 173e df2c dcbe cf98 f6bc
00000180: b4c2 033f 2d8c 3c3e ec39 2cbe 9b5e bfbe
00000190: 3ff4 973d 66eb e1bd 4f2e d1bd b910 1cbe
000001a0: 3a74 263f febe a13d 6def 30bd 8b59 cc3d
000001b0: bf6e d53e f4c7 87be 7128 a9be 5d88 013e
000001c0: b9d5 8c3c e376 1cbe 186f 37bd 3b8a 99bd
000001d0: ba27 b43d 014a 133e bc36 3cbe 515b a43e
000001e0: 5228 3b3f 7d5d 2bbe 318b 2cbc 4793 a4be
000001f0: 0363 383e f5a5 863d 80f7 64be fc7f 763e
00000200: 7a64 653e 2940 e7bd 572e acbd e9ae f7bd
00000210: b9be fa3e c26e 45be 705c 993c 9b3e 77be
00000220: b5b9 e03e 600c a0bd e192 663c c3b1 78be
00000230: a666 e83e 90fb 13be 7d32 0ebf e7f9 9fbe
00000240: c5ea e53e 02bd 1d3e d946 06bf fd5a f1bd
00000250: 2dc4 8bbe 6a72 b6be df0f d43d f037 97bd
00000260: 51cd f23e 3cb5 813e 8d14 fabd 1182 8d3e
00000270: 656e 863e bddf aebd df5f 98be e4bb cdbe
00000280: e05f 1a3f f3b0 933e 9c70 e5be d0df 6cbe
00000290: 903e 47be 0b28 91be eec3 053e 16b4 42be
000002a0: 6892 593e 37c2 8abe 8f17 a93e 345d 5cbe
000002b0: 6345 9dbe bcc2 243e a91b 4f3e 4ff1 98bd
000002c0: f3f1 b8be db95 a8bd 9063 b93e 8551 1ebe
000002d0: 06e6 433f 4ee0 eb3e 4d76 e5bd 9d9a 18bd
000002e0: e415 d6bd 564b d9bd 735c 33be af6b 31be
000002f0: 49a9 a1be ddb4 d1be f6b4 cc3d 301a 233d
00000300: 504b 5e3e b42b 9bbd f45c 3b3f 63bd e83d
00000310: bd5b b4be 8716 49be 03f7 eb3e d01c 8cbc
00000320: 6397 4f3f 0978 aa3e 29dc c2be 9690 d6bd
00000330: cc49 ef3d 543d 2d3d 84c2 2bbf 0f07 edbe
00000340: 7eda 3d3e 90ce 50be 63f9 2e3d 0aa8 81be
00000350: ee7e 823e 08a8 6abe 27d0 7f3c edf1 47be
00000360: de36 1f3c 0537 683d 6fd1 8dbe 6d6d fbbd
00000370: 16a7 1d3f 5c17 053f 08eb f3bd 15d6 80bd
00000380: c5f4 6b3d 301a b9be 38bf 493e d345 cebd
00000390: 6543 883e 7022 443e 4e24 83be 72ef 3dbd
000003a0: 8a81 543f bfbe 2bbc da1b 27bf 49f9 99be
000003b0: ef5d fc3e 4cb7 fabd 0a7b 1abf ffdf ce3d
000003c0: aa88 153e 5a9e dabd edc6 a6be 25d8 22bc
000003d0: 95f0 d63d 00db 143e 1788 b6be 6592 8ebe
000003e0: 93c8 51be 14ba e4bd 170c 30be 685f 253e
000003f0: 4fc7 ae3e 8505 fd3d 4f6e d03e 6095 143e

fc1.bias f4 [256]
-0.61177015 -0.31237242 -0.56280494 -0.9642285 -0.45913178 -1.2298688 -0.5682985 -0.6172414
-0.343179 -0.62613994 -0.7575587 -1.166454 -0.5581791 -0.7198605 -0.5288749 -0.696037
-0.45666453 -0.15674053 -0.22590303 -0.67177284 -0.39921072 -0.48272166 -0.7215023 -0.57038426
-0.6089613 0.16173975 -0.72224456 -0.7589147 -0.9014074 -0.8097756 -1.2118992 -0.8137454
-1.0577408 -0.7337256 -1.2059602 -0.56649095 -0.5773981 -0.6512532 -0.68438935 -1.2395878
-0.4377947 -0.22659951 -0.18173939 -0.114021674 -0.3455518 -0.52090955 -0.30874053 -0.9348662
-1.1155778 -0.04363737 -0.63264054 -0.4460634 -0.38200954 -0.5857987 -0.53908455 -0.64380026
-0.8047028 -0.65101886 -0.5618425 -0.6688617 -0.6490029 -0.48726758 -1.0674409 -1.3026603
-0.5008724 -0.5791915 -0.6600437 -0.5474248 -0.64813715 -0.31604323 -1.1810352 -0.9073738
-0.43169624 -0.80918294 -0.4412386 -0.68369603 -0.7990704 -0.29822993 -0.42259645 -0.57341534
-0.49027857 -0.33403203 -0.46427843 -0.74439037 -0.84343576 -0.7115116 -0.27001587 -0.8497356
-0.9940449 -0.57495093 -0.57502824 -0.7645972 -1.2808986 -0.30988574 -0.4703097 -1.4110954
-0.74661803 -0.021587033 -0.66237247 -0.4915495 -0.6381475 -0.6800522 -0.6234446 -0.49893653
-0.5238066 -0.40369913 -1.0023633 -0.49113277 -0.596231 -0.36002195 -0.665859 -0.67570496
-0.6870059 -0.96974456 -0.5238857 -1.1635079 -0.7892428 -0.40808147 -0.31952733 -0.8694178
-0.4810198 -0.4576582 -0.582186 -0.5752834 -0.2412473 -1.1002069 -0.5122163 -0.5443816
-0.28393197 -0.6853354 -0.50436723 -1.2026193 -0.5899184 -0.82884365 -0.4926463 -1.1619253
-0.49783763 -0.6040547 -0.5803114 -0.36544767 -0.69158363 -0.583527 -0.66906714 -0.37079683
-0.47547898 -0.48100477 -0.661485 -1.1218985 -0.46350262 -0.2936751 -0.9135441 -0.2944515
-0.47751346 -0.5667959 -0.62145257 -0.40421754 -0.51434916 -0.6780099 -0.2784549 -0.6348211
-0.7158637 -0.57686913 -0.7143642 -0.67285925 -0.57294655 -1.2234505 -0.66901237 -0.50617605
-0.52397364 -0.5954181 -0.9149072 -0.21903159 -0.94352317 -0.7302161 -0.47839594 -0.741849
-1.0587521 -0.57094824 -0.74751097 -0.5653843 -0.67490035 -0.29633266 -0.8142059 -0.737014
0.11633651 -0.7841376 -0.68995243 -0.48341966 -0.6181521 -0.5210501 -0.60497653 -0.64568496
-0.7614234 -0.1121206 -0.112645745 -0.5999494 -0.71064574 -0.34525487 -0.38214815 -0.16963635
-0.29416266 -0.42971313 -1.2721119 -0.9055503 -0.70073044 -0.7473299 -0.70791394 -0.5792902
-0.78844106 -0.9196975 -0.9473411 -0.2755807 -0.5575569 -0.7275133 -0.93774724 -0.5242612
-0.2808351 -0.72840947 -0.756342 -0.7603567 -0.47579345 -0.58031815 -0.6420622 -0.57228565
-0.5675821 -0.6911113 -0.80624974 -0.6455065 -0.43264621 -0.51798695 -0.6845585 -0.75489604
0.110717 -0.69169855 -0.5022 -0.68585557 -0.6662356 -0.6395237 -0.6657851 -0.4480001
-0.27725756 -0.6077 -0.39723477 -0.5406198 -0.5430035 -0.655758 -0.59665906 -0.69326854
-0.12390501 -0.13802552 -0.53410774 -0.32870758 -0.7003303 -0.5239615 -0.3344417 -0.35545996
00000000: f89c 1cbf 47ef 9fbe fc13 10bf aed7 76bf
00000010: 5213 ebbe 576c 9dbf 037c 11bf 8803 1ebf
00000020: 28b5 afbe b54a 20bf 5eef 41bf 5d4e 95bf
00000030: d3e4 0ebf c748 38bf 5864 07bf 7b2f 32bf
00000040: efcf e9be 9780 20be 2053 67be 4ef9 2bbf
00000050: 5965 ccbe 4b27 f7be 60b4 38bf b404 12bf
00000060: e3e4 1bbf 1b9f 253e 05e5 38bf 3c48 42bf
00000070: a3c2 66bf 744d 4fbf 831f 9bbf 9e51 50bf
00000080: 0d64 87bf 71d5 3bbf e75c 9abf 8d05 11bf
00000090: 5dd0 13bf 88b8 26bf 2434 2fbf d0aa 9ebf
000000a0: a026 e0be b409 68be e419 3abe 3284 e9bd
000000b0: 2aec b0be 545a 05bf 3d13 9ebe 6453 6fbf
000000c0: 41cb 8ebf 19bd 32bd bbf4 21bf 6c62 e4be
000000d0: c196 c3be e7f6 15bf 7201 0abf 18d0 24bf
000000e0: 0101 4ebf 2ca9 26bf e9d4 0fbf 853a 2bbf
000000f0: 0e25 26bf 237b f9be e7a1 88bf 93bd a6bf
00000100: 2c39 00bf e545 14bf a0f8 28bf 0824 0cbf
00000110: 51ec 25bf 6bd0 a1be 292c 97bf a649 68bf
00000120: 4a07 ddbe 9d26 4fbf 07ea e1be b406 2fbf
00000130: e18f 4cbf 98b1 98be 905e d8be 59cb 12bf
00000140: cb05 fbbe 3f06 abbe e7b5 edbe 5e90 3ebf
00000150: 68eb 57bf a025 36bf 853f 8abe 4688 59bf
00000160: ba79 7ebf fc2f 13bf 0d35 13bf a4bc 43bf
00000170: 7cf4 a3bf 58a9 9ebe 6fcc f0be c69e b4bf
00000180: 5c22 3fbf 4ad7 b0bc 3e91 29bf 60ac fbbe
00000190: a25d 23bf e717 2ebf 119a 1fbf 9c74 ffbe
000001a0: 3018 06bf a7b1 cebe 714d 80bf c175 fbbe
000001b0: 98a2 18bf cc54 b8be bc75 2abf 00fb 2cbf
000001c0: 9edf 2fbf 2e41 78bf 601d 06bf d4ed 94bf
000001d0: d10b 4abf 0ef0 d0be 1699 a3be 2a92 5ebf
000001e0: 3a48 f6be 2d52 eabe 240a 15bf c645 13bf
000001f0: 8809 77be 94d3 8cbf 9c20 03bf 985c 0bbf
00000200: 885f 91be 2472 2fbf 361e 01bf 6eef 99bf
00000210: e404 17bf 192f 54bf 233c fcbe f8b9 94bf
00000220: 93e4 febe 54a3 1abf 4a8f 14bf f51b bbbe
00000230: a00b 31bf 0762 15bf fc47 2bbf 15d9 bdbe
00000240: fb71 f3be 4246 f6be 1557 29bf 5f9a 8fbf
00000250: 3750 edbe 955c 96be 07de 69bf 59c2 96be
00000260: a57c f4be 8919 11bf 8417 1fbf 9af5 cebe
00000270: 63ac 03bf 0f92 2dbf a491 8ebe a383 22bf
00000280: d842 37bf b2ad 13bf 92e0 36bf 8140 2cbf
00000290: a0ac 12bf 079a 9cbf 6544 2bbf c194 01bf
000002a0: 2323 06bf 526d 18bf 5c37 6abf d149 60be
000002b0: bc8a 71bf 71ef 3abf 50f0 f4be d1e9 3dbf
000002c0: 3085 87bf aa29 12bf e15c 3fbf 07bd 10bf
000002d0: 45c6 2cbf eab8 97be cc6f 50bf f3ac 3cbf
000002e0: d641 ee3d 3ebd 48bf b9a0 30bf c882 f7be
000002f0: 373f 1ebf 8a63 05bf bedf 1abf 9c4b 25bf
00000300: a5ec 42bf 7c9f e5bd d0b2 e6bd 4996 19bf
00000310: e1ec 35bf 3fc5 b0be eca8 c3be 27b5 2dbe
00000320: 7d9c 96be 5c03 dcbe 90d4 a2bf 25d2 67bf
00000330: 1263 33bf 0351 3fbf d939 35bf 5d4c 14bf
00000340: 46d7 49bf 4c71 6bbf f284 72bf ea18 8dbe
00000350: 0dbc 0ebf 503e 3abf 3410 70bf fb35 06bf
00000360: 9ec9 8fbe 0b79 3abf a19f 41bf bda6 42bf
00000370: 339b f3be bb8f 14bf 305e 24bf 5081 12bf
00000380: 0f4d 11bf acec 30bf 6266 4ebf ea3f 25bf
00000390: ce83 ddbe cb9a 04bf 3a3f 2fbf de40 41bf
000003a0: 98bf e23d 2813 31bf 2e90 00bf 3b94 2fbf
000003b0: 6b8e 2abf d3b7 23bf e470 2abf 4560 e5be
000003c0: b4f4 8dbe 3a92 1bbf 5b62 cbbe 0f66 0abf
000003d0: 4702 0bbf c2df 27bf a6be 18bf 0c7a 31bf
000003e0: e9c1 fdbd 9056 0dbe 49bb 08bf 5c4c a8be
000003f0: d948 33bf 5722 06bf f13b abbe d9fe b5be

fc2.weight f4 [256, 256]
0.005208244 -0.34166345 0.008684163 -0.0157457 -0.32953176 0.014998405 -0.48868993 -0.29000413
-0.31520855 0.04631724 0.030892948 -0.0051800767 -0.006251989 -0.3301455 -0.14288343 0.043852396
-0.24507266 0.027138488 -0.27935958 0.03319104 -0.03813788 -0.02097709 0.04856056 -0.37598902
-0.2924841 0.018704005 -0.019742494 0.045311503 -0.37930265 0.03651111 0.04691738 0.019961124
0.05194978 -0.05283567 0.0038883022 -0.015878072 -0.03461139 0.05127143 -0.0020617512 -0.044815537
0.010182676 -0.02188687 0.047652032 -0.04993656 -0.045450214 -0.0289957 -0.0037468504 0.015534624
-0.02188263 0.019053321 -0.29479387 -0.3713151 0.0457415 -0.033607118 -0.02656624 -0.032255746
0.014737988 0.026654514 0.029289942 -0.014382896 -0.042900104 0.019479716 0.048531115 -0.01874101
-0.42437822 -0.3693269 -0.015696382 -0.31562227 -0.3119671 -0.30846152 -0.010411326 -0.045548923
-0.36880577 -0.030421074 -0.0063851015 -0.37428293 -0.031736836 -0.3353521 0.002028337 -0.4041909
-0.35569394 -0.26173544 0.013699199 -0.016880555 -0.02101476 0.039138988 0.045829255 0.019181032
-0.325253 0.006287443 -0.02182706 0.031667713 0.04385837 -0.3305688 0.0039071827 -0.03575209
0.02953556 -0.0141868135 -0.057390124 -0.009450694 -0.36744192 -0.029216789 -0.43963063 -0.0005527066
0.039008383 -0.24652497 -0.33378786 -0.27354494 -0.009936577 0.02388135 -0.015007252 0.026577791
-0.26037064 -0.022837123 -0.35823765 -0.031250518 0.016738644 -0.3778538 0.051599577 -0.022762273
-0.037038274 0.0011024234 -0.019920252 -0.035921246 -0.32844752 -0.049318336 -0.25406048 -0.3523756
-0.26461238 -0.32598567 0.0010877249 -0.037151832 -0.32552543 -0.04092393 0.008949321 0.030815486
-0.028212244 0.0076180464 -0.3140185 -0.019428331 0.04964923 0.0031865747 -0.03510816 -0.034240525
-0.03356513 -0.38096288 0.039836872 0.0009883529 -0.35850674 0.0046439976 0.0066727083 0.01876015
-0.024395492 0.035186116 0.0050507965 -0.25707492 -0.3467814 -0.31814978 0.008917026 -0.05064214
0.008938965 -0.031034566 -0.013475121 -0.012065029 -0.33076885 -0.012015059 -0.03584165 -0.27181578
-0.40127262 -0.28439462 -0.018179309 0.0058471356 -0.020833518 0.056447186 -0.027764093 -0.0252698
-0.013041015 -0.3098933 -0.018610338 -0.29457584 -0.2917909 0.004832855 -0.0057090083 -0.032180574
0.02332269 -0.34599078 -0.29222688 -0.2831133 0.019589892 -0.32593453 0.055155624 -0.37050775
-0.3247472 0.00712545 -0.015810478 -0.024421858 -0.3888174 0.008697343 -0.010593159 -0.037274726
6.472106e-05 -0.028866401 -0.01825621 0.037182625 -0.04043532 0.02834212 -0.037028782 0.033759907
-0.012533975 0.050074056 -0.023167066 -0.002030464 -0.047212463 -0.3428332 -0.034538604 0.014603605
0.046875484 -0.35239983 0.02081877 -0.0057251416 -0.22339502 -0.008779597 0.0055026654 -0.29767615
-0.0022166434 -0.3341846 0.028302537 -0.040444516 -0.30430236 -0.31630278 0.012609647 -0.029268857
0.046270747 0.0004794594 0.02698028 -0.2821729 0.046045866 -0.038531415 -0.31030563 -0.25694618
0.035707988 0.03959111 -0.3528608 0.0028488757 0.023041768 -0.010902367 0.021382611 -0.052253406
-0.05027906 -0.042926084 -0.42867878 -0.019004103 -0.0019620627 -0.28942057 -0.010107821 0.055151578
00000000: eba9 aa3b 83ee aebe 0548 0e3c 20fd 80bc
00000010: 63b8 a8be dfbb 753c 9135 fabe 6c7b 94be
00000020: 0463 a1be 25b7 3d3d 3513 fd3c a2bd a9bb
00000030: 7cdd ccbb d508 a9be 0950 12be 929e 333d
00000040: 54f4 7abe 8951 de3c 3808 8fbe 54f3 073d
00000050: 7736 1cbd 25d8 abbc 70e7 463d a281 c0be
00000060: 7ac0 95be 2439 993c 03bb a1bc 8e98 393d
00000070: f533 c2be ac8c 153d 702c 403d 8385 a33c
00000080: 4bc9 543d 376a 58bd e3d2 7e3b bb12 82bc
00000090: acc4 0dbd fe01 523d 721e 07bb 7f90 37bd
000000a0: 3dd5 263c 184c b3bc c72e 433d 478a 4cbd
000000b0: 012a 3abd 6488 edbc b88d 75bb f084 7e3c
000000c0: 3443 b3bc b615 9c3c 39ef 96be 031d bebe
000000d0: 705b 3b3d 9ea7 09bd 71a1 d9bc 9a1e 04bd
000000e0: 9a77 713c 915a da3c 76f1 ef3c 3da6 6bbc
000000f0: 05b8 2fbd ed93 9f3c 90c8 463d bf86 99bc
00000100: 1a48 d9be 6a18 bdbe b395 80bc 3e99 a1be
00000110: 27ba 9fbe abee 9dbe 4494 2abc 8291 3abd
00000120: 1cd4 bcbe 9e35 f9bc 1d3a d1bb 03a2 bfbe
00000130: 7cfe 01bd 45b3 abbe d9ed 043b 1cf2 cebe
00000140: 841d b6be 3002 86be 9b72 603c 1749 8abc
00000150: 2527 acbc 3450 203d 75b7 3b3d 8a21 9d3c
00000160: 9087 a6be e506 ce3b aace b2bc 01b6 013d
00000170: d6a4 333d 5040 a9be d307 803b c970 12bd
00000180: 8ff4 f13c cf6f 68bc e811 6bbd 15d7 1abc
00000190: 5921 bcbe 0c58 efbc 4417 e1be 83e3 10ba
000001a0: 41c7 1f3d 0b71 7cbe 3ee6 aabe 150e 8cbe
000001b0: 06cd 22bc d2a2 c33c fae0 75bc abb9 d93c
000001c0: 4d4f 85be eb14 bbbc ed6a b7be 8b00 00bd
000001d0: 7b1f 893c 0e76 c1be 145a 533d f277 babc
000001e0: 72b5 17bd 317f 903a cc2f a3bc 2822 13bd
000001f0: 462a a8be 0602 4abd 3714 82be 936a b4be
00000200: 467b 87be 98e7 a6be fe91 8e3a 852c 18bd
00000210: 45ab a6be da9f 27bd 2ca0 123c c270 fc3c
00000220: 5d1d e7bc cea0 f93b 08c7 a0be 2a28 9fbc
00000230: fe5c 4b3d dad5 503b 93cd 0fbd cb3f 0cbd
00000240: 977b 09bd 910d c3be fd2b 233d 9f8b 813a
00000250: 328e b7be ad2c 983b bca6 da3b e3ae 993c
00000260: 0ed9 c7bc 511f 103d 2781 a53b 539f 83be
00000270: 558d b1be 87e4 a2be b818 123c 226e 4fbd
00000280: bd74 123c 343c febc c1c6 5cbc 66ac 45bc
00000290: 895a a9be cfda 44bc b2ce 12bd 702b 8bbe
000002a0: 9b73 cdbe 2c9c 91be c6ec 94bc 5499 bf3b
000002b0: 0eab aabc 2a35 673d 8671 e3bc 9d02 cfbc
000002c0: fba9 55bc 56aa 9ebe b574 98bc a5d2 96be
000002d0: 9e65 95be ed5c 9e3b a212 bbbb c7cf 03bd
000002e0: 3a0f bf3c b425 b1be c39e 95be 3af4 90be
000002f0: fb7a a03c e4e0 a6be ddea 613d 31b3 bdbe
00000300: 4445 a6be 9b7c e93b fa84 81bc 5910 c8bc
00000310: 1313 c7be 4d7f 0e3c ee8e 2dbc 62ad 18bd
00000320: dbba 8738 3b79 ecbc 0c8e 95bc cf4c 183d
00000330: 829f 25bd bc2d e83c 7eab 17bd d447 0a3d
00000340: 4d5b 4dbc 741a 4d3d dcc8 bdbc 8811 05bb
00000350: db61 41bd d587 afbe 5a78 0dbd f543 6f3c
00000360: 8200 403d c06d b4be 208c aa3c f899 bbbb
00000370: aac1 64be 4cd8 0fbc b44f b43b 0269 98be
00000380: 1b45 11bb 3e1a abbe b9da e73c 26a9 25bd
00000390: 85cd 9bbe 70f2 a1be b198 4e3c 3ec5 efbc
000003a0: 6586 3d3d f45f fb39 c005 dd3c f778 90be
000003b0: 979a 3c3d 1ed3 1dbd 61e0 9ebe 738e 83be
000003c0: 8a42 123d 4a2a 223d 2caa b4be 34b4 3a3b
000003d0: 17c2 bc3c d79f 32bc 962a af3c ab07 56bd
000003e0: 6af1 4dbd 43d3 2fbd c97b dbbe 7eae 9bbc
000003f0: f395 00bb ef2e 94be 469b 25bc 9fe6 613d

fc2.bias f4 [256]
-0.275376 -0.39145088 -0.36898756 -0.34123582 -0.3266538 -0.38673332 -0.36899182 -0.41173786
-0.08492834 -0.2687621 -0.27859294 -0.3752618 -0.4150414 -0.347325 -0.7141714 -0.43828276
-0.09203984 -0.27828884 -0.39115798 -0.21806134 -0.34344566 -0.37276274 0.006284945 -0.5008504
-0.49275792 -0.43081257 -0.78045094 -0.42221594 -0.20472082 -0.6573028 -0.39855778 -0.40949726
-0.26619744 -0.2838407 -0.40317696 -0.40666413 -0.448872 -0.25516513 -0.26798457 -0.37932852
-0.38833925 -0.3886631 -0.41421095 -0.69429946 -0.4013522 -0.5808831 -0.3973005 -0.28364503
-0.2773612 -0.33638063 -0.39892253 -0.31269357 -0.27799234 -0.34051725 -0.36691034 -0.5458991
-0.36067915 -0.26605362 -0.36154756 -0.3389603 -0.53632814 -0.3865634 -0.3022624 -0.37063754
-0.27954477 -0.38765588 -0.33562207 -0.36180526 -0.7469266 -0.32346368 -0.33664075 -0.33500844
-0.25700405 -0.38055193 -0.5920435 -0.31216416 -0.2919055 -0.23642987 -0.4039198 -0.3643756
-0.344208 -0.27648905 -0.031272504 -0.43970156 -0.4069577 -0.38800249 -0.4602595 -0.2899733
-0.17690055 -0.4072777 -0.3923621 -0.326725 -0.33263484 -0.40944147 -0.3431865 -0.28865305
-0.28731188 -0.38540718 -0.3419163 -0.28504887 -0.4113923 -0.376278 -0.29935777 -0.38105714
-0.33988222 -0.3591406 -0.09735179 -0.2875381 -0.38285363 -0.2497254 -0.3268657 -0.28528157
-0.235492 -0.4281654 -0.34214345 -0.44239888 -0.30282912 -0.28490347 -0.3775316 -0.30347604
-0.33463126 -0.15672952 -0.37195843 -0.2790514 0.70371044 -0.3365308 -0.2637578 -0.16340731
-0.38436535 -0.4098782 -0.42895845 -0.2961464 -0.45794764 -0.34642035 -0.34787282 -0.32626095
-0.4555701 -0.37566987 -0.2877971 -0.37594473 -0.34656417 -0.40210104 -0.40622595 -0.3040186
-0.38596034 -0.30703807 0.1640512 -0.3019003 -0.3922957 -0.80400014 -0.7688752 -0.43841702
-0.42529982 -0.25483856 -0.40539336 -0.40986273 -0.3450698 -0.42501 -0.4393916 -0.30155623
-0.45574224 -0.3744025 -0.36343148 -0.43569663 -0.4322375 -0.39487606 -0.41266066 -0.40201673
-0.4264836 -0.32473317 -0.26392078 -0.32452008 -0.36664534 -0.68095165 -0.41880944 -0.29742914
-0.38162962 -0.35257992 -0.3282568 -0.32763582 -0.36330447 -0.053289596 -0.32742432 -0.25992388
-0.42972937 -0.37573886 -0.49089834 -0.4281126 -0.38147566 -0.1483461 -0.4232851 -0.42963958
-0.2735239 -0.32537326 -0.049631685 -0.3182034 -0.4184374 -0.4372825 -0.34532163 -0.2813539
-0.4325631 -0.34006035 -0.33960792 -0.25866812 -0.35998678 -0.39047018 -0.4372788 0.2241621
0.17945932 -0.42965707 -0.4300907 -0.4317703 -0.42323962 -0.37327746 -0.38465333 -0.395871
-0.7436562 -0.77946943 -0.4251945 -0.39387044 -0.29217833 -0.39051068 -0.2921487 -0.32331365
-0.30822662 -0.29902643 -0.12193997 -0.41430482 -0.38070035 -0.40595692 -0.37175542 -0.08481649
-0.38045844 -0.2757751 -0.34472686 -0.36791387 -0.4396767 -0.34367564 -0.4541956 -0.36039594
-0.3109867 -0.40453896 -0.3176891 -0.3073629 -0.39909238 -0.8455451 -0.29842833 -0.25604767
-0.1320785 -0.32044372 -0.67294466 -0.32256827 -0.08742464 -0.44237682 -0.3834804 -0.33004978
00000000: 15fe 8cbe 406c c8be f0eb bcbe 76b6 aebe
00000010: 2b3f a7be e901 c6be 7fec bcbe 4ecf d2be
00000020: e9ee adbd 309b 89be bca3 8ebe 5122 c0be
00000030: 4e80 d4be 95d4 b1be f0d3 36bf 9966 e0be
00000040: 627f bcbd e07b 8ebe dc45 c8be 794b 5fbe
00000050: 1cd8 afbe c2da bebe f1f1 cd3b bb37 00bf
00000060: c44a fcbe 7793 dcbe a2cb 47bf b02c d8be
00000070: 56a2 51be ff44 28bf c40f ccbe a0a9 d1be
00000080: 084b 88be 9153 91be 366d cebe 4836 d0be
00000090: 8dd2 e5be 01a5 82be 4635 89be 5937 c2be
000000a0: 67d4 c6be dafe c6be 7513 d4be 9cbd 31bf
000000b0: 097e cdbe c1b4 14bf f96a cbbe ec39 91be
000000c0: 4a02 8ebe 153a acbe 933f ccbe 5f19 a0be
000000d0: 0355 8ebe 4758 aebe acdb bbbe 0bc0 0bbf
000000e0: f0aa b8be 2e38 88be c31c b9be 348c adbe
000000f0: cd4c 09bf a3eb c5be 23c2 9abe 34c4 bdbe
00000100: 7e20 8fbe d57a c6be a8d6 abbe 8a3e b9be
00000110: 9536 3fbf 089d a5be 2d5c acbe 3a86 abbe
00000120: 0996 83be b4d7 c2be 2a90 17bf fbd3 9fbe
00000130: a374 95be ac1a 72be 93ce cebe 708f babe
00000140: 083c b0be f98f 8dbe 9917 00bd 9020 e1be
00000150: c25c d0be 43a8 c6be 22a7 ebbe 6177 94be
00000160: 6b25 35be b486 d0be afe3 c8be 8048 a7be
00000170: 1d4f aabe 50a2 d1be 24b6 afbe 55ca 93be
00000180: 8b1a 93be 1754 c5be a70f afbe edf1 91be
00000190: 03a2 d2be 83a7 c0be 6c45 99be ec19 c3be
000001a0: 0b05 aebe 47e1 b7be 6060 c7bd 3238 93be
000001b0: 6405 c4be 04b8 7fbe f15a a7be 6d10 92be
000001c0: d124 71be 7f38 dbbe 6d2d afbe 1b82 e2be
000001d0: 6b0c 9bbe dede 91be d24b c1be 3661 9bbe
000001e0: ca54 abbe b47d 20be 5671 bebe d3df 8ebe
000001f0: 5e26 343f c44d acbe 430b 87be 3f54 27be
00000200: 89cb c4be 8edb d1be 71a0 dbbe 80a0 97be
00000210: 1d78 eabe 025e b1be 631c b2be ad0b a7be
00000220: 7c40 e9be cd57 c0be 245a 93be d47b c0be
00000230: dc70 b1be 30e0 cdbe d9fc cfbe 53a8 9bbe
00000240: 989c c5be 1834 9dbe 0afd 273e ad92 9abe
00000250: fbda c8be f4d2 4dbf 01d5 44bf 3278 e0be
00000260: e6c0 d9be 337a 82be b88f cfbe 87d9 d1be
00000270: fdac b0be e99a d9be f0f7 e0be 9465 9abe
00000280: 0c57 e9be afb1 bfbe b113 babe a113 dfbe
00000290: 3c4e ddbe 322d cabe 4248 d3be 23d5 cdbe
000002a0: 0f5c dabe 6d43 a6be a020 87be 7f27 a6be
000002b0: f0b8 bbbe d952 2ebf 316e d6be a248 98be
000002c0: f564 c3be 5b85 b4be 4611 a8be e2bf a7be
000002d0: 0b03 babe 3146 5abd 29a4 a7be be14 85be
000002e0: 7d05 dcbe d860 c0be 0757 fbbe 9331 dbbe
000002f0: c750 c3be 0ae8 17be d3b8 d8be b8f9 dbbe
00000300: 530b 8cbe 5397 a6be 984a 4bbd 8eeb a2be
00000310: 6d3d d6be 7ee3 dfbe ffcd b0be 9e0d 90be
00000320: e978 ddbe 641c aebe 17e1 adbe 2670 84be
00000330: 3050 b8be b5eb c7be 02e3 dfbe c08a 653e
00000340: 2fc4 373e 03fc dbbe d934 dcbe ff10 ddbe
00000350: ddb2 d8be 391e bfbe 48f1 c4be 9baf cabe
00000360: 4160 3ebf 4f8b 47bf 18b3 d9be 63a9 c9be
00000370: 6698 95be 04f1 c7be 8494 95be 5e89 a5be
00000380: e1cf 9dbe fe19 99be aabb f9bd c31f d4be
00000390: 28eb c2be 96d9 cfbe ba56 bebe 45b4 adbd
000003a0: 73cb c2be 6532 8dbe 0a80 b0be 355f bcbe
000003b0: 4e1d e1be 41f6 afbe 538c e8be d185 b8be
000003c0: a639 9fbe bb1f cfbe 25a8 a2be ac5e 9dbe
000003d0: d655 ccbe a575 58bf 99cb 98be ae18 83be
000003e0: 963f 07be 3311 a4be 1a46 2cbf ab27 a5be
000003f0: b10b b3bd 377f e2be 8b57 c4be 49fc a8be

fc3.weight f4 [2, 256]
-0.28750202 0.3744436 0.39048007 -0.32160893 -0.28836995 -0.24192326 0.30553403 0.40824157
-0.11728632 -0.3050718 -0.33392912 0.38720414 -0.21753119 0.16445918 0.42297062 0.39792177
0.07796934 -0.31166482 0.38004082 -0.76502377 0.03159114 -0.33943242 -0.10007643 -0.282703
-0.22292432 -0.072142914 0.032315563 0.38269487 -0.28862208 0.40938726 0.36003503 -0.12734537
-0.41825262 -0.2925994 -0.2588571 0.13114363 0.38905308 -0.18329056 -0.2679264 0.40319297
0.36522788 -0.2625014 0.4051352 0.40964445 -0.24734066 -0.15128002 -0.1619598 -0.2448533
-0.3851357 -0.030807097 0.4196892 -0.17586137 -0.24126099 -0.275306 -0.016785888 0.3956503
-0.042299777 -0.23232792 0.41678843 0.13931224 -0.2528077 0.3933435 0.3798672 0.36603054
-0.5018578 0.38000777 -0.22559936 -0.31784797 0.40292567 0.3018133 -0.21429762 0.34558728
-0.26646677 -0.20525612 0.3843851 -0.26048297 -0.26194957 -0.13351795 0.40020555 -0.02386247
-0.26465815 -0.29331273 -0.047149945 -0.13356762 0.37918702 -0.33480525 0.40571022 -0.29708725
-0.16119759 0.39888066 0.3941559 -0.24033356 -0.34181815 0.36448374 -0.21822797 -0.28689384
-0.30629724 0.3606598 -0.3003967 -0.2812202 0.35163462 0.33019713 -0.25559115 0.36799577
0.3196291 0.3793093 0.002453814 -0.21977507 0.38723302 0.0802931 -0.28540775 -0.19691157
0.20271586 -0.06878987 -0.3369447 0.07292789 0.22698925 -0.2687715 -0.3544818 0.40418297
-0.28966242 0.28867164 -0.06405707 0.3514792 0.19769016 -0.28534323 -0.28484756 -0.20178361
0.4523561 0.40486005 0.39578995 -0.3094444 0.08146416 -0.04251032 0.34109962 -0.2954086
0.37612802 0.23906437 -0.30988607 -0.3299063 0.33040005 -0.34101635 0.3673697 -0.259259
0.38070917 0.35772032 0.19548605 0.12342642 -0.030947924 -0.012076313 0.38572025 -0.033281136
0.38282436 -0.25683883 0.37244558 0.39897624 -0.16916962 0.39342618 -0.06883182 0.3321353
0.38281754 0.39485633 0.38881522 0.38991842 0.37975827 -0.28003755 0.39752167 0.0812299
-0.17445591 -0.28607476 -0.22754492 0.30267063 -0.0429387 0.33148623 0.33544585 0.42957753
0.46940604 -0.38173145 0.37352243 0.024296992 0.10634345 -0.04295218 -0.21427545 -0.13486077
-0.3330026 0.3066344 0.3874169 -0.27057758 0.40383214 0.16431843 -0.03934168 0.01894165
-0.29778636 0.33391285 0.017975885 -0.3111592 -0.0697658 0.38872114 0.32192463 0.30485672
0.018258762 -0.31300542 -0.2152162 -0.28306997 -0.005311511 -0.23365906 0.39332613 0.14489637
0.10817492 -0.09798133 0.36230385 0.36426714 0.36181343 0.3686879 0.35822612 0.36323252
0.3129229 -0.00070928026 -0.26188323 0.39776778 -0.29630718 -0.22558805 -0.30114692 -0.10771509
0.075745285 -0.30347624 -0.09746994 0.40367773 -0.03233003 0.04014891 -0.004322951 -0.27950174
-0.049557738 -0.2796306 0.32939476 -0.29868978 0.38604423 -0.3226612 -0.35691795 0.3014176
-0.22789945 0.3940865 0.0006011813 -0.3105189 -0.042787645 0.40887633 0.31022814 -0.2818313
0.027588908 0.33192238 0.41529182 -0.292964 -0.10993027 -0.28775463 0.020353401 0.34046975
00000000: 7733 93be 12b7 bf3e 01ed c73e eda9 a4be
00000010: 3aa5 93be bbba 77be f56e 9c3e 0a05 d13e
00000020: cf33 f0bd 5f32 9cbe c2f8 aabe 9f3f c63e
00000030: 7fc0 5ebe fd67 283e 9b8f d83e 67bc cb3e
00000040: 64ae 9f3d 8892 9fbe b694 c23e 99d8 43bf
00000050: b665 013d 16ca adbe dff4 ccbd 73be 90be
00000060: 4646 64be aabf 93bd 535d 043d 95f0 c33e
00000070: 46c6 93be 359b d13e 8356 b83e d366 02be
00000080: 3525 d6be 97cf 95be eb88 84be 844a 063e
00000090: f731 c73e 85b0 3bbe a62d 89be 4f6f ce3e
000000a0: 26ff ba3e 9566 86be e26d cf3e ebbc d13e
000000b0: df46 7dbe 26e9 1abe cad8 25be d3ba 7abe
000000c0: 8230 c5be 2a5f fcbc 81e1 d63e 0115 34be
000000d0: 1f0d 77be e8f4 8cbe 8f82 89bc ad92 ca3e
000000e0: 8842 2dbd 5fe7 6dbe 4b65 d53e dea7 0e3e
000000f0: 0370 81be 5264 c93e f47d c23e 5b68 bb3e
00000100: c179 00bf 6190 c23e 8503 67be f8bc a2be
00000110: 464c ce3e 4687 9a3e d670 5bbe d1f0 b03e
00000120: 556e 88be a92e 52be 20ce c43e 065e 85be
00000130: 411e 86be eeb8 08be bee7 cc3e 3a7b c3bc
00000140: 4681 87be 162d 96be 4d20 41bd f3c5 08be
00000150: cd24 c23e 986b abbe 40b9 cf3e d21b 98be
00000160: fb10 25be 163a cc3e cdce c93e 001a 76be
00000170: ca02 afbe 9d9d ba3e 2777 5fbe c0e3 92be
00000180: fed2 9cbe 67a8 b83e 99cd 99be 18fc 8fbe
00000190: 7409 b43e 990f a93e d8dc 82be f169 bc3e
000001a0: 6da6 a33e d434 c23e 2bd0 203b b70c 61be
000001b0: 6843 c63e b570 a43d f720 92be 30a3 49be
000001c0: bf94 4f3e b4e1 8cbd 0484 acbe 385b 953d
000001d0: df6f 683e 6b9c 89be a37e b5be 12f1 ce3e
000001e0: a24e 94be c5cc 933e 5a30 83bd 15f5 b33e
000001f0: 4a6f 4a3e 8218 92be 8ad7 91be 5da0 4ebe
00000200: 389b e73e d149 cf3e fba4 ca3e 7f6f 9ebe
00000210: aed6 a63d 4d1f 2ebd 9ca4 ae3e cc3f 97be
00000220: da93 c03e 4acd 743e 63a9 9ebe 7be9 a8be
00000230: 322a a93e b299 aebe e217 bc3e 98bd 84be
00000240: 50ec c23e 1e27 b73e 7f2d 483e fec6 fc3d
00000250: 8086 fdbc badb 45bc 207d c53e cd51 08bd
00000260: 8e01 c43e 6180 83be 30b1 be3e 9d46 cc3e
00000270: cd3a 2dbe 286f c93e b2f7 8cbd a30d aa3e
00000280: a900 c43e 9c2a ca3e ca12 c73e 63a3 c73e
00000290: ad6f c23e 1561 8fbe f687 cb3e dd5b a63d
000002a0: 92a4 32be 6478 92be 8901 69be a5f7 9a3e
000002b0: 7ee0 2fbd 90b8 a93e 8fbf ab3e 96f1 db3e
000002c0: fd55 f03e 4e72 c3be 553e bf3e 7c0a c73c
000002d0: 98ca d93d a0ee 2fbd 066b 5bbe f118 0abe
000002e0: 517f aabe 2fff 9c3e 825b c63e 2589 8abe
000002f0: 16c3 ce3e 1743 283e be24 21bd 852b 9b3c
00000300: 7477 98be a0f6 aa3e 2a42 933c 4250 9fbe
00000310: 5fe1 8ebd 7506 c73e 4ed3 a43e 2e16 9c3e
00000320: 6693 953c 3f42 a0be a361 5cbe 8cee 90be
00000330: 2f0c aebb 5244 6fbe 0b62 c93e b75f 143e
00000340: d08a dd3d 6faa c8bd e47f b93e 3981 ba3e
00000350: 9c3f b93e a9c4 bc3e 6a69 b73e 9df9 b93e
00000360: 6e37 a03e feee 39ba 8f15 86be 38a8 cb3e
00000370: 93b5 97be 8e00 67be ee2f 9abe bb99 dcbd
00000380: 5820 9b3d 3d61 9bbe 529e c7bd d9ae ce3e
00000390: 7e6c 04bd 2f73 243d 8ba7 8dbb da1a 8fbe
000003a0: 0efd 4abd be2b 8fbe 6ea6 a83e deed 98be
000003b0: 97a7 c53e d933 a5be f3bd b6be 6853 9a3e
000003c0: 795e 69be b5c5 c93e 9898 1d3a 55fc 9ebe
000003d0: 1942 2fbd 3d58 d13e 39d6 9e3e 314c 90be
000003e0: 2202 e23c bbf1 a93e 21a1 d43e 61ff 95be
000003f0: 1f23 e1bd 9354 93be 2dbc a63c 0d52 ae3e

fc3.bias f4 [2]
0.55041826 0.43329167
00000000: 36e8 0c3f 68d8 dd3e
