weights/weights.pt (torch, 272215 bytes, 6 tensors)

fc1.weight f4 [256, 4]
0	0xbe8c8471	-0.27444795
1	0xbeba27f4	-0.36358607
2	0xbea56452	-0.323031
3	0x3dbfaa8b	0.093587
4	0xbdb2ddf1	-0.08733738
5	0x3e042941	0.12906362
6	0x3f8d3a7a	1.1033471
7	0x3e85776c	0.26067674
8	0xbda363b8	-0.07978004
9	0x3c9150c9	0.017738717
10	0x3eb3381e	0.35003752
11	0xbe21a8c3	-0.15787034
12	0xbee5b036	-0.44861
13	0xbeb29754	-0.3488108
14	0xbee5cdd0	-0.44883585
15	0xbbf2d27a	-0.0074103447
16	0xbd063176	-0.032762013
17	0x3d96f563	0.073710226
18	0x3f8eac65	1.1146361
19	0x3e49f2ad	0.1972148
20	0xbe5d993b	-0.21640484
21	0x3e85e6b3	0.26152572
22	0xbd369c9e	-0.044582956
23	0x3e6eb65c	0.23311752
24	0x3e58bb34	0.21165162
25	0x3d762715	0.060095865
26	0xbf5f44cf	-0.8721437
27	0xbd9c9e29	-0.07647354
28	0x3e4c13ab	0.19929378
29	0x3e00453e	0.12526414
30	0xbd82a85d	-0.06379769
31	0xbc62a281	-0.013832689
32	0xbc9e2dc5	-0.019308934
33	0xbc5b38b9	-0.013380223
34	0x3dea418d	0.11438284
35	0xbd9e0444	-0.07715657
36	0xbe62ef80	-0.22161674
37	0x3e9a8a75	0.3018376
38	0xbdea60d6	-0.11444251
39	0x3dd99ded	0.10625825
40	0x3f24fb12	0.644456
41	0xbe829e30	-0.25511312
42	0xbddcf100	-0.107881546
43	0x3ea82152	0.3283792
44	0x3e5aec23	0.21379142
45	0xbe901179	-0.2813833
46	0x3c53eebf	0.0129353395
47	0x3e38ad70	0.18034911
48	0x3ddba72d	0.107252456
49	0x3e871436	0.26382607
50	0xbed18644	-0.4092275
51	0xbca2bbde	-0.019864973
52	0x3e162558	0.14662683
53	0xbe06f900	-0.13180923
54	0xbebfe276	-0.37477463
55	0xbdbe89f7	-0.093036585
56	0x3dcc223f	0.099674694
57	0xbe38e112	-0.18054608
58	0x3e923a63	0.2856017
59	0xbe4f4f65	-0.2024513
60	0xbe0dcfcc	-0.138488
61	0xbe03fffc	-0.12890619
62	0xbec9b529	-0.39396027
63	0x3c9bf9d7	0.019040031
64	0xbceb39fc	-0.028714173
65	0x3da59c4d	0.08086453
66	0xbe50c8bb	-0.20389073
67	0x3d1adc54	0.037807778
68	0x3d0b90c3	0.034073602
69	0x3e275d62	0.16344216
70	0x3ec4744f	0.38369986
71	0xbea06cb4	-0.31332934
72	0xbe32e692	-0.17470768
73	0x3daa709c	0.0832226
74	0x3f0a7fe0	0.5410137
75	0x3e5ff85e	0.21872088
76	0xbdc8294a	-0.097735
77	0x3d2e329e	0.04252874
78	0xbdaabff5	-0.08337394
79	0xbd94999a	-0.0725586
80	0x3e894160	0.2680769
81	0x3e9b1f7e	0.30297464
82	0x3f22b4a8	0.6355691
83	0x3e316c0d	0.17326374
84	0xbe634289	-0.2219335
85	0xbda96aaa	-0.08272298
86	0x3ecffcb3	0.40622482
87	0xbda0424c	-0.07825145
88	0x3ebeadf2	0.37242085
89	0x3e367944	0.17819697
90	0xbf15fcf9	-0.5858913
91	0xbe85719e	-0.26063246
92	0x3ed29f11	0.41136983
93	0x3d760d78	0.06007144
94	0xbdab6784	-0.083693534
95	0xbc6157f3	-0.013753879
96	0x3f2dd5e1	0.6790448
97	0x3e5aea8e	0.21378538
98	0xbf2eb777	-0.68248695
99	0xbdf2a4d6	-0.11847846
100	0x3dc534f5	0.096292414
101	0xbdc4d5cf	-0.09611093
102	0xbe45fc68	-0.19334567
103	0x3d851b71	0.06499375
104	0xbe92b4e4	-0.28653634
105	0xbea465ea	-0.32109004
106	0xbeee76a6	-0.46574897
107	0xbe6aca59	-0.22928752
108	0x3e1bf30e	0.15229437
109	0xbaf19cf5	-0.0018433618
110	0x3e9a8d88	0.30186105
111	0x3d113fab	0.03546111
112	0x3e279684	0.16366011
113	0x3e4d14c4	0.20027453
114	0x3f502438	0.81305265
115	0x3e90a325	0.2824947
116	0x3e187e90	0.1489203
117	0x3e7d5537	0.24739538
118	0x3f2c7bbd	0.6737631
119	0x3e1f28e2	0.1554294
120	0x3d879730	0.066206336
121	0xbe0d08e6	-0.13772926
122	0x3f23386c	0.6375797
123	0x3e979dea	0.29612666
124	0xbd4e8559	-0.05042014
125	0x3d9c92f2	0.07645215
126	0x3f59e97d	0.851219
127	0x3e3a8a69	0.18216862
128	0x3f32f10d	0.69899064
129	0x3ea3871a	0.31939012
130	0xbee6b596	-0.45060414
131	0xbd586cf0	-0.052838266
132	0x3ece952d	0.40348187
133	0xbdaec98e	-0.08534537
134	0xbf09371f	-0.53599733
135	0xbe604b6e	-0.21903774
136	0x3ee6c0ad	0.45068875
137	0xbcd67561	-0.026179017
138	0xbf252021	-0.6450215
139	0xbdc24264	-0.09485319
140	0xbe31b70b	-0.17354982
141	0x3e6c3814	0.23068267
142	0x3e033aa8	0.12815344
143	0x3dcb85d5	0.09937636
144	0x3d584a40	0.052805185
145	0x3e5f0bce	0.21781847
146	0x3ddddf1e	0.10833572
147	0xbe79f7ef	-0.24410985
148	0x3da12655	0.078686394
149	0x3da378ca	0.07982023
150	0xbe321c4d	-0.17393608
151	0x3de01433	0.10941353
152	0xbd4c4813	-0.049873423
153	0xbdc1e980	-0.09468365
154	0x3dd6ccc4	0.10488275
155	0x3e1537ce	0.14572069
156	0x3de6c5ee	0.11268221
157	0x3b2de29c	0.0026532775
158	0x3f2ae022	0.6674825
159	0x3e8e06a7	0.2773945
160	0x3e0446e4	0.12917668
161	0x3c78ba42	0.015181126
162	0x3f449d4c	0.76802516
163	0x3dca5e88	0.09881312
164	0x3ef56da9	0.47935227
165	0x3e47bf4f	0.19506572
166	0x3e9ec8f4	0.3101269
167	0x3e6fdc31	0.2342384
168	0x3ec6f108	0.38855767
169	0xbdb41001	-0.08792115
170	0xbf5f9864	-0.87341905
171	0xbe79a9f9	-0.24381246
172	0xbdbff118	-0.09372157
173	0x3e186476	0.14882073
174	0x3f6a50bf	0.9152946
175	0x3e896cde	0.26840872
176	0x3eb68afc	0.35652912
177	0xbdb80b83	-0.08986571
178	0xbf8c2423	-1.0948528
179	0xbe79b934	-0.24387056
180	0xbe665ecc	-0.224971
181	0xbd9ee1b9	-0.07757897
182	0xbf3364ea	-0.7007586
183	0xbe700ed6	-0.2344316
184	0xbe4c4404	-0.19947821
185	0x3e33af23	0.17547278
186	0x3f5a87b9	0.85363346
187	0x3df99f20	0.12188554
188	0xbe4c6336	-0.19959721
189	0xbf090cf8	-0.53535414
190	0x3d070f64	0.032973662
191	0xbe1da468	-0.15394747
192	0x3d67dac1	0.056605104
193	0xbeb271f9	-0.3485258
194	0xbed65b5a	-0.4186657
195	0x3dbf78db	0.09349223
196	0xbe9bb42d	-0.304109
197	0xbdd728f9	-0.10505862
198	0xbf2a468d	-0.665139
199	0xbe036a07	-0.12833415
200	0x3e9055a8	0.2819035
201	0x3e814adc	0.25252426
202	0xbf10646b	-0.56403226
203	0xbe5aa462	-0.2135177
204	0xbd648467	-0.05579033
205	0xbd7c0632	-0.061529346
206	0x3e72d2a4	0.23713166
207	0x3e086933	0.1332138
208	0x3dc871a1	0.09787298
209	0x3df3d928	0.11906654
210	0x3f66231e	0.89897335
211	0xbd8ff1c2	-0.070285335
212	0xbe01bbb0	-0.12669253
213	0xbda39754	-0.07987848
214	0x3e9a00bd	0.30078688
215	0x3e7541dc	0.23950905
216	0xbedd47ad	-0.43218747
217	0xbd8dd129	-0.0692466
218	0x3eace4b4	0.33768237
219	0x3dc29755	0.095015205
220	0xbf0de29a	-0.5542389
221	0x3dc71f39	0.09722752
222	0x3de07688	0.10960108
223	0x3c92be75	0.017913083
224	0xbe0fb98a	-0.14035621
225	0xbe64d959	-0.22348537
226	0x3e5c9b60	0.21543646
227	0xbe67f71d	-0.2265286
228	0x3e4777c5	0.19479282
229	0xbe0ec390	-0.13941789
230	0xbf2160be	-0.6303824
231	0x3b48b7ac	0.0030627055
232	0xbec32e32	-0.38121182
233	0xbba2d70b	-0.004969483
234	0x3e70af88	0.2350446
235	0x3d954ec2	0.072904125
236	0x3c533577	0.012891165
237	0xbdd6b0f9	-0.104829736
238	0x3cdfd32d	0.027322376
239	0x3e104276	0.14087853
240	0x3f040aa5	0.5157874
241	0xbd8976fa	-0.06712146
242	0xbecffd9c	-0.40623176
243	0x3d793deb	0.060850065
244	0xbed03ac3	-0.40669832
245	0x3e3b1065	0.18267973
246	0x3ed859af	0.42255923
247	0xbe05ea38	-0.13077629
248	0xbe493058	-0.19647348
249	0x3e759e96	0.23986277
250	0x3e5049b6	0.20340618
251	0xbe3ca92c	-0.18423909
252	0x3e806ab9	0.25081423
253	0x3e799e49	0.24376787
254	0xbf33f674	-0.7029793
255	0xbe0a21da	-0.13489476

fc1.bias f4 [256]
0	0x3e3de4fd	0.18544383
1	0xbe7d6028	-0.24743712
2	0x3edbb802	0.42913824
3	0xbe8f2ab3	-0.27962264
4	0xbe5d3061	-0.21600486
5	0x3e95c08f	0.29248473
6	0xbe3ab52c	-0.18233174
7	0x3edb635b	0.4284924
8	0x3eb4afd8	0.35290408
9	0xbe2ed565	-0.17073591
10	0x3e555b93	0.20835714
11	0xbe615531	-0.22005154
12	0xbe96446e	-0.29349083
13	0x3eae49df	0.34040734
14	0x3ecc371b	0.39885792
15	0x3ee1663d	0.44023314
16	0x3ea2bf81	0.3178673
17	0x3e9e0671	0.3086429
18	0x3ea91390	0.33022738
19	0x3eba5ad2	0.36397415
20	0xbcc2b8e5	-0.023769805
21	0x3e58cbd0	0.21171498
22	0xbe9159f7	-0.2838895
23	0x3e7c2b22	0.24625829
24	0xbcfd517d	-0.030922646
25	0x3eb78f1e	0.35851377
26	0xbc93ac2d	-0.018026436
27	0x3eb8e5a9	0.36112717
28	0x3d3f435b	0.046695095
29	0xbdd2ffc0	-0.10302687
30	0xbe54ffdb	-0.20800726
31	0xbe3e114f	-0.1856129
32	0x3df4e1f5	0.119571604
33	0xbe52c0c2	-0.20581344
34	0xbde4a630	-0.1116451
35	0x3e7568f6	0.2396582
36	0x3e469cdc	0.19395775
37	0x3e693886	0.22775468
38	0x3ed1b42f	0.40957782
39	0xbd90c17c	-0.07068154
40	0x3e0c5ea5	0.13707979
41	0x3e318987	0.17337619
42	0xbe78785c	-0.24264663
43	0xbe635554	-0.22200519
44	0xbe670ca1	-0.22563411
45	0xbe261465	-0.16218717
46	0x3e80dbac	0.25167596
47	0xbc9b6155	-0.01896731
48	0xbd1dc8ae	-0.03852146
49	0xbdd27cdc	-0.10277721
50	0x3e26b455	0.16279729
51	0x3ebaef58	0.3651073
52	0x3e02a6b7	0.12758909
53	0xbea53ddb	-0.32273754
54	0x3c6504d3	0.013978201
55	0xbd962c21	-0.07332636
56	0x3eddbabc	0.4330653
57	0x3eacf2c1	0.33778957
58	0x3e86ce8a	0.26329452
59	0x3e867b7e	0.26266092
60	0xbadb9d4a	-0.001675525
61	0x3e3c7ee4	0.1840778
62	0x3eda2d34	0.42612612
63	0xbe7d2329	-0.24720444
64	0x3e05195d	0.12997957
65	0xbcb37aa8	-0.021909073
66	0xbe62744e	-0.22114679
67	0xbe4ef7a4	-0.20211655
68	0x3da1632f	0.07880246
69	0x3dd04938	0.10170215
70	0x3ee2ba34	0.44282687
71	0xbdafb848	-0.08580071
72	0x3eaa467e	0.33256906
73	0xbe33e514	-0.17567855
74	0x3ebfacd9	0.3743656
75	0x3eeeb3aa	0.46621448
76	0x3e5b5e2e	0.21422645
77	0x3e0ca884	0.13736159
78	0x3e174c71	0.14775254
79	0xbe6989bd	-0.22806449
80	0x3e443cbc	0.19163793
81	0x3e587ae6	0.21140632
82	0xbe03892d	-0.12845297
83	0x3ce59f12	0.028029952
84	0x3e343887	0.17599688
85	0x3e7f6fc5	0.2494498
86	0x3ec13940	0.3773899
87	0x3ea6a6d7	0.32549164
88	0x3ea63e92	0.32469612
89	0xbe3df8a0	-0.18551874
90	0xbd4f3d29	-0.050595436
91	0x3e7a28c2	0.2442961
92	0x3ca2744d	0.019830847
93	0xbe4d0036	-0.20019612
94	0xbe5673de	-0.20942637
95	0xbe4cbbd5	-0.19993527
96	0x3e504888	0.20340168
97	0x3da6f2ab	0.08151754
98	0x3e6eb424	0.23310906
99	0xbe72d0cb	-0.2371246
100	0xbe1749a3	-0.14774184
101	0xbe34ba54	-0.17649204
102	0xbe66cb53	-0.225385
103	0x3ea65b74	0.32491648
104	0xbdcddd80	-0.100520134
105	0x3dbc68b8	0.09199661
106	0x3e2ccbbe	0.16874596
107	0xbe781dfc	-0.24230188
108	0x3e1a995c	0.15097564
109	0xbe53b116	-0.20673022
110	0xbe86d9f9	-0.26338175
111	0x3eb4f739	0.35344866
112	0xbe093a60	-0.13401175
113	0x3e9f4129	0.311044
114	0x3ee7efd4	0.45300162
115	0x3ea030cb	0.31287226
116	0x3eb812d9	0.3595188
117	0x3cc79e54	0.024367489
118	0x3ecc25f3	0.39872703
119	0x3ec9e8bc	0.39435375
120	0x3e2f3379	0.17109479
121	0x3ec2b541	0.3802891
122	0x3ec165b4	0.37772906
123	0x3eaa5621	0.33268836
124	0x3e8d4684	0.27592862
125	0xbe3de02a	-0.18542543
126	0x3e51443c	0.20436186
127	0x3eb9cb50	0.36287928
128	0xbe4c4b5a	-0.1995062
129	0xbcf68d47	-0.030096663
130	0x3e99eff5	0.30065885
131	0x3e9c6808	0.3054812
132	0x3d2d8d41	0.04237104
133	0xbe01d054	-0.12677127
134	0x3d3f7192	0.04673917
135	0x3ee8a405	0.45437637
136	0x3eb88d28	0.36045194
137	0x3ea69142	0.32532698
138	0x3ed7c67b	0.42143616
139	0xbe59ee56	-0.21282324
140	0xbc440733	-0.011964607
141	0x3ec2a4ee	0.38016456
142	0x3e66926a	0.2251679
143	0xbcf8c446	-0.030367028
144	0xbdd8df26	-0.10589437
145	0x3d7d9abb	0.06191514
146	0x3e703010	0.23455834
147	0xbe5d6e23	-0.21624045
148	0xbe00ef92	-0.12591389
149	0x3e80f873	0.25189552
150	0x3d9b904f	0.07595884
151	0xbe0d593b	-0.1380357
152	0xbe2c8416	-0.16847262
153	0xbe59e087	-0.21277057
154	0x3ef0d839	0.47039965
155	0x3e96a8eb	0.2942575
156	0xbe07d0c4	-0.13263232
157	0xbdcc5475	-0.099770464
158	0x3e8745dd	0.2642049
159	0x3ed15811	0.40887502
160	0xbe331509	-0.17488493
161	0x3ea87620	0.32902622
162	0x3d501321	0.050799493
163	0x3ebefc22	0.37301737
164	0x3ecebc01	0.4037781
165	0x3e50b55b	0.20381682
166	0x3ebfbc25	0.3744823
167	0xbe37baab	-0.17942302
168	0xbe443b10	-0.19163156
169	0x3e85ad5c	0.26108825
170	0x3eb7d8d5	0.35907617
171	0xbe6e73e3	-0.23286395
172	0xbe88c118	-0.2670982
173	0x3d63aea2	0.055586465
174	0x3cbc4b9d	0.022985274
175	0x3e4e1a27	0.20127164
176	0x3e522357	0.20521294
177	0x3de64780	0.11244106
178	0xbe6dbf16	-0.23217425
179	0x3d5f7adf	0.05456054
180	0x3b8a6507	0.004223469
181	0x3dc7eb19	0.09761638
182	0x3eb62042	0.35571486
183	0xbd2e95ee	-0.042623453
184	0xbe81ed68	-0.2537644
185	0x3ed377e3	0.41302404
186	0x3ea364a3	0.31912717
187	0x3e675140	0.22589588
188	0x3e6f53ef	0.23371862
189	0xbcc35193	-0.023842609
190	0x3e4d9015	0.20074494
191	0x3d0570dd	0.032578338
192	0x3e99229e	0.29909223
193	0xbe71491d	-0.23563047
194	0x3e3d4f72	0.18487337
195	0xbe7e10f7	-0.24811159
196	0x3c4e6743	0.012597862
197	0x3ee38588	0.44437814
198	0x3e091b80	0.13389397
199	0x3ee336db	0.4437779
200	0xbe631284	-0.22175032
201	0xbe835eb7	-0.256582
202	0xbe67aa3f	-0.22623537
203	0x3eb05d3e	0.34446138
204	0x3e8c3241	0.2738209
205	0x3ecd4d75	0.40098158
206	0xbe6dcbb4	-0.23222238
207	0xbe8229f1	-0.25422624
208	0xbe6f473d	-0.23367019
209	0xbca9f557	-0.02074687
210	0x3e2dd03f	0.16973971
211	0x3e820471	0.25394014
212	0xbdb1704b	-0.08663996
213	0x3ebea02e	0.37231582
214	0x3e042848	0.12905991
215	0x3e737f51	0.23779036
216	0x3eb5af46	0.35485286
217	0x3e9aab86	0.30208987
218	0x3ecd122e	0.40052933
219	0xbe4a7f6d	-0.19775172
220	0xbe4334be	-0.19063088
221	0x3e07736a	0.1322762
222	0xbd1a1c3d	-0.037624586
223	0xbe65c463	-0.22438197
224	0x3e4529c7	0.19254218
225	0x3ed8a427	0.42312738
226	0x3e9e8b54	0.30965674
227	0x3ee580b2	0.4482475
228	0x3e9e847f	0.30960461
229	0xbe73e118	-0.23816335
230	0x3ecd2325	0.40065876
231	0x3e7f50f7	0.2493323
232	0x3db7f0b5	0.08981458
233	0x3ec0b241	0.37635997
234	0x3ed1dd18	0.40988994
235	0xbd64cc64	-0.055858985
236	0xbe2ce085	-0.16882522
237	0x3e00df88	0.1258527
238	0xbe209823	-0.15683036
239	0xbe578546	-0.21046934
240	0xbe3567e5	-0.17715414
241	0x3eae54e7	0.3404915
242	0xbe50e72e	-0.20400688
243	0xbcd59577	-0.026072247
244	0x3db10fdc	0.08645603
245	0x3e8771f6	0.26454133
246	0x3ed5831d	0.41701594
247	0x3ed7fcc8	0.42185044
248	0x3e5304e4	0.20607334
249	0xbd56196d	-0.05227034
250	0x3e4b8312	0.19874218
251	0x3ed19912	0.40937096
252	0xbe3e681e	-0.18594405
253	0xbdf47046	-0.11935477
254	0xbe0c28da	-0.13687459
255	0xbbe0edc7	-0.006864283

fc2.weight f4 [256, 256]
0	0xbc22b412	-0.009930627
1	0x3e9e33eb	0.30898985
2	0x3e852fd3	0.2601305
3	0xbecbb619	-0.39787367
4	0x3ebb3ff6	0.36572236
5	0x3dd11856	0.1020972
6	0xbff55758	-1.916728
7	0x3e587b41	0.21140768
8	0x3e466569	0.19374622
9	0x3c3fd8ec	0.011709433
10	0x3c5bb292	0.013409274
11	0xbe50bb98	-0.20384061
12	0xbeb5e047	-0.35522673
13	0x3e4c1652	0.1993039
14	0x3e6580fc	0.22412485
15	0x3de3bd00	0.11120033
16	0x3e1dd992	0.15415028
17	0x3e37f2cb	0.17963712
18	0x3d8f26a8	0.06989795
19	0x3e644e14	0.2229541
20	0xbd807d07	-0.06273847
21	0x3e513d4c	0.20433539
22	0xbf49e242	-0.7886087
23	0x3e07c8a9	0.1326014
24	0xbf6216a3	-0.8831579
25	0x3db5439a	0.088507846
26	0xbd5ab4d5	-0.05339511
27	0x3e359467	0.17732392
28	0xbe203ce9	-0.15648235
29	0xbee5a69f	-0.44853684
30	0xbd239455	-0.039936382
31	0x3e38aa98	0.18033826
32	0xbe87ee68	-0.26549077
33	0xbfab7726	-1.3395736
34	0xbfce4e23	-1.6117595
35	0x3e2f55cd	0.17122574
36	0x3e4f42fa	0.20240393
37	0x3dd92476	0.106026575
38	0x3d999039	0.074982114
39	0x3d71a963	0.05899943
40	0xbea2f6c1	-0.31828883
41	0xbd59b386	-0.053149723
42	0xc003c859	-2.0591033
43	0x3e67ef5b	0.226499
44	0xbfff4b2e	-1.9944818
45	0xbf395feb	-0.72411984
46	0x3d458ea3	0.048231732
47	0x3c135511	0.008992449
48	0xbdcba78b	-0.09944066
49	0xbe5372b0	-0.20649219
50	0xbe15674b	-0.14590184
51	0x3db85eed	0.09002481
52	0x3ce6bcb8	0.02816616
53	0xbec049d1	-0.37556317
54	0x3e1133bd	0.14179893
55	0xbe1f1071	-0.15533616
56	0x3e7409b7	0.23831831
57	0x3e08d034	0.13360673
58	0x3da388b2	0.07985057
59	0x3dccadf8	0.099941194
60	0xbf4eab36	-0.8073
61	0x3e6a9dfe	0.22911832
62	0x3e582ba6	0.211104
63	0xbf8e7bb6	-1.1131504
64	0x3d2bb73a	0.041922785
65	0xbefacade	-0.489829
66	0xbff20251	-1.8906957
67	0x3ed182b0	0.4092002
68	0xbea49ba9	-0.3215001
69	0xbb1fde9f	-0.0024394167
70	0x3d461a1e	0.04836475
71	0xbf25cd13	-0.64766043
72	0x3e4b0122	0.19824651
73	0xbfe26eb9	-1.769004
74	0x3e5ad027	0.21368466
75	0x3e664bb9	0.22489823
76	0x3e081249	0.13288225
77	0x3cc83eda	0.024444032
78	0x3eb0e290	0.34547853
79	0xbfc9dad3	-1.5769905
80	0x3e91916e	0.28431267
81	0x3e1a43bd	0.15064903
82	0xbdfc94cf	-0.123330705
83	0xbda28621	-0.07935739
84	0xbd7a7159	-0.061143253
85	0x3d89b555	0.067240395
86	0x3dec80cd	0.11548004
87	0xbdf348c8	-0.11879116
88	0x3d349f0c	0.04409699
89	0x3dc84f54	0.09780756
90	0x3d4cf960	0.05004251
91	0x3d99f33a	0.07517095
92	0x3ea934ba	0.3304804
93	0x3e888035	0.26660314
94	0x3d57b943	0.052666914
95	0x3e1e89d2	0.15482262
96	0x3dc177c5	0.09446672
97	0xbd99599f	-0.07487797
98	0x3cab1843	0.020885592
99	0xc018eeec	-2.3895826
100	0xbfb9f00a	-1.4526379
101	0xbeb9667e	-0.36211008
102	0xbe81e171	-0.2536731
103	0x3dfd240c	0.12360391
104	0x3e843491	0.25821355
105	0x3e9bd25b	0.30433926
106	0xbebc6590	-0.36796236
107	0xbe41c679	-0.18923368
108	0x3afe28d9	0.0019390836
109	0x3e04bd6c	0.12962884
110	0xbf0f3292	-0.5593654
111	0x3d8a1683	0.06742575
112	0xbed66c68	-0.41879582
113	0x3da87bdd	0.0822675
114	0x3e4ea48c	0.20179957
115	0x3de58da1	0.11208654
116	0x3e22db4b	0.15903966
117	0x3dab82c3	0.0837455
118	0x3dc93ca5	0.0982602
119	0x3d66655c	0.056249008
120	0xbe411339	-0.18854989
121	0x3e48c2da	0.1960558
122	0x3d8aba0d	0.067737676
123	0x3d1bc29c	0.03802739
124	0x3defcc48	0.117088854
125	0xbbdf0af2	-0.0068067247
126	0x3e5ea83b	0.21743862
127	0x3dea082f	0.11427342
128	0x3c97ba62	0.018521491
129	0xbe16367b	-0.1466922
130	0x3e5e52c6	0.21711263
131	0x3e055f93	0.1302474
132	0xbe00eb44	-0.12589747
133	0xbd02d665	-0.031942744
134	0xbe02a177	-0.12756906
135	0x3e4e9960	0.20175695
136	0x3e31942d	0.17341681
137	0x3e5f169b	0.21785967
138	0x3e5e575a	0.2171301
139	0xbef49bdb	-0.47775158
140	0xbf62814d	-0.8847855
141	0x3ddc3535	0.10752336
142	0x3e52a85a	0.20572034
143	0xbdc1e1b6	-0.09466879
144	0xbeb9ddb6	-0.36301965
145	0xbda8da7c	-0.082447976
146	0x3e247f9c	0.16064304
147	0xbe23e182	-0.16003993
148	0xbf3a8c48	-0.728703
149	0x3df43e76	0.11925976
150	0xbefca656	-0.49345654
151	0xbe647100	-0.22308731
152	0xbdf54da8	-0.119777024
153	0xbdbb1a79	-0.09135909
154	0x3d9f4ba9	0.07778103
155	0x3d870217	0.065921955
156	0xbd103079	-0.035202477
157	0xbfb927bd	-1.4465252
158	0x3d82154f	0.063517205
159	0x3e334789	0.17507757
160	0xbc90006e	-0.01757833
161	0x3dc93d94	0.09826198
162	0xbe91b87c	-0.28461063
163	0x3e63d926	0.22250804
164	0x3e2eb6e0	0.17061949
165	0x3d66624c	0.056246087
166	0x3e1d3e84	0.15355879
167	0xbfd40940	-1.6565323
168	0xbfc2c84f	-1.5217379
169	0x3e2c6526	0.1683546
170	0x3e420d58	0.18950403
171	0xc019a225	-2.4005215
172	0x3dc2bc89	0.095086165
173	0x3e3ec247	0.18628798
174	0x3d0048fc	0.031319603
175	0x3d246d04	0.040143028
176	0x3def1e01	0.11675645
177	0x3d0a8db7	0.033826556
178	0x3ea30303	0.31838235
179	0xbecf36bc	-0.40471447
180	0x3e0ec3fb	0.13941948
181	0x3d11ef24	0.035628453
182	0x3dff63b6	0.1247019
183	0xbd2862be	-0.041109793
184	0x3edafe7e	0.42772287
185	0x3e2b493a	0.16727152
186	0x3e0e90e3	0.13922457
187	0xbe1b8eee	-0.15191242
188	0x3d386db9	0.045026515
189	0xbe16b5c4	-0.14717776
190	0x3d8a6657	0.06757801
191	0xbf8463eb	-1.0342993
192	0x3d7a961b	0.061178308
193	0xbf388146	-0.72072256
194	0xbe4de659	-0.20107402
195	0x3ebe899b	0.3721436
196	0xbe983097	-0.2972457
197	0x3e350000	0.17675781
198	0x3e183cc4	0.1486693
199	0x3e68155f	0.22664402
200	0x3e7d2aed	0.24723406
201	0xc01c9392	-2.446507
202	0x3ecf95ca	0.40543967
203	0x3e03becd	0.12865753
204	0x3e3b26a9	0.18276466
205	0x3e4fc563	0.20290141
206	0x3af3da54	0.0018604496
207	0x3d88bd47	0.06676727
208	0xbfa8f889	-1.3200847
209	0xbe2716be	-0.16317269
210	0xbdee7fd7	-0.11645477
211	0x3d50ee84	0.051008716
212	0xbd3fa834	-0.04679127
213	0x3e30ca42	0.17264655
214	0xbe8deaea	-0.27718288
215	0x3d069483	0.032856476
216	0x3e567622	0.20943502
217	0xbe14eb43	-0.1454287
218	0x3d97a6ca	0.07404859
219	0xbe546dd8	-0.20745027
220	0x3d4cac4b	0.049969
221	0x3e09e279	0.13465299
222	0xbf61f49e	-0.8826388
223	0x3eb25493	0.3483015
224	0xbd0852f1	-0.033282224
225	0x3e29621e	0.16541335
226	0x3e6b1c0b	0.22959916
227	0x3dd4bb5e	0.103873
228	0x3e1ed452	0.15510681
229	0x3e86d5a0	0.26334858
230	0x3dcfee7a	0.10152908
231	0x3cfa7fb1	0.030578466
232	0x3e8bc127	0.272958
233	0x3e48f483	0.19624524
234	0x3e2abc36	0.1667336
235	0xbc3d2b6f	-0.011546
236	0xbc90742b	-0.017633518
237	0x3bb70711	0.005585559
238	0xbff9cd15	-1.9515711
239	0xbfe59280	-1.7935333
240	0xbfecd344	-1.8501973
241	0x3d51aa3f	0.05118775
242	0x3ea5f3e3	0.32412633
243	0xbe626c00	-0.22111511
244	0x3ca4ad74	0.02010224
245	0x3e0cdaa0	0.13755274
246	0x3e047bee	0.129379
247	0x3da0ed6d	0.078577854
248	0x3e998542	0.2998448
249	0xbdcb7283	-0.09933951
250	0x3da4ca81	0.08046437
251	0x3e20afe9	0.15692104
252	0x3edbb563	0.42911825
253	0xbeb980f4	-0.36231196
254	0xbf8faa2f	-1.1223811
255	0x3d1c516b	0.038163584

fc2.bias f4 [256]
0	0x3e26a074	0.16272146
1	0x3d53e781	0.05173445
2	0x3e04561e	0.12923476
3	0xbc0a7f95	-0.0084532695
4	0x3c978182	0.018494371
5	0x3b14d306	0.0022708788
6	0x3d9f9448	0.07791954
7	0x3cddf120	0.027092516
8	0xbcf5fafd	-0.030026907
9	0x3d5b4c2c	0.05353944
10	0xbbd04cce	-0.006356812
11	0xbce3007c	-0.027710192
12	0x3e15dee5	0.14635809
13	0x3ded0702	0.11573602
14	0xbc37757d	-0.011197445
15	0x3dcce24b	0.100040995
16	0xbc072bea	-0.008250216
17	0xbd80062c	-0.06251177
18	0x3e261da4	0.16222245
19	0x3e309b33	0.17246704
20	0x3bdd6c32	0.0067572827
21	0x3e122ab4	0.14274102
22	0xbcc4119d	-0.02393418
23	0x3d905384	0.07047179
24	0x3dc0d2c0	0.09415197
25	0x3e0f1fee	0.13977024
26	0x3d88cdb1	0.066798575
27	0x3e2dd8df	0.16977261
28	0xbd83332e	-0.06406246
29	0xbc888fbf	-0.016670106
30	0x3df0dd2b	0.117609344
31	0xbd065775	-0.03279825
32	0x3e0ee28d	0.1395361
33	0xbce41420	-0.027841628
34	0xbb30ca68	-0.0026976112
35	0xbcf55cfc	-0.029951565
36	0x3e04bd65	0.12962873
37	0xbd4aa47b	-0.049473267
38	0x3dfb20e8	0.12262136
39	0x3d1237aa	0.035697617
40	0x3e21d9e6	0.15805778
41	0xbc831fe9	-0.016006427
42	0xbcee11d4	-0.029061235
43	0x3e20d3dd	0.1570582
44	0x3c8f01da	0.017456938
45	0xbd8138c5	-0.06309656
46	0x3d63a593	0.055577826
47	0x3e2cfacb	0.16892545
48	0xbd50f6b6	-0.051016532
49	0x3dbf44f5	0.093393244
50	0xbc0e3902	-0.008680584
51	0x3c6b87b3	0.014375615
52	0x3c69078b	0.01422299
53	0x3c20b4b8	0.009808712
54	0x3dd3acee	0.10335718
55	0x3de9120c	0.11380395
56	0xbb55bcce	-0.0032613757
57	0x3e28f847	0.1650096
58	0x3e00d7d4	0.12582332
59	0x3c80db66	0.015729617
60	0x3dc2fdd5	0.09521071
61	0xbe67ddb2	-0.22643164
62	0xbcdc35ab	-0.02688106
63	0xbc182067	-0.009285069
64	0x3d433306	0.04765608
65	0x3dd3c705	0.10340694
66	0xbca6af22	-0.020347182
67	0x3c8acc3a	0.016943086
68	0x3e263d13	0.16234235
69	0x3e0e3c9d	0.1389031
70	0x3e09e652	0.13466766
71	0xbd809fec	-0.06280503
72	0xbc1372d8	-0.008999549
73	0x3e5bdfb7	0.21472059
74	0x3e06a389	0.13148321
75	0x3e330147	0.17480956
76	0xbc69850c	-0.014252912
77	0x3dffc71f	0.12489151
78	0x3aa80a05	0.0012820369
79	0xbc9ff70d	-0.019526983
80	0x3e0e51fa	0.13898459
81	0x3e2e5b23	0.17026953
82	0x3cb17fd8	0.021667406
83	0x3e0570ad	0.13031264
84	0xbdba908f	-0.091096036
85	0x3d55cde2	0.0521983
86	0xbd53b272	-0.05168385
87	0x3d1bd606	0.038045906
88	0xbd46fe96	-0.048582636
89	0x3cdf2013	0.027236974
90	0x3c0bb9fc	0.008528229
91	0x3dd56753	0.10420098
92	0xbce70e10	-0.028204948
93	0x3e0bcbe3	0.13651995
94	0x3e04512e	0.12921593
95	0x3db2735f	0.087134115
96	0x3e370fb5	0.17877086
97	0x3e289b05	0.16465385
98	0x3df326ef	0.1187266
99	0x3dc9e2a8	0.098576844
100	0x3c648a05	0.013948922
101	0x3d8987e5	0.06715373
102	0x3e27add5	0.16374905
103	0x3d611d0a	0.054959334
104	0x3dda10ab	0.106477104
105	0x3cdf3ef3	0.027251696
106	0x3e3381a3	0.17529921
107	0x3e2a7068	0.16644442
108	0x3e3c2d3a	0.18376628
109	0x3cbbdd7b	0.022932759
110	0x3cd03a00	0.025418282
111	0xbc247417	-0.010037444
112	0x3e27b8f1	0.16379143
113	0x3d9229f6	0.0713691
114	0x3b846614	0.004040489
115	0xbce4ab75	-0.027913788
116	0xbc29b1c4	-0.010357324
117	0x3df94313	0.121709965
118	0x3e0dbfc6	0.13842687
119	0x3df43fdb	0.11926242
120	0xbcfd0718	-0.030887172
121	0x3df35046	0.11880545
122	0x3ce03086	0.027366888
123	0xbced5402	-0.028970722
124	0x3da13a6f	0.078724734
125	0xbd7fcafc	-0.06244944
126	0x3e006601	0.12538911
127	0x3cc6c83c	0.024265401
128	0x3de3a7e7	0.11116009
129	0x3ddaca12	0.10683073
130	0x3e2cca72	0.16874102
131	0xbc13a93d	-0.0090125175
132	0xbc13ad2a	-0.0090134535
133	0x3dcb66fd	0.09931753
134	0x3e01019b	0.12598269
135	0xbcdb2263	-0.026749795
136	0x3e11044d	0.14161797
137	0xbc07a675	-0.008279433
138	0x3dd4e9a6	0.103961274
139	0x3e2c32c0	0.16816235
140	0x3e39d818	0.1814884
141	0x3dae4663	0.08509519
142	0x3d265b9c	0.04061471
143	0xbd60ced3	-0.054884743
144	0x3dd65e51	0.10467208
145	0x3df93904	0.12169078
146	0x3e267eec	0.16259354
147	0x3ddaa2ee	0.106756076
148	0x3da6dbe3	0.08147409
149	0x3bded126	0.006799835
150	0x3db7879b	0.089614116
151	0xbd8ec6c7	-0.069715075
152	0x3dfef830	0.12449682
153	0x3e1d3da5	0.15355547
154	0x3bd27180	0.0064222217
155	0x3e12bcf4	0.14329892
156	0xbc8f4cc8	-0.017492667
157	0x3e157bf3	0.14598064
158	0x3df2f417	0.11862963
159	0x3e1b7fde	0.15185496
160	0x3c404fb0	0.011737749
161	0x3db4a9df	0.08821463
162	0x3dc62fb9	0.09677071
163	0x3e2a8462	0.16652063
164	0x3d76051d	0.06006347
165	0xbbb8d534	-0.00564065
166	0x3dc7d9b1	0.09758318
167	0x3c72ca74	0.014818776
168	0xbbd0d280	-0.00637275
169	0x3e1f7008	0.1557008
170	0x3dd6b577	0.104838304
171	0x3deb4fa7	0.11489802
172	0x3de06bc7	0.10958057
173	0x3e1ec7ca	0.15505901
174	0x3dea33d2	0.11435665
175	0x3c8f48a0	0.017490685
176	0x3d9586c8	0.07301098
177	0xbda0ace1	-0.07845474
178	0x3dfa4d1e	0.1222174
179	0xbd0e2ae6	-0.03470888
180	0xbd54f8e3	-0.05199517
181	0x3e232698	0.15932691
182	0xbcc88bd6	-0.024480741
183	0x3d0a86a4	0.03381981
184	0x3e15f484	0.14644057
185	0xbd390c1c	-0.045177564
186	0x3e1d0c84	0.15336806
187	0xbcf4536c	-0.029824935
188	0x3d2d8a52	0.04236824
189	0xbd4f3ff0	-0.050598085
190	0x3e43194e	0.19052622
191	0x3db75841	0.0895238
192	0xbca77a22	-0.02044398
193	0x3dc3897b	0.09547707
194	0x3d97a6b7	0.07404845
195	0xbce53adb	-0.027982166
196	0x3e1a2651	0.15053679
197	0x3dd5989c	0.104294986
198	0x3d029082	0.031876095
199	0xbc9d4e1e	-0.019202288
200	0xbcc35ceb	-0.023848018
201	0x3da7f246	0.08200507
202	0xbd3881e8	-0.045045763
203	0xbc94db3d	-0.018170947
204	0x3e0faaee	0.14030048
205	0x3e1dac69	0.153978
206	0x3c97db14	0.018537082
207	0x3d95abe2	0.07308175
208	0x3df9c6ae	0.12196098
209	0xbd8b5700	-0.06803703
210	0x3cf25ac5	0.029584298
211	0x3e053098	0.13006818
212	0x3ccabd2c	0.024748407
213	0xbcec1ad7	-0.028821392
214	0x3e4157e2	0.18881181
215	0x3e3d1dc3	0.18468384
216	0x3d8c0fa4	0.06838921
217	0x3d9ff06b	0.07809528
218	0x3dacb290	0.084324956
219	0x3dc2d5e9	0.095134564
220	0x3de5efc7	0.112273745
221	0x3d9a2602	0.07526781
222	0x3d853daa	0.06505902
223	0x3e1e872e	0.15481254
224	0x3e10cb0b	0.14139955
225	0x3e2900c0	0.16504192
226	0xbd06e472	-0.032932706
227	0x3d949906	0.072557494
228	0x3dc1bb34	0.09459534
229	0xbcfe10dc	-0.031013899
230	0x3bc791c9	0.006090377
231	0x3e2632fc	0.16230386
232	0x3e10c5a9	0.14137901
233	0x3dbbbb79	0.09166617
234	0x3e255779	0.1614665
235	0xbc97d646	-0.01853479
236	0x3e0315d1	0.12801291
237	0x3e002bc2	0.12516692
238	0x3e15b01b	0.1461796
239	0x3d4ce17f	0.050019737
240	0x3e2d4498	0.16920698
241	0x3de36a14	0.11104217
242	0x3e3e0852	0.18557861
243	0xbc8b4cc8	-0.017004386
244	0xbc11d584	-0.008901004
245	0x3e1081a7	0.14111958
246	0x3de6065f	0.11231684
247	0x3e2a5ad9	0.16636218
248	0x3e709577	0.23494516
249	0x3de7254d	0.112864114
250	0x3dce9835	0.10087625
251	0xbcd1de34	-0.02561865
252	0x3e0a78ed	0.13522692
253	0xbcd4ecf6	-0.025991898
254	0x3e0b616e	0.13611385
255	0x3e290c5b	0.1650862

fc3.weight f4 [2, 256]
0	0xbf3c7711	-0.7361918
1	0xbf1c8f84	-0.6115649
2	0x3e5b1601	0.21395113
3	0xbcee6658	-0.029101536
4	0xbc5cc59d	-0.013474849
5	0x3bf775d4	0.007551888
6	0x3f3a5ce7	0.7279801
7	0xbcab28a5	-0.020893404
8	0xbf805cd0	-1.0028324
9	0x3ee0cc49	0.43905857
10	0xbc2f41fc	-0.010696884
11	0x3cb93868	0.022609904
12	0x3f01f920	0.5077076
13	0xbed08419	-0.40725783
14	0xbf82d521	-1.0221292
15	0x3f0c0e36	0.54709184
16	0xbf17c259	-0.59280926
17	0xbf16d46e	-0.5891789
18	0x3e705fe7	0.23474084
19	0x3d10094a	0.03516511
20	0xbc6a984c	-0.014318537
21	0x3e529924	0.20566231
22	0xbcc3c12f	-0.023895828
23	0x3f481d85	0.78170043
24	0xbeddbb2b	-0.4330686
25	0xbcc43a04	-0.023953445
26	0x3ef1baee	0.4721293
27	0xbf0bb719	-0.5457626
28	0xbf504c19	-0.81366116
29	0xbc891248	-0.01673235
30	0xbff6fb7d	-1.9295498
31	0xbf5e2e00	-0.8678894
32	0xbf54186f	-0.8284978
33	0xbf10d05b	-0.56567925
34	0xbc19e3aa	-0.009392658
35	0x3ce50f1b	0.027961304
36	0x3e4a6f17	0.1976894
37	0xbf0b0f33	-0.5432007
38	0x3f10429b	0.5635163
39	0xbf04eec8	-0.5192685
40	0x3d96a31a	0.07355328
41	0xbada25ae	-0.001664331
42	0x3bf1837c	0.0073704105
43	0x3ecab18f	0.3958859
44	0xbd07fd9b	-0.03320084
45	0xbf8c7255	-1.0972391
46	0x3f3f9b58	0.7484641
47	0x3ef4122d	0.47670117
48	0xbf80d682	-1.0065463
49	0x3effcfbe	0.49963182
50	0xbf5cb385	-0.86211425
51	0x3ba08a50	0.0048993006
52	0xbcd04234	-0.025422193
53	0x3ef866fe	0.48516077
54	0x3ed9ea31	0.42561486
55	0x3e622169	0.22083057
56	0xbd1e2452	-0.038608856
57	0x3e3b3897	0.18283306
58	0x3e6be20e	0.23035452
59	0xbcdccdfe	-0.026953693
60	0x3f05ce9a	0.52268374
61	0xbf57a5fe	-0.8423766
62	0xbf552eae	-0.8327435
63	0xbf2bc8fe	-0.67103565
64	0x3d8471a4	0.06466988
65	0x3ee0a14f	0.4387307
66	0xbf895627	-1.0729417
67	0xbbc996a6	-0.006151992
68	0x3f35c831	0.7100859
69	0x3e46288e	0.19351408
70	0x3f496f5e	0.7868556
71	0xbd0aee34	-0.033918574
72	0xbf02e62d	-0.5113247
73	0x3e68aff2	0.22723368
74	0xbec4ce04	-0.38438427
75	0x3f4c987c	0.7992017
76	0x3cb1f8ec	0.02172514
77	0xbdcc28a8	-0.09968692
78	0xbdd60944	-0.10450986
79	0x3f944323	1.1582989
80	0x3e40a3e2	0.18812516
81	0x3df84ca3	0.12123992
82	0xbce99a5c	-0.028515987
83	0x3f09280a	0.5357672
84	0xbf8cb4da	-1.0992692
85	0x3ecd5aea	0.40108424
86	0xbef1c531	-0.47220758
87	0x3eeddc6b	0.46457228
88	0xbf4aef2f	-0.79271215
89	0x3ee762d9	0.45192602
90	0x3e422d05	0.18962486
91	0x3ed513ba	0.41616613
92	0x3cee2cf4	0.02907417
93	0xbec96117	-0.39331886
94	0x3e6e12ac	0.2324931
95	0x3f21325c	0.6296747
96	0x3e3f93d5	0.18708737
97	0x3e3ca738	0.18423164
98	0x3f059a98	0.52189016
99	0xbef553d5	-0.4791552
100	0xbcdc37b3	-0.026882028
101	0x3ed0fbf0	0.40817213
102	0x3e63c546	0.22243223
103	0x3f0ec203	0.5576479
104	0x3f1bf6c6	0.6092342
105	0x3f5874c7	0.8455319
106	0x3e4f9bd4	0.20274287
107	0x3e5896f8	0.2115134
108	0xbf03fb7f	-0.5155563
109	0xbc331480	-0.010930181
110	0x3e0bd427	0.13655148
111	0x3c73c5fc	0.014878746
112	0x3ef0ba24	0.47017014
113	0x3f1388a4	0.5763037
114	0xbe9013d2	-0.28140122
115	0xbca7b415	-0.020471612
116	0xbf415acf	-0.7552919
117	0x3e7cfe16	0.24706301
118	0x3e4a84c1	0.19777204
119	0x3e580157	0.21094261
120	0xbcc8d825	-0.024517128
121	0x3ed0e4cb	0.40799555
122	0x3c939e28	0.01801975
123	0xbef57c82	-0.47946554
124	0x3e1aab3b	0.15104382
125	0xbddd4d60	-0.10805774
126	0x3edd27a7	0.43194315
127	0xbcc87def	-0.024474112
128	0x3e5c40c7	0.21509086
129	0xbe828f5d	-0.25500003
130	0x3e534cbe	0.20634744
131	0xbf0e5236	-0.55594194
132	0xbf4268ca	-0.75941145
133	0x3ea0efb9	0.31432894
134	0x3e412bdf	0.18864392
135	0xbf7b4c47	-0.98163265
136	0x3f017b0d	0.50578386
137	0xbf15ec91	-0.58564097
138	0x3effe11d	0.49976435
139	0x3db5e6b7	0.08881896
140	0x3e454f93	0.19268636
141	0x3f08f193	0.53493613
142	0xbeb50cf8	-0.35361457
143	0x3d679bf0	0.056545198
144	0xbf0b8711	-0.5450297
145	0x3e768dd1	0.24077536
146	0x3e633b6a	0.22190633
147	0x3f2fda08	0.68692064
148	0x3f125c1c	0.571718
149	0x3cf580fc	0.029968731
150	0x3f543fb3	0.829097
151	0xbf728ba0	-0.947443
152	0x3f207241	0.6267434
153	0x3e4ff26c	0.2030732
154	0xbbf3c19c	-0.0074388515
155	0x3ed6fbfb	0.4198912
156	0xbf7e038a	-0.9922415
157	0x3edbb901	0.42914584
158	0xbefd129d	-0.49428263
159	0x3e4231d9	0.18964328
160	0x3c5b09e7	0.01336906
161	0x3f0e0338	0.5547366
162	0x3ebcafc2	0.36852843
163	0xbcc55132	-0.024086569
164	0x3f81794c	1.0115142
165	0x3f70fca2	0.9413549
166	0xb847c76d	-4.7631027e-05
167	0xbcc2e098	-0.023788735
168	0x3f0986dd	0.5372141
169	0x3ef647d5	0.48101678
170	0x3efc0edf	0.49230096
171	0xbca539a9	-0.020169096
172	0x3ef09099	0.4698532
173	0x3e72a284	0.23694807
174	0x3e74904f	0.23883174
175	0xbb833651	-0.0040042778
176	0xbe654827	-0.22390805
177	0xbf20d4fd	-0.62824994
178	0x3eff2add	0.4983739
179	0xbf33a4a6	-0.7017311
180	0xbf580890	-0.84388065
181	0x3f066d6a	0.525107
182	0xbd88261c	-0.06647894
183	0x3ee0acc3	0.43881807
184	0x3ef51565	0.47867885
185	0x3e86432a	0.26223117
186	0x3d9ff26f	0.078099124
187	0x3b76739c	0.003760553
188	0xbf16b4da	-0.5886971
189	0xbe727369	-0.23676838
190	0x3e95c8e4	0.2925483
191	0x3f0243bf	0.5088462
192	0xba45f866	-0.0007551968
193	0x3efc6c9d	0.49301615
194	0x3c8d793d	0.017269725
195	0x3cc7765c	0.02434843
196	0x3e47bfec	0.19506806
197	0x3f5cf245	0.86307174
198	0x3f063da0	0.5243778
199	0x3c2a3fe9	0.010391214
200	0x3cec16ec	0.028819524
201	0x3f15a606	0.58456457
202	0xbf5c3ceb	-0.86030453
203	0xbd5f1bdf	-0.05446994
204	0x3e78f898	0.24313581
205	0xbc7addc4	-0.015311662
206	0xbcd25186	-0.025673639
207	0x3eed647b	0.46365723
208	0x3ee151b4	0.44007647
209	0x3efa2aef	0.4886088
210	0x3f0f5250	0.55984974
211	0x3ee3190d	0.4435505
212	0xbce3347f	-0.027734993
213	0x3e8c6e01	0.27427676
214	0xbf0606ac	-0.5235393
215	0x3dc7973e	0.09745644
216	0x3f182c5d	0.59442693
217	0x3eeb03e8	0.45901418
218	0x3ef565cc	0.47929227
219	0x3f02108d	0.50806504
220	0x3f4154c3	0.7551996
221	0xbd766f0e	-0.060164504
222	0xbea63066	-0.324588
223	0xbf233854	-0.63757825
224	0x3e521de6	0.20519218
225	0x3e574c21	0.21025135
226	0x3e4665de	0.19374797
227	0x3f09818b	0.5371329
228	0x3e713e2e	0.23558876
229	0xbcc72b04	-0.024312504
230	0x3f344438	0.70416594
231	0xbdbe98c0	-0.093064785
232	0xbefc75d6	-0.49308652
233	0x3f064ed6	0.52464044
234	0x3e42be1d	0.19017835
235	0x3c349ee8	0.011024214
236	0x3f2f73c1	0.68536
237	0x3ef859d8	0.48506045
238	0x3f1085b7	0.5645403
239	0x3f7d1487	0.9885945
240	0x3e59549a	0.21223679
241	0x3ec9ba0e	0.3939976
242	0x3da845b2	0.08216418
243	0xbee3c599	-0.44486693
244	0xbcf20d14	-0.029547252
245	0x3ed97928	0.42475247
246	0x3ef6702a	0.4813245
247	0x3f17da0e	0.593171
248	0x3eb99fcd	0.3625473
249	0x3e56d910	0.2098124
250	0x3f00d2c6	0.50321615
251	0xbc86a54f	-0.016436247
252	0x3e49356a	0.19649282
253	0x3c7f7c3a	0.015593583
254	0x3e8b8e12	0.2725683
255	0x3e88201d	0.26587

fc3.bias f4 [2]
0	0x3ddb961a	0.10721989
1	0x3d8beec2	0.06832649
