weights/weights.pt (torch, 272215 bytes, 6 tensors)

fc1.weight f4 [256, 4]
000000 51 fe 55 be 22 be a7 be 6e ea 31 be dc 55 7b 3d
       -0.20897795 -0.32762247 -0.17374584 0.06136118
000010 57 a0 b9 bd 60 0b dd 3d 03 1e 7e 3f 4f 59 74 3e
       -0.090637855 0.10793185 0.99264544 0.23862194
000020 64 43 75 bd 61 d5 19 3c 36 47 b3 3e 78 1e 06 be
       -0.05987872 0.009389252 0.35015267 -0.1309756
000030 0f 13 a8 be a6 f1 9a be 73 c7 de be b8 59 7d bc
       -0.3282704 -0.30262488 -0.43511543 -0.015463285
000040 70 b4 30 bd b0 f6 55 3d 49 9c 7a 3f 27 3a 23 3e
       -0.04314083 0.052237213 0.9789472 0.15940152
000050 a5 74 28 be 1b 22 67 3e 3f 3e b3 39 58 b3 54 3e
       -0.16450746 0.22571604 0.00034187917 0.20771539
000060 30 7b 33 3e 22 cf fb 3c 51 97 40 bf 21 37 63 bd
       0.17527461 0.030738417 -0.7523089 -0.055472497
000070 d7 7e 40 3e 4d fb df 3d 46 a4 83 bc 37 31 9d bb
       0.18798386 0.10936604 -0.016069543 -0.0047971266
000080 bf 9a c4 bb 0f 14 8b bc af 41 12 3e da b4 74 bd
       -0.0059998925 -0.016977338 0.14282869 -0.059742786
000090 a4 94 46 be 3e b5 88 3e f3 94 f6 bd cd b2 ca 3d
       -0.1939264 0.26700777 -0.120401286 0.09897385
0000a0 c1 f3 d9 3e 00 f0 5c be 64 e5 0a be e9 26 9d 3e
       0.42568782 -0.21575928 -0.13564068 0.3069375
0000b0 a5 90 44 3e df 1c 66 be e4 25 71 bd 69 75 15 3e
       0.19195803 -0.22471951 -0.058874026 0.1459557
0000c0 ce ca ac 3d 24 c6 56 3e 64 08 b1 be ae 0a bb 3c
       0.084371194 0.20974022 -0.34576714 0.02283224
0000d0 d6 90 0d 3e 34 d1 f6 bd 54 18 95 be 38 5f 97 bd
       0.13824782 -0.12051621 -0.29120123 -0.073912084
0000e0 8e 71 c5 3d 0c 48 2a be ee 6b 96 3e eb 37 2e be
       0.096407995 -0.16629046 0.2937922 -0.17013519
0000f0 c4 e4 a9 bd 99 e8 c9 bd 94 39 92 be 9f 5d 32 3c
       -0.08295587 -0.098588176 -0.28559554 0.010886579
000100 c9 2c 1a bc ad ac 8a 3d 6c ea 0f be 1d 65 26 3d
       -0.009410092 0.067712165 -0.14054269 0.040623773
000110 b3 c3 33 3d 4e 82 15 3e 54 a4 bd 3e c7 3d 8a be
       0.043887805 0.14600489 0.37039435 -0.27000257
000120 53 4b 0a be 35 46 9f 3d 0a 97 0b 3f aa 6a 49 3e
       -0.13505296 0.07777063 0.5452734 0.19669595
000130 38 22 9a bd c0 18 0b 3d 6b 0d 0c bd d9 82 6a bd
       -0.07526058 0.03395915 -0.034192484 -0.057253692
000140 eb 52 7a 3e fc 89 85 3e c2 3c 12 3f 85 b5 26 3e
       0.24445693 0.26081836 0.5712396 0.16280182
000150 3a f7 3d be d1 16 a6 bd 7f 43 df 3e e7 6d 71 bd
       -0.1855134 -0.08109821 0.43606183 -0.0589427
000160 35 1f c4 3e 0f bd 12 3e da 9a 02 bf a9 3b 4e be
       0.3830506 0.14329933 -0.51017535 -0.20139946
000170 0d a4 be 3e 0b a2 46 3d 83 32 15 bd e8 98 bd ba
       0.37234536 0.04849438 -0.036425125 -0.0014465125
000180 8c 74 29 3f 73 49 67 3e 75 cd ff be fc 51 e0 bd
       0.6619346 0.22586612 -0.4996144 -0.10953137
000190 5d e7 d6 3d 81 43 b3 bd 12 89 06 be ca 04 78 3d
       0.10493348 -0.0875311 -0.13138226 0.060551442
0001a0 d3 c2 96 be 7b e6 91 be 16 bf d4 be 52 b5 5f be
       -0.29445514 -0.28496155 -0.41552037 -0.21846512
0001b0 04 a1 12 3e 8f 2c d2 bb b5 96 9e 3e 9a fa 29 3d
       0.14319235 -0.006414003 0.30974355 0.041498758
0001c0 0d 97 60 bd 29 6d 30 3e 14 6e 37 3f 17 35 97 3e
       -0.054831553 0.17229141 0.7165234 0.29532692
0001d0 9d b9 0a 3e ad 8b 62 3e e7 de 20 3f 1e d1 12 3e
       0.13547368 0.22123595 0.6284012 0.14337584
0001e0 bb 69 ad 3d 02 cd ab bd 30 fc 09 3f f5 81 84 3e
       0.08467432 -0.083887115 0.5390043 0.258804
0001f0 05 77 5e bd e0 4d 7d 3d c8 79 41 3f 34 97 24 3e
       -0.054312725 0.061841846 0.7557645 0.16073304
000200 f6 aa 19 3f 4a 79 84 3e bf 0e bf be 3c f0 93 3b
       0.6002649 0.25873786 -0.37315938 0.004514722
000210 4f 95 a8 3e 9b 0f cf bd 4b 8c dc be 5f 38 22 be
       0.32926413 -0.101103984 -0.43075785 -0.15841816
000220 3c f4 c2 3e 60 63 53 bd 8e 6f 09 bf f7 13 84 bd
       0.3807696 -0.051608443 -0.53685844 -0.064491205
000230 f8 0a 05 be ab ac 4a 3e f5 b8 1c 3e b8 5b ba 3d
       -0.12992465 0.1979243 0.1530493 0.09099525
000240 55 b7 74 3d de d7 38 3e 8d cf d8 3d 71 64 41 be
       0.05974515 0.18051097 0.10586462 -0.18885972
000250 a6 2f 99 3d 5c 08 8d 3d 64 d5 e9 bd b7 d8 d4 3d
       0.07479791 0.0688636 -0.11417654 0.103928976
000260 c9 1f b6 bc ae b1 a0 bd e9 52 1d 3e ae 92 fb 3d
       -0.022231953 -0.0784639 0.15363659 0.12283836
000270 60 70 2a 3c 3e fd 65 3a 7f af 29 3f ca 93 8b 3e
       0.010402769 0.0008773393 0.6628341 0.27261192
000280 0f 2a cb 3d e2 9e 1d 3c b5 43 1d 3f 91 b7 9f 3d
       0.099201314 0.0096204 0.6143144 0.077986844
000290 14 fd d3 3e d0 40 2f 3e cc 4e a6 3e ce 64 61 3e
       0.4140402 0.17114568 0.32481992 0.2201111
0002a0 06 2e 9c 3e a0 08 f8 bd 7c b0 3a bf 7e 99 3e be
       0.30503863 -0.1211102 -0.72925544 -0.1861324
0002b0 0d 5b c6 bd 54 17 f7 3d 30 6f 4d 3f ad 59 71 3e
       -0.09685335 0.12064996 0.80247784 0.23569365
0002c0 27 80 8c 3e 4d 6e f7 bd d3 37 6e bf 50 7c 3d be
       0.27441522 -0.12081585 -0.9305393 -0.18504453
0002d0 51 a9 61 be 55 38 b6 bd 87 6a 1f bf 78 67 53 be
       -0.22037245 -0.08897463 -0.6227192 -0.20644939
0002e0 5b fe 28 be 28 b8 1a 3e 9c 9c 34 3f ff dd d5 3d
       -0.16503279 0.15109313 0.70551467 0.10442733
0002f0 ae 88 e3 bd 03 e2 ed be 99 e5 b3 3d a0 e0 10 be
       -0.11110054 -0.46461496 0.08784027 -0.14148188
000300 e9 bd 83 3c 25 63 96 be 36 62 6f be 8e b6 7f 3d
       0.016081767 -0.29372516 -0.23377308 0.062429957
000310 94 bc 86 be 72 75 ce bd 6c 59 19 bf 01 bb da bd
       -0.2631575 -0.10080995 -0.5990207 -0.106801994
000320 80 81 77 3e d8 78 42 3e ef 82 e7 be 41 75 15 be
       0.24170494 0.1899141 -0.45217082 -0.1459551
000330 2b ac e2 bc 65 5b 54 bd 92 12 8b 3e 1a 12 eb 3d
       -0.027669987 -0.051844973 0.27162606 0.11478062
000340 b1 01 40 3d 3e 20 d0 3d 11 6c 3e 3f 9c be 7b bd
       0.046876613 0.101624 0.74383646 -0.061461076
000350 59 d3 8a bd 97 cd a0 bd 5b d0 7e 3e 5c 22 60 3e
       -0.067785926 -0.07851713 0.24884169 0.21888107
000360 83 02 af be f3 72 7f bd de c3 b6 3e cf 44 79 3d
       -0.34181604 -0.062365483 0.3569631 0.060856637
000370 4e 8e ef be 70 7d 63 3d 32 51 92 3d 90 bb 17 3d
       -0.46788257 0.05553955 0.07144393 0.037044108
000380 09 28 be bd 99 3e 3a be 13 32 85 3e ab 49 3e be
       -0.0928498 -0.18187942 0.26014766 -0.1858279
000390 90 63 42 3e 95 4f 01 be 07 37 04 bf ab 30 d9 3b
       0.18983293 -0.12628014 -0.51646465 0.006628116
0003a0 ed 62 a2 be 09 34 09 bc 91 20 92 3e 91 eb 93 3d
       -0.317161 -0.008374223 0.2854047 0.07222665
0003b0 b4 59 e9 3c de 92 b3 bd 44 63 a8 3d 7c bd f8 3d
       0.028485157 -0.08768247 0.082220584 0.12145516
0003c0 d2 0b e1 3e b6 ca 79 bd c5 2c d6 be fa 41 a6 3c
       0.4395433 -0.060984336 -0.4183103 0.020295132
0003d0 30 ec b8 be 06 51 20 3e f1 cd d2 3e c8 c4 bf bd
       -0.36117697 0.15655908 0.41172746 -0.09363705
0003e0 e2 ff 1f be d0 df 4e 3e 27 5e 5e 3e 35 45 1d be
       -0.15624955 0.20202565 0.21715604 -0.15358432
0003f0 ff d6 5e 3e 48 50 3b 3e 98 4f 1d bf 43 9e 87 bd
       0.21761702 0.18292344 -0.61449575 -0.06621983

fc1.bias f4 [256]
000000 cf a5 34 3e 43 ca 75 be 6e 89 cb 3e 13 3a 86 be
       0.17641376 -0.24002938 0.39753288 -0.26216182
000010 92 01 5d be f0 a1 90 3e c5 d2 3a be 2d 91 c9 3e
       -0.2158263 0.28248549 -0.18244465 0.39368573
000020 dc cf aa 3e 67 e3 1d be 17 e6 09 3e 4b 60 6a be
       0.3336171 -0.15418778 0.13466679 -0.22888295
000030 19 a5 91 be fe d2 9f 3e bd 90 bd 3e 46 e1 cf 3e
       -0.28446272 0.31215662 0.3702449 0.40601557
000040 f7 12 9a 3e 51 01 94 3e 74 e8 a6 3e 85 07 ac 3e
       0.30092594 0.28907254 0.32599223 0.33599487
000050 f8 4b 8d bd bd 01 49 3e af 19 85 be d8 7f 76 3e
       -0.068992555 0.1962957 -0.25996158 0.24072206
000060 61 c3 73 ba 5e 6d a9 3e 3a 16 48 bc fd e1 ac 3e
       -0.0009298828 0.33091253 -0.0122123305 0.33766165
000070 91 54 0a bd 64 fa ca bd 2c 1c 5a be 51 cd 3b be
       -0.033772055 -0.099110395 -0.21299809 -0.1834004
000080 4d 17 00 3e ae 3c 51 be e6 78 03 be c8 50 6d 3e
       0.12508889 -0.20433304 -0.12839088 0.23175347
000090 f6 2c 47 3e fb f8 56 3e 1b 37 c1 3e 8f 27 c3 bd
       0.19450745 0.20993416 0.37737355 -0.095290296
0000a0 25 b4 b2 3d ee 10 23 3e 86 80 83 be 16 26 60 be
       0.08725766 0.15924427 -0.25683993 -0.21889529
0000b0 ef 79 6b be c6 78 15 be df e8 57 3e 33 9c 92 bc
       -0.22995733 -0.14596853 0.21084927 -0.017896747
0000c0 42 de 3b bd af 4d ca bd bb cb 19 3e 1b 73 af 3e
       -0.04586626 -0.09878098 0.15019123 0.34267506
0000d0 c2 bb ac 3d 86 e0 91 be 12 0b 8a 3d 04 43 a6 bd
       0.084342495 -0.2849161 0.06740393 -0.08118251
0000e0 d9 a7 cf 3e 59 46 9e 3e 54 f6 84 3e 41 e2 7a 3e
       0.40557745 0.30913046 0.25969183 0.24500372
0000f0 01 4d a8 bd 0d 8f 13 3e d2 d7 cd 3e 21 f5 82 be
       -0.08217812 0.14410038 0.4020372 -0.25577644
000100 fa 8e 00 3e 9c bb 87 bc ee da 58 be cd 23 49 be
       0.12554541 -0.016568951 -0.21177265 -0.19642563
000110 e3 c5 96 3d ec 11 7c 3d 3c 21 d5 3e 90 84 de bd
       0.07361963 0.06154053 0.41626918 -0.10865128
000120 c9 90 9f 3e 8e 70 30 be f0 c8 b2 3e 71 79 dd 3e
       0.3116515 -0.17230436 0.34918928 0.43256715
000130 58 44 4c 3e 8b 3a b4 3d 9d f4 15 3e 92 6c 67 be
       0.19947946 0.08800229 0.14644094 -0.2260001
000140 4f a7 41 3e e9 3e 46 3e 89 4b 10 be d7 ac 93 bc
       0.1891148 0.19359936 -0.14091314 -0.018026752
000150 39 44 27 3e 89 c8 6b 3e c1 a9 b7 3e b9 39 93 3e
       0.16334619 0.23025717 0.358717 0.28754976
000160 2f c9 9d 3e cf 72 39 be 71 66 f7 bd e4 a0 64 3e
       0.30817553 -0.18110202 -0.12080086 0.22327
000170 71 e3 a2 3c 86 4b 4c be 6d ec 42 be 90 33 52 be
       0.019883843 -0.19950685 -0.19035502 -0.20527482
000180 b2 f4 55 3e e7 94 42 3d 05 b3 67 3e ee 57 6a be
       0.20894125 0.047505286 0.22626884 -0.22885105
000190 be c2 0f be db 0d 2f be 71 e0 73 be 4f 9e a2 3e
       -0.14039132 -0.17095129 -0.23816086 0.31761405
0001a0 ea 24 be bd d0 c8 bd 3d 35 9d 0c 3e 99 b5 5c be
       -0.092843845 0.092668176 0.13731845 -0.21553649
0001b0 bf 0e 23 3e 31 27 43 be b9 ad 70 be 35 29 aa 3e
       0.15923594 -0.19057919 -0.2350377 0.33234563
0001c0 02 d1 fe bd 2f e6 96 3e 06 a7 d2 3e c7 dc 92 3e
       -0.12442209 0.2947249 0.41143054 0.28684065
0001d0 fe 1a b3 3e a8 d1 5e 3d 67 74 c0 3e 2f 54 ba 3e
       0.3498153 0.054399163 0.37588808 0.36392352
0001e0 76 47 39 3e 1f 1c b3 3e d3 9b b0 3e 96 75 9b 3e
       0.18093666 0.34982392 0.34493884 0.30363148
0001f0 0b 7c 89 3e c5 23 5f be e6 0c 51 3e ab 7b ad 3e
       0.2685245 -0.21790989 0.20415077 0.33883414
000200 39 ba 35 be 9f 67 b2 bc 02 a6 8f 3e 74 12 8f 3e
       -0.1774682 -0.021777926 0.2805634 0.27943766
000210 7d aa 34 bc 65 62 e7 bd 6f 37 59 3c ed 73 d7 3e
       -0.011026976 -0.11298064 0.013257845 0.42080632
000220 38 12 ae 3e 53 8c 9e 3e 90 05 c3 3e 7b 80 40 be
       0.33998275 0.30966434 0.3809018 -0.18799011
000230 9d 76 ad 39 05 3f ba 3e 7c 95 65 3e 01 ff 11 bd
       0.00033085505 0.36376205 0.22420305 -0.03564358
000240 87 24 0e bd a4 4f 19 3d 7e e4 6b 3e 98 4a 4a be
       -0.034702804 0.037429467 0.23036382 -0.19755018
000250 3c 16 ef bd 0a 20 76 3e 1a 1d 58 3d 3a 3c 23 be
       -0.11674163 0.2403566 0.05276213 -0.15940943
000260 65 22 1f be 89 8b 63 be d4 9a dd 3e a4 ff 86 3e
       -0.15540464 -0.22221197 0.43282187 0.26366913
000270 8a b1 01 be 20 0d be bd 85 bf 77 3e 7d 82 c3 3e
       -0.12665382 -0.09279847 0.24194153 0.38185492
000280 cb cd 2f be 87 8f a3 3e c4 ca 8e 3d 24 04 b3 3e
       -0.17168348 0.3194544 0.06972268 0.34964097
000290 c9 1b bd 3e 96 d2 55 3e 6e 71 b2 3e 95 f7 32 be
       0.3693526 0.20881113 0.34852165 -0.17477258
0002a0 1b 45 44 be b4 7b 76 3e 0e a8 ab 3e e0 56 65 be
       -0.19166987 0.24070626 0.33526653 -0.22396421
0002b0 04 f6 74 be 01 2c ae 3d 7f 1e cc 3c a1 51 2b 3e
       -0.23921973 0.08504487 0.024916885 0.16730358
0002c0 48 86 3d 3e 1a 23 fa 3d fb 5b 5d be 1e 1e 9b 3d
       0.18508255 0.12213726 -0.21617119 0.07574104
0002d0 84 73 66 bb 1d 23 61 3d 1f 08 af 3e f0 c5 91 bc
       -0.0035164068 0.054965127 0.34185883 -0.01779458
0002e0 4b ff 6f be 57 c1 c4 3e 92 af 98 3e 34 95 27 3e
       -0.2343723 0.38428757 0.2982145 0.1636551
0002f0 f0 48 69 3e f8 1c 4d bd 61 d4 53 3e d4 39 59 3d
       0.2278173 -0.050076455 0.20686485 0.053033665
000300 4a bb 8b 3e de a1 56 be cb 62 07 3e 99 95 6f be
       0.27291328 -0.20960185 0.1322128 -0.2339691
000310 e8 01 c8 bc 6e 92 d4 3e 93 61 17 3e 5d c9 d0 3e
       -0.024414971 0.41517967 0.14783315 0.40778628
000320 40 95 61 be 04 a1 7a be d0 bd 63 be 4e 63 a7 3e
       -0.2202959 -0.24475485 -0.22240376 0.3269295
000330 78 51 84 3e aa 03 bd 3e 31 87 53 be e3 60 83 be
       0.25843406 0.36916858 -0.2065704 -0.25659856
000340 94 f5 67 be 6c 30 19 bd 23 e8 03 3e 20 c0 44 3e
       -0.22652274 -0.037399694 0.12881522 0.19213915
000350 a0 41 e4 bd 71 a9 ae 3e 75 fc 06 3e 56 9f 75 3e
       -0.111453295 0.3411365 0.13182242 0.23986563
000360 8e 7f a6 3e 97 bc 99 3e 4c ee bc 3e 90 75 36 be
       0.32519192 0.30026695 0.36900556 -0.17818284
000370 9e d8 32 be fc 8e 1b 3e 6f 51 39 bb 81 36 51 be
       -0.17465445 0.15191263 -0.0028277298 -0.20430948
000380 4f 1c 3d 3e 5c 34 c6 3e 24 c8 92 3e 9c 54 d3 3e
       0.1846783 0.38711822 0.2866832 0.4127549
000390 36 99 92 3e dc db 66 be c2 a7 b9 3e 3b bc 6b 3e
       0.28632516 -0.22544807 0.36260802 0.23021023
0003a0 bc 8c b1 3d bf 1a b6 3e 24 f5 c2 3e 15 3a 5e bd
       0.08669421 0.3556728 0.38077652 -0.05425461
0003b0 16 c9 4a be 95 bb f1 3d 05 29 16 be b8 bb 3a be
       -0.1980327 0.118033566 -0.14664085 -0.18235672
0003c0 a9 4a 2d be e1 02 a1 3e 64 ca 42 be ed 7e 01 3d
       -0.16923012 0.3144751 -0.19022518 0.031615186
0003d0 8b d2 79 3d 48 11 86 3e 28 d1 c5 3e a8 37 c9 3e
       0.060991805 0.2618506 0.38636136 0.39300275
0003e0 97 20 11 3e 5c 5d 57 bd 40 f2 3a 3e e7 07 c1 3e
       0.14172588 -0.05257927 0.18256474 0.37701342
0003f0 25 00 42 be 4c 43 00 be 66 01 0e be 01 94 7a bc
       -0.18945368 -0.12525672 -0.13867721 -0.015294076

fc2.weight f4 [256, 256]
000000 a8 1f 3a bc 44 e6 80 3e 10 09 5c 3e 06 32 b1 be
       -0.0113600865 0.2517568 0.21487832 -0.34608477
000010 85 3f 9e 3e 68 f1 9d 3d a3 5d dc bf fc e6 2e 3e
       0.30907837 0.0771206 -1.7216076 0.17080301
000020 b6 08 20 3e 0c 02 14 3c fe 9c 88 bc 83 46 66 be
       0.15628323 0.009033691 -0.016676422 -0.22487836
000030 8c 53 a9 be 3b d5 23 3e ab 5d 39 3e a9 e6 ab 3d
       -0.33071554 0.1599931 0.18102138 0.08393604
000040 29 e0 f9 3d 6c 11 13 3e 3b a7 35 3d 55 f5 3b 3e
       0.12200958 0.14362115 0.044348937 0.18355305
000050 fc 90 23 be e7 1b 2a 3e 0f 58 1a bf 49 56 c7 3d
       -0.15973276 0.16612206 -0.60290617 0.097332545
000060 4c 73 4e bf ee 78 78 3d 8d 7c f0 bd 37 03 0d 3e
       -0.8064468 0.060662203 -0.11742506 0.13770758
000070 37 e3 04 be b9 6f e5 be 74 f9 3b bd 2d 12 15 3e
       -0.129773 -0.448118 -0.045892194 0.14557715
000080 5e 54 80 be b6 cf 96 bf db 9c a8 bf 83 c1 0e 3e
       -0.25064367 -1.1782138 -1.3172868 0.13941006
000090 b0 35 29 3e 7d d8 9d 3d e5 59 49 3d e3 53 bc 3d
       0.16524386 0.077073075 0.049157996 0.091956876
0000a0 04 3e a2 be 58 12 98 bd a9 67 ec bf be ae 4d 3e
       -0.3168794 -0.07425374 -1.8469135 0.2008619
0000b0 01 ed dd bf ab e4 27 bf e9 55 b9 3c 4c 7d b1 3c
       -1.7337953 -0.65583295 0.022623973 0.021666192
0000c0 90 aa ba bd 0b 96 43 be c4 6a 0f be 7a a3 7e 3d
       -0.091145635 -0.19100206 -0.14005572 0.062167622
0000d0 fa 9c 93 bb a7 3f 9a be 25 f5 1b 3e 9e 04 dd bd
       -0.004504797 -0.30126688 0.15230234 -0.10791896
0000e0 14 eb 47 3e 6a 57 d0 3d 0e d0 6b 3d ba d5 92 3d
       0.19523269 0.10172923 0.057571463 0.07169671
0000f0 23 14 45 bf 79 98 45 3e 9a 60 30 3e 5e 32 78 bf
       -0.7698385 0.19296445 0.1722435 -0.96951854
000100 de fb b6 3b 60 d2 e8 be 98 4b da bf c1 81 cb 3e
       0.005584224 -0.45473003 -1.7054319 0.39747432
000110 dd db 8f be fc cc 33 3b 92 ea cf 3c 7f 57 16 bf
       -0.2809743 0.0027435413 0.025380407 -0.5872726
000120 a6 6f 21 3e 5c 53 cb bf 5d 1d 34 3e ae 84 3d 3e
       0.15765247 -1.5884814 0.17589326 0.18507645
000130 d9 2b ea 3d f9 0e 42 bc ec 98 95 3e 40 e9 b1 bf
       0.114341445 -0.01184439 0.29218233 -1.3899307
000140 b2 c6 74 3e 84 32 f0 3d e6 ff c7 bd a3 b4 58 be
       0.23903921 0.11728385 -0.09765606 -0.21162657
000150 d0 cd 7a bd ff 88 34 3d c9 d7 b0 3d 6c 4c 01 be
       -0.061231434 0.044075962 0.08634908 -0.12626809
000160 7c 86 a4 3c 9b e4 ff 3d 5e 97 41 3d 70 bf 78 3d
       0.020083658 0.12494775 0.047263496 0.060729444
000170 bd 0b 92 3e c4 34 7e 3e da f4 61 3d e6 b5 e5 3d
       0.2852458 0.24824816 0.05516515 0.11216335
000180 d8 57 91 3d 96 74 ea bd e6 af c7 3b 12 ac 06 c0
       0.07096833 -0.11448018 0.006093967 -2.1042523
000190 3e f0 9b bf 8d 61 b2 be 1c aa 7d be a8 f9 c0 3d
       -1.2182691 -0.3484005 -0.24771923 0.09422618
0001a0 bc e9 42 3e d7 54 83 3e 26 68 ac be dd 5e 2c be
       0.19034475 0.25650665 -0.3367321 -0.16833062
0001b0 36 1a dc ba 3c a7 d7 3d f0 b1 fe be ea 05 31 3d
       -0.001679248 0.10529944 -0.4974513 0.04321853
0001c0 7a 64 c1 be 11 96 5f 3d dd e6 25 3e 83 f6 a4 3d
       -0.3777197 0.054586474 0.16201349 0.08054831
0001d0 ce b8 fb 3d 37 81 9c 3d 03 52 90 3d 97 8e 0a 3d
       0.12291108 0.07641833 0.070468925 0.03382739
0001e0 42 28 40 be 2e 03 20 3e 7d e5 44 3d ab 3b 84 3c
       -0.18765357 0.15626213 0.04807042 0.016141733
0001f0 69 3c af 3d 46 48 6e bc cd de 34 3e 1b da a9 3d
       0.08556444 -0.0145435985 0.17663117 0.082935534
000200 8d f8 86 3c 0b 1f 04 be 86 c5 34 3e c0 ce c7 3d
       0.01647594 -0.12902467 0.17653474 0.09756231
000210 0a ba e1 bd d5 55 45 bd 63 90 13 be 8d 31 27 3e
       -0.11021812 -0.04817756 -0.14410548 0.16327496
000220 2b 66 10 3e e0 7a 37 3e 32 a7 36 3e 6c d7 dd be
       0.14101474 0.17917967 0.17837217 -0.43328416
000230 72 aa 49 bf 7f ed 9c 3d 8c 54 2b 3e 22 c6 39 3d
       -0.78775704 0.07662486 0.16731471 0.04535497
000240 16 e8 aa be 8a c8 b0 bd 4d 65 02 3e 71 76 0c be
       -0.33380193 -0.08632 0.12733956 -0.13717057
000250 8d 44 27 bf 00 c2 ae 3d 89 d9 e6 be ca 8a 44 be
       -0.65338975 0.08533096 -0.4508784 -0.19193569
000260 c6 12 d1 bd 1c 66 d3 bd 7c 7d 51 3d d9 07 27 3d
       -0.10208659 -0.1032221 0.05114506 0.04077897
000270 ef c9 cf bc 40 e1 9a bf 48 94 20 3d 65 d8 0d 3e
       -0.025364844 -1.2099991 0.039203912 0.13852079
000280 cd 73 98 bd 8e e8 92 3d 29 4d 85 be ca 61 39 3e
       -0.07443962 0.071732625 -0.2603543 0.1810371
000290 94 ac 0c 3e c6 aa 0c 3d f0 5f f8 3d 84 2a bd bf
       0.13737708 0.03434255 0.121276736 -1.47786
0002a0 ef 3e a1 bf ba 6c 09 3e 38 f1 1e 3e 1c 63 05 c0
       -1.2597331 0.13420382 0.15521705 -2.0841742
0002b0 c7 3d c5 3d 27 87 25 3e 4f fd c7 b9 7b e0 81 3c
       0.09630924 0.16164838 -0.00038144967 0.015854111
0002c0 2e af b0 3d e4 88 20 3d 6d 02 8e 3e 93 27 cd be
       0.08627163 0.03919305 0.27736226 -0.40069255
0002d0 aa 52 0a 3e 3f 24 93 bc a5 04 be 3d e2 91 36 3c
       0.13508096 -0.01796162 0.092782296 0.01114318
0002e0 73 ba b8 3e 4c 2d 08 3e 50 c8 db 3d bd 36 18 be
       0.3607975 0.1329853 0.10731566 -0.14864631
0002f0 7c 83 03 3d 9e 58 93 be 69 81 46 3d 8e 93 6d bf
       0.032107815 -0.28778547 0.04846326 -0.92803276
000300 72 5d 23 3d d9 1f 24 bf db e1 57 be 8e da a6 3e
       0.03988404 -0.64111096 -0.21082251 0.3258862
000310 0e d2 2a be f9 e2 10 3e a5 ff f4 3d 24 fe 3c 3e
       -0.16681692 0.14149083 0.11962823 0.18456322
000320 e9 f2 59 3e b4 0e 0d c0 1d 79 bb 3e 1f f8 ce 3d
       0.21284069 -2.2040224 0.3661584 0.10105919
000330 fd b9 1b 3e f4 d7 27 3e 8a ea d8 3a 55 ca 03 3d
       0.15207668 0.16390973 0.001654939 0.03217538
000340 12 e0 95 bf 57 fc b0 bd 26 08 e1 bd 99 d3 f9 3c
       -1.1709006 -0.0864188 -0.10987882 0.030496405
000350 0c 8f 30 bd 70 eb 0b 3e 93 04 87 be 98 65 72 3c
       -0.04310517 0.13664031 -0.26370677 0.01479473
000360 da 13 2f 3e cb 83 1b be fe 1e 45 3d 24 6b 14 be
       0.17097417 -0.15186994 0.04812526 -0.14493996
000370 97 73 ba 3d 4f de d9 3d 3d 03 49 bf 3a 1b 93 3e
       0.09104078 0.10638105 -0.78520566 0.2873171
000380 48 1e 53 bd 08 9a 07 3e a0 0a 45 3e 0a 9f 98 3d
       -0.05154255 0.13242352 0.19242334 0.07452209
000390 a9 fa f7 3d 5c 78 5b 3e 14 6d 92 3d 20 3a 91 3c
       0.121083565 0.21432632 0.07149711 0.017727911
0003a0 b7 f1 68 3e 64 bb 22 3e d2 02 04 3e 98 c6 7f bc
       0.22748457 0.15891796 0.12891701 -0.015611313
0003b0 b3 1a ed bc 41 57 37 bc aa b6 dc bf 8f 3d ca bf
       -0.028943395 -0.011190237 -1.7243245 -1.5800036
0003c0 55 a0 d5 bf 72 a6 de 3c 5e 08 8d 3e 7f aa 67 be
       -1.6689554 0.027178977 0.27545446 -0.22623633
0003d0 28 5c 63 3c 68 1b d8 3d 7c bc c8 3d 77 dc 51 3d
       0.013876952 0.10552102 0.098015755 0.051235642
0003e0 9f d2 80 3e 95 7c b2 bd a8 28 83 3d 6c 07 ff 3d
       0.2516069 -0.087151684 0.06404239 0.124525875
0003f0 ec 40 c1 3e 4c 2e e2 be c0 b1 80 bf 94 e1 1d 3d
       0.37744844 -0.44175947 -1.0054245 0.038545206

fc2.bias f4 [256]
000000 82 80 01 3e c9 27 91 3c e6 b7 06 3e b4 9a 04 bb
       0.12646678 0.017719166 0.13156089 -0.0020233812
000010 3c c5 86 3c e3 62 04 3b 05 fc af 3d 02 6d c5 3c
       0.01645147 0.0020200543 0.08592991 0.02409983
000020 3c 62 09 bd 4c 65 2a 3d 78 4a b9 bb 3a ed c9 bc
       -0.03354095 0.04160051 -0.0056546293 -0.024649251
000030 d8 a0 12 3e 5f 28 d9 3d 38 59 c4 bc 4c d5 d0 3d
       0.1431917 0.10603403 -0.023968324 0.10196933
000040 04 d7 f2 bc 6d e1 a0 bd 2c 65 24 3e d3 cc 12 3e
       -0.029643543 -0.078554966 0.16054219 0.14335947
000050 bd f6 c4 3b 99 fd 12 3e 30 69 ae bc 9b 18 9a 3d
       0.006010859 0.14354552 -0.021290392 0.07524224
000060 7f 95 ba 3d 79 b8 f0 3d 18 19 91 3d 63 da 07 3e
       0.09110545 0.11753935 0.070848644 0.13266902
000070 99 d2 7e bd dc f3 72 bc e7 b4 b1 3d f9 69 f3 bc
       -0.06221256 -0.014828648 0.086770825 -0.029713618
000080 32 83 df 3d 86 98 57 bd 2d 43 1d bb ab 42 da bc
       0.109136954 -0.052635692 -0.0023996339 -0.026643118
000090 ce d9 07 3e 4d 0e 53 bd 71 cc f2 3d 72 20 3d 3d
       0.1326668 -0.05152731 0.118554 0.04617352
0000a0 52 08 08 3e d9 47 69 bc b3 c5 d3 bc 4e bd 08 3e
       0.13284424 -0.014238321 -0.025851106 0.13353464
0000b0 f7 6a 7e 3c 02 c0 84 bd d1 69 22 3d 51 2b 27 3e
       0.015528432 -0.06481935 0.039651696 0.16325118
0000c0 be 8b 56 bd 86 46 bd 3d f7 53 86 bc 68 83 51 3c
       -0.052379362 0.09241967 -0.01639746 0.012787677
0000d0 3e df 36 3c cc 60 2c 3a 00 bf cb 3d e1 96 f0 3d
       0.0111616235 0.0006575703 0.0994854 0.11747528
0000e0 9e 1b 9e bc 16 17 28 3e 83 af 04 3e 05 19 3e 3c
       -0.019300278 0.16415057 0.12957577 0.011602645
0000f0 97 2e c2 3d 5f bc 52 be 33 67 cc bc 04 7e d5 bc
       0.094815426 -0.2057967 -0.024951553 -0.026061065
000100 11 a5 47 3d 6b e6 cd 3d 63 1f 09 bd 2b ef 76 3c
       0.048741404 0.10053714 -0.0334772 0.0150716705
000110 d0 1f 1f 3e d2 cc 10 3e 5d e5 ef 3d 80 d5 64 bd
       0.1553948 0.14140633 0.117136694 -0.055867672
000120 0e 93 ee bc 31 45 3a 3e c4 c9 04 3e 26 79 2d 3e
       -0.029122856 0.18190457 0.12967592 0.16940746
000130 65 b9 4f bc 9e b1 f7 3d db 7f de bb a1 66 fb bc
       -0.012678479 0.12094425 -0.006790144 -0.030688586
000140 25 d0 10 3e 02 80 13 3e 76 e4 9d 3c 0e b5 00 3e
       0.14141901 0.144043 0.019273978 0.12569067
000150 d4 4f c7 bd 2b d9 21 3d 25 ba 45 bd 74 22 f0 3c
       -0.09732023 0.03951375 -0.048273224 0.029313304
000160 e8 b1 38 bd d8 35 8c 3c 6d 9a 17 3b 64 41 d5 3d
       -0.04509154 0.017115518 0.0023132816 0.10412863
000170 17 88 cd bc 57 bf 05 3e 10 c1 07 3e 32 2c b7 3d
       -0.025089307 0.13061272 0.13257241 0.089439765
000180 c9 6b 35 3e c1 f9 28 3e 3b f0 ea 3d 68 b5 c6 3d
       0.17716898 0.16501524 0.114716016 0.09702569
000190 02 2e 22 3c a6 bc 89 3d 6c 63 27 3e 60 bc 6e 3d
       0.009898664 0.06725435 0.1634652 0.058285117
0001a0 ee c3 dc 3d 12 b9 58 3c 5d 00 31 3e fe 48 29 3e
       0.10779558 0.013227718 0.17285295 0.1653175
0001b0 84 ff 18 3e bb 1c a7 3c e4 12 97 3c 9e 49 12 bc
       0.14941221 0.020399442 0.018441625 -0.0089286845
0001c0 17 92 1f 3e 10 e7 a4 3d 34 a2 b4 bc 19 69 cb bc
       0.15583073 0.08051884 -0.02205 -0.024830388
0001d0 71 a8 0c bc af 6b fe 3d a0 4b 10 3e 60 dc fb 3d
       -0.008585081 0.12422883 0.14091349 0.122978926
0001e0 cd 13 e1 bc 43 92 f5 3d e3 6c c7 3c 92 a5 28 bd
       -0.027475262 0.11990788 0.024343913 -0.041173525
0001f0 88 9c 9d 3d 99 89 63 bd ba 9b fc 3d fb d2 b0 3c
       0.076958716 -0.055551145 0.1233439 0.021584978
000200 dc c1 ec 3d bc f6 9b 3d 6b 98 28 3e 88 66 4c bc
       0.11560413 0.0761542 0.16464393 -0.012475617
000210 76 31 e9 bb e4 2d c6 3d 21 f5 03 3e f4 60 fc bc
       -0.007116492 0.09676722 0.12886478 -0.03080795
000220 cb 63 0b 3e 84 d3 73 bc bb 2c d1 3d c6 58 15 3e
       0.13612287 -0.014881972 0.1021361 0.14584646
000230 b1 b6 36 3e ed da b1 3d c2 79 e9 3c 77 38 99 bd
       0.17843129 0.08684335 0.028500441 -0.07481473
000240 60 bb a3 3d c8 ec ff 3d c6 27 25 3e a4 e4 df 3d
       0.07994723 0.12496334 0.16128454 0.109322816
000250 12 4e a8 3d 28 34 c6 3b 68 83 c2 3d 15 35 95 bd
       0.08218016 0.006048698 0.0949772 -0.07285515
000260 25 1d fe 3d 04 15 1f 3e 62 32 bb 3b c0 3c 0b 3e
       0.12407903 0.1553536 0.005712793 0.13597393
000270 58 6e a0 bc c7 73 11 3e 90 90 b5 3d 68 ee 1c 3e
       -0.019583866 0.14204322 0.08865464 0.1532532
000280 69 11 2b 3c d6 c0 bb 3d 9a 05 c5 3d 0a e1 0e 3e
       0.010441163 0.0916764 0.09620209 0.13953033
000290 6b 7b 84 3d 43 34 91 bc f2 83 cc 3d 92 f8 57 3c
       0.064688526 -0.017725116 0.09986104 0.013181822
0002a0 ee 64 58 bc 5a 69 1a 3e 04 20 d0 3d c8 a6 c1 3d
       -0.013207657 0.15079251 0.101623565 0.09455639
0002b0 4d 06 de 3d 11 7c 1e 3e 9a 15 f1 3d a9 e9 7e 3c
       0.108410455 0.15477015 0.11771698 0.015558639
0002c0 db 2c 43 3d 8d 96 b7 bd ff ef f3 3d 5c 64 05 bd
       0.0476502 -0.08964262 0.1191101 -0.032566413
0002d0 99 f6 41 bd c2 39 1b 3e b5 64 b2 bc 4c 78 ab 3c
       -0.047354314 0.15158752 -0.021776536 0.020931385
0002e0 e5 4f 11 3e 83 9b 24 bd 65 0e 04 3e 2b 56 d9 bc
       0.14190634 -0.04018737 0.12896116 -0.026530346
0002f0 77 ab a8 3c 4d 8d 8c bd 21 91 39 3e 42 2f bc 3d
       0.020589573 -0.068628885 0.18121769 0.09188701
000300 05 fa 94 bc 8b a5 be 3d b6 3a 94 3d 8e e8 cb bc
       -0.018185625 0.093089186 0.07237761 -0.024891164
000310 50 9b 1a 3e 94 10 db 3d eb c8 b9 3c 6f ed 8b bc
       0.1509831 0.106965214 0.022678813 -0.01708099
000320 70 c8 ad bc 22 e5 af 3d 89 1a 4b bd f2 a5 23 bd
       -0.02121374 0.085886255 -0.049585853 -0.03995318
000330 cd ad 06 3e 71 2b 04 3e a6 15 87 3c 1b 9a 9c 3d
       0.13152237 0.12907197 0.016489815 0.07646581
000340 dc f2 ef 3d 44 e6 77 bd f2 2c 25 3c 4e 40 03 3e
       0.117162436 -0.060522333 0.010081517 0.12817499
000350 11 58 b4 3c 15 4a 2d bd b5 cb 1e 3e 25 4c 20 3e
       0.02201465 -0.04230698 0.15507396 0.15654047
000360 f5 43 90 3d 97 bb a6 3d 6d 7c af 3d 0d 54 be 3d
       0.07044212 0.08141249 0.08568654 0.09293375
000370 c2 81 eb 3d 03 ed a0 3d 60 72 8c 3d af 6d f7 3d
       0.11499359 0.078577064 0.06857753 0.12081467
000380 cc 8d 12 3e d9 51 27 3e 60 fc ef bc 89 ff 95 3d
       0.14311904 0.16339816 -0.029295146 0.0732413
000390 67 d8 ba 3d 62 00 e2 bc 45 0e 65 ba d7 17 08 3e
       0.09123307 -0.027588073 -0.0008737783 0.13290344
0003a0 6b d6 00 3e 39 d4 c0 3d 2c 53 25 3e 7f 11 87 bc
       0.12581794 0.09415478 0.16145009 -0.016487835
0003b0 c4 38 03 3e 9d a7 fd 3d fd 8d 0f 3e 98 d5 87 3d
       0.12814623 0.12385485 0.14019008 0.06632537
0003c0 0d 6d 2b 3e a4 5c e1 3d 6d 25 21 3e 9c 64 09 bd
       0.16740818 0.11003998 0.15736933 -0.033543214
0003d0 86 b9 01 bc a1 86 09 3e eb 2e e5 3d d3 71 15 3e
       -0.007917767 0.13430263 0.111905895 0.14594202
0003e0 f9 f1 51 3e db 5c f1 3d f3 9e ca 3d 95 af ba bc
       0.20502461 0.11785289 0.098935984 -0.022788802
0003f0 3c 80 0c 3e c3 67 bd bc 42 d5 02 3e 32 56 1d 3e
       0.13720793 -0.023120767 0.12776664 0.15364912

fc3.weight f4 [2, 256]
000000 0b e0 20 bf 32 cc 16 bf f8 eb 52 3e 4b e0 30 bd
       -0.6284186 -0.5890533 0.20597827 -0.043182652
000010 69 62 44 bc 0d 20 dc 3b 13 4f 27 3f 84 40 98 bc
       -0.011986353 0.006717688 0.6535503 -0.018585451
000020 e5 5d 64 bf 8c e5 c6 3e ee e5 1b bc ab c2 a4 3c
       -0.8920577 0.38847005 -0.009515269 0.020112356
000030 de f8 f0 3e e1 25 ad be 98 c2 68 bf 27 9c 01 3f
       0.4706487 -0.33817962 -0.90921926 0.50628895
000040 ab 4d 07 bf 47 46 0a bf c5 b4 66 3e a0 a1 47 3d
       -0.52852887 -0.54013485 0.22529896 0.048738122
000050 47 ae 50 bc 15 b0 4b 3e 8c 21 ae bc 92 c0 35 3f
       -0.012736863 0.19891389 -0.02125623 0.70996964
000060 3b c9 b6 be 40 22 56 bb 2e e9 e0 3e 85 ad e6 be
       -0.35700402 -0.0032674223 0.43927902 -0.4505426
000070 5e 0c 38 bf 11 dc 73 bc 3f a6 d8 bf 33 12 45 bf
       -0.7189387 -0.014884011 -1.6925734 -0.76980895
000080 e1 72 35 bf b4 75 02 bf b6 e3 08 bc a9 c1 cb 3c
       -0.70878416 -0.5096085 -0.008355072 0.024872618
000090 98 f3 43 3e cd 44 f9 be ac 7a 04 3f c3 e6 e2 be
       0.19135892 -0.48685303 0.5174968 -0.44316682
0000a0 66 3a ab 3d e0 0c c2 ba e7 d5 d6 3b 6d eb bd 3e
       0.08360748 -0.0014804862 0.006556261 0.37093678
0000b0 04 f1 f1 bc 6e de 79 bf b7 df 29 3f c8 cc e2 3e
       -0.02953387 -0.97605026 0.66356987 0.4429686
0000c0 a8 36 65 bf e6 55 ee 3e 61 52 44 bf 54 ce 8e 3b
       -0.89536524 0.4654991 -0.766882 0.0043580923
0000d0 1d 41 b9 bc fd 38 d0 3e 09 55 c7 3e eb 92 59 3e
       -0.022614056 0.4066848 0.38932064 0.21247451
0000e0 f2 f1 1d bd 32 d0 36 3e 86 bb 62 3e fa 69 c4 bc
       -0.038560815 0.17852858 0.22141847 -0.023976315
0000f0 e1 22 f8 3e 06 51 3f bf 44 a2 3d bf 92 f4 1c bf
       0.4846411 -0.74733007 -0.7407572 -0.61310685
000100 09 84 97 3d dd da d2 3e 8e 55 74 bf 24 52 b3 bb
       0.073982306 0.41182604 -0.95443046 -0.0054724384
000110 3c 60 26 3f cd 10 40 3e 5b 19 38 3f d8 2b f7 bc
       0.6499059 0.18756409 0.7191369 -0.030172274
000120 75 1c e9 be b9 d3 62 3e 20 3b a0 be 30 fd 3a 3f
       -0.45529523 0.22151078 -0.3129511 0.73042583
000130 43 50 9e 3c 9a 2c 8c bd cd bd b7 bd 29 c2 82 3f
       0.019325381 -0.068444446 -0.089717485 1.0215503
000140 14 4b 3b 3e e9 02 05 3e 99 cc cf bc bb dd fc 3e
       0.18290359 0.12989391 -0.025366114 0.49387917
000150 b7 d8 78 bf a6 2f b3 3e 23 dc d7 be ba de d1 3e
       -0.9720568 0.3499729 -0.42160138 0.4099024
000160 71 84 34 bf 32 96 c2 3e 2a 26 2a 3e f1 2a c7 3e
       -0.7051459 0.38005215 0.16616121 0.3889995
000170 d5 dd d3 3c 96 98 a5 be 6b 5f 64 3e 02 fa 13 3f
       0.025862614 -0.32342976 0.22302024 0.57803357
000180 cc 7b 3a 3e 50 de 37 3e 69 14 f6 3e 14 70 cb be
       0.18211287 0.17955899 0.48062447 -0.39733946
000190 71 e4 c3 bc eb 9a bf 3e 23 87 5a 3e 54 84 ff 3e
       -0.02391264 0.3742288 0.21340613 0.49905646
0001a0 b0 2b 0f 3f 19 51 3d 3f 9c f0 48 3e 31 9c 50 3e
       0.55926037 0.7395187 0.19623035 0.20372082
0001b0 a0 1a d8 be 48 4c 1f bc 26 a7 e3 3d 89 d8 58 3c
       -0.42207813 -0.009722777 0.111158654 0.01323522
0001c0 8f 03 e0 3e a4 e4 05 3f f0 3a 8f be bc 2d 95 bc
       0.43752715 0.52302 -0.27974653 -0.018210284
0001d0 a8 23 2c bf 71 2a 72 3e 4c d7 43 3e 48 53 50 3e
       -0.6724191 0.23649003 0.19125098 0.2034427
0001e0 a4 a8 b2 bc 76 00 c4 3e 5f 4f 83 3c 89 f7 da be
       -0.02180893 0.38281602 0.016029058 -0.4276698
0001f0 bb 6e 1f 3e 54 db c4 bd 62 1d cf 3e 73 58 b2 bc
       0.15569584 -0.09612146 0.40452105 -0.021770691
000200 35 b5 53 3e 98 b9 55 be e2 eb 4b 3e e3 45 fa be
       0.20674594 -0.2087158 0.19914201 -0.48881444
000210 80 5e 2c bf 3e ca 99 3e 81 ae 3b 3e ea 89 5f bf
       -0.67331696 0.3003711 0.18328287 -0.87319815
000220 05 ff ef 3e 03 12 04 bf bd 4f ec 3e 09 a7 ca 3d
       0.46874252 -0.51589984 0.46154585 0.09895141
000230 bb bc 3f 3e 3d af fc 3e fe 0c a1 be b0 93 0a 3d
       0.18724339 0.49352446 -0.31455225 0.033832252
000240 46 69 e7 be 5c 5b 6c 3e f1 29 5a 3e 51 34 21 3f
       -0.45197505 0.23081726 0.21305062 0.62970454
000250 5f 51 07 3f af 62 da 3c 26 bb 41 3f 5a be 55 bf
       0.5285854 0.026658384 0.7567619 -0.8349358
000260 e3 68 13 3f 86 ef 48 3e a4 d4 d8 bb 0a f9 c9 3e
       0.5758192 0.19622621 -0.0066171456 0.39447814
000270 82 f4 61 bf bd 05 ce 3e 4f 3b d1 be 5f d5 3c 3e
       -0.88263714 0.40238753 -0.4086556 0.1844077
000280 b7 d7 42 3c ac e3 02 3f f1 81 b1 3e d5 f7 2a bc
       0.011892251 0.5112865 0.3466945 -0.010435064
000290 ac 05 6b 3f 07 e0 58 3f 3f 82 94 3c e7 59 ad bc
       0.9180553 0.8471684 0.018128512 -0.021161033
0002a0 ae ac f4 3e 9e ed e4 3e 9f 3c eb 3e 3a 4c da 3b
       0.47787994 0.44712538 0.45944688 0.006661919
0002b0 84 d2 dd 3e fa 9e 67 3e ad b6 6a 3e be 6f 69 bb
       0.43324673 0.22619238 0.22921248 -0.0035619582
0002c0 77 83 2b be c7 36 12 bf 68 cd ec 3e b9 cc 1f bf
       -0.16749369 -0.57114834 0.46250463 -0.62421757
0002d0 71 2b 40 bf d5 26 f8 3e e3 38 72 bd 1a c3 cb 3e
       -0.75066286 0.48467126 -0.059136283 0.39797288
0002e0 ad 16 e4 3e 0b dd 6e 3e 9d 48 b3 3d 4b 3a 5b 3b
       0.4454855 0.23326509 0.08754084 0.0033451493
0002f0 be 50 c6 be bc b0 66 be 99 66 8e 3e 8e 49 f1 3e
       -0.38733476 -0.22528356 0.2781265 0.4712643
000300 17 1a 30 ba 8a 60 e6 3e 4a e2 0a 3d ef 6d b1 3c
       -0.0006717755 0.44995528 0.033907212 0.021658866
000310 d4 06 42 3e ee a5 49 3f 63 45 e8 3e a2 71 17 3c
       0.18947917 0.78768814 0.45365438 0.009243401
000320 a2 02 d2 3c b3 23 0a 3f 18 e9 43 bf 88 90 6d bd
       0.025636021 0.5396072 -0.7652755 -0.057999164
000330 47 2d 71 3e e3 ca f5 3b 11 16 bb bc cf c4 dc 3e
       0.23552428 0.0075009926 -0.02283767 0.43118903
000340 43 d9 d2 3e ab 88 de 3e 83 d6 f0 3e c4 87 d4 3e
       0.41181383 0.43463644 0.4703866 0.4150983
000350 82 1b ca bc a5 95 6f 3e 93 00 db be 97 9e da 3d
       -0.02467132 0.23396929 -0.42773876 0.1067478
000360 21 d6 0a 3f d7 d4 da 3e 84 57 dd 3e 29 c7 ed 3e
       0.54232985 0.4274051 0.43230832 0.4644101
000370 a0 e6 2f 3f f4 77 fc bc af a2 86 be 52 a0 09 bf
       0.6871128 -0.030818917 -0.26295993 -0.53760254
000380 9e 61 4b 3e ed 87 4f 3e 91 7b 30 3e 8b 96 fa 3e
       0.19861457 0.20266695 0.17234637 0.4894298
000390 f2 29 6b 3e d5 2a b1 bc 9e 5a 20 3f cd da 84 bd
       0.2296522 -0.02162687 0.6263827 -0.064870454
0003a0 db 46 d3 be cc f7 f8 3e c1 17 3d 3e 20 ab 20 3c
       -0.41264996 0.48626554 0.18466093 0.009806424
0003b0 f7 a0 20 3f 54 a1 e6 3e 54 db 04 3f c3 04 60 3f
       0.6274561 0.4504496 0.5189717 0.87507266
0003c0 4d 78 51 3e a9 b5 bc 3e dc a8 b0 3d 29 4c dc be
       0.20456047 0.36857346 0.08625957 -0.43026856
0003d0 75 50 d7 bc 16 40 cc 3e f9 13 e5 3e 13 f0 0b 3f
       -0.026283482 0.39892644 0.447418 0.546632
0003e0 f0 41 af 3e 7c 03 4f 3e 77 8d ed 3e 7d 8c 6f bc
       0.34229994 0.20216173 0.46396992 -0.014620897
0003f0 fe 0c 43 3e a7 43 63 3c 61 44 86 3e 65 fd 82 3e
       0.19047925 0.01387111 0.26224044 0.2558395

fc3.bias f4 [2]
000000 8a 41 db 3d be 7c 83 3d
       0.1070586 0.06420277
