weights/weights.pt (torch, 272215 bytes, 6 tensors)

fc1.weight f4 [256, 4]
-0.080144994 -0.43299162 -1.3301415 -0.52067715 0.17238985 -0.2430958 0.057887442 0.0014733138
-0.24651591 0.12585981 2.0955265 0.39647824 -0.058633287 0.03403958 -0.34113595 0.013667058
-0.31322712 0.13327307 2.462917 0.50078404 0.45891622 -0.263941 -1.7257679 -0.5961505
0.049429573 -0.038238984 -1.200789 -0.032872025 -0.2602195 -0.23582052 -0.09874744 0.26258555
-0.17705777 -0.39456823 -0.35470185 -0.24239208 0.22596513 -0.23142138 -0.38561657 -0.18182476
0.18024267 -0.17543143 -0.07634023 -0.22596596 0.39462796 -0.053166937 -0.63483644 0.05699156
0.18019187 0.34616342 -0.76414245 -0.2770737 -0.08080736 -0.0144162355 1.155592 0.15361175
-0.22485772 0.100276195 1.2682056 0.12341675 0.75567347 0.16507672 -0.9971765 0.022861052
0.33061394 -0.050735734 -2.2146132 -0.37163508 -0.23192097 0.105258316 2.2355375 0.3936693
-0.119431145 0.019043474 2.3357136 0.24892098 -0.21584097 0.056895632 2.3261614 0.36603555
-0.14670329 -0.39696765 -1.2975008 -0.42722088 0.6070848 -0.5706716 0.20381859 -0.38200894
0.0019631449 0.040049985 -1.7403929 -0.072643586 -0.35774207 0.4145835 0.050918154 0.20011841
-0.034419965 0.0073443954 -2.5195796 -0.18252741 -0.29981518 -0.08221834 -0.66999257 -0.029783338
0.22074556 -0.18584931 -0.34155765 -0.2111664 0.44455275 -0.26321337 -0.17153846 -0.05717607
0.3396738 -0.117507786 -2.307959 -0.488991 -0.14845471 0.47029638 1.3812948 0.5289415
0.2398322 -0.09672045 -2.1075382 -0.41100743 -0.4261005 -0.15372835 0.5254867 -0.07370087
-0.013478309 -0.025293956 0.50850046 0.008018569 0.7395004 0.3595908 0.8775041 0.23290433
-0.1802306 0.24638572 -1.7974132 -0.18054827 -0.28923526 0.039963022 0.0014517416 0.12837365
0.014248225 -0.10556724 0.42254582 -0.37860805 0.35826847 0.7272918 1.1191219 0.5339379
-0.13474098 0.22798023 0.5143894 -0.1595559 0.2470804 -0.14753862 0.0653275 -0.13715144
-0.27737215 0.074518904 0.0824713 0.18943968 -0.11851348 -0.5254095 -1.3104463 -0.4792132
0.12909189 -0.097725384 -0.15192024 0.001648013 -0.30509374 0.18619773 0.14519756 0.24797328
-0.5533621 0.09474339 0.36473316 0.25789997 -0.09576285 0.019530186 2.3113296 0.3277591
0.030457385 0.04591669 -0.07264011 0.1833749 -0.16358079 0.007939966 0.6093705 -0.26984075
-0.18122233 0.06945356 0.18430024 0.200253 -0.25932834 0.10903909 2.3341386 0.41831878
-0.25330076 0.101034075 2.52024 0.4198294 0.78573066 -0.27138266 -0.0020611638 -0.38273582
0.33255714 -0.33832467 0.054093946 -0.2562483 0.3035128 0.011936743 -2.2267957 -0.3699339
0.13877077 -0.0399343 -0.2055147 0.11342715 -0.33725628 -0.27162513 0.7044079 0.09763204
0.6085163 0.43902937 0.9599278 0.32634526 0.24923861 -0.50423735 -0.9085247 0.19839074
0.11538124 0.43721431 -0.13833661 0.13246103 -0.3119763 0.14799862 0.04290115 0.33145514
-0.02087011 0.046909366 -2.3873816 -0.20836332 -0.074649766 0.17165002 -0.03128235 0.24774632
-0.13249281 0.044397924 2.7722845 0.4207806 0.4194717 -0.26236916 -2.125623 -0.6027309
00000000: 0f23 a4bd 14b1 ddbe 1442 aabf 194b 05bf
00000010: f786 303e 1bee 78be 621b 6d3d 351c c13a
00000020: ab6e 7cbe 65e1 003e 1b1d 0640 32ff ca3e
00000030: 7529 70bd 166d 0b3d 5fa9 aebe cceb 5f3c
00000040: 4e5f a0be bc78 083e 6fa0 1d40 6233 003f
00000050: 11f7 ea3e 4623 87be f6e5 dcbf 529d 18bf
00000060: aa76 4a3d 7ba0 1cbd 74b3 99bf d1a4 06bd
00000070: 7e3b 85be ef7a 71be 193c cabd 9d71 863e
00000080: a24e 35be d904 cabe 7b9b b5be a135 78be
00000090: 6763 673e baf9 6cbe 896f c5be 4530 3abe
000000a0: 8991 383e 4ca4 33be 4458 9cbd 9f63 67be
000000b0: ad0c ca3e 93c5 59bd a484 22bf fb6f 693d
000000c0: 3884 383e 553c b13e d79e 43bf 9bdc 8dbe
000000d0: 547e a5bd 1332 6cbc 70ea 933f 664c 1d3e
000000e0: 1a41 66be 9b5d cd3d 9054 a23f ecc1 fc3d
000000f0: d173 413f df09 293e f646 7fbf 1a47 bb3c
00000100: 3b46 a93e 46d0 4fbd 39bc 0dc0 f446 bebe
00000110: b17c 6dbe ac91 d73d 0c13 0f40 068f c93e
00000120: 5198 f4bd 0f01 9c3c 557c 1540 24e5 7e3e
00000130: 6a05 5dbe 650b 693d d4df 1440 0369 bb3e
00000140: 6339 16be 583f cbbe 8214 a6bf b2bc dabe
00000150: e969 1b3f 8917 12bf d2b5 503e ad96 c3be
00000160: 1ba8 003b 740b 243d 32c5 debf 29c6 94bd
00000170: f829 b7be 4a44 d43e 8e8f 503d d7eb 4c3e
00000180: f3fb 0cbd 41a9 f03b cb40 21c0 77e8 3abe
00000190: 6081 99be 1762 a8bd a284 2bbf 30fc f3bc
000001a0: 200b 623e 484f 3ebe a5e0 aebe 013c 58be
000001b0: 6b9c e33e e7c3 86be c7a7 2fbe 7431 6abd
000001c0: b9e9 ad3e eca7 f0bd 9ab5 13c0 075d fabe
000001d0: 8304 18be b0ca f03e 45ce b03f b668 073f
000001e0: 9296 753e 5f15 c6bd e8e1 06c0 916f d2be
000001f0: d829 dabe f76a 1dbe 4c86 063f 7bf0 96bd
00000200: 20d4 5cbc 4535 cfbc 162d 023f 5160 033c
00000210: e64f 3d3f 491c b83e 1ca4 603f 797e 6e3e
00000220: 5f8e 38be 8a4c 7c3e a311 e6bf a5e1 38be
00000230: a516 94be 44b0 233d 5d48 be3a 6274 033e
00000240: 6371 693c a333 d8bd ed57 d83e ead8 c1be
00000250: f76e b73e cc2f 3a3f 633f 8f3f 27b0 083f
00000260: 8af9 09be a673 693e 06af 033f 9f62 23be
00000270: a502 7d3e 5d14 17be 6dca 853d 6d71 0cbe
00000280: b903 8ebe 5e9d 983d b7e6 a83d 7afc 413e
00000290: 32b7 f2bd 3d81 06bf b4bc a7bf 6f5b f5be
000002a0: aa30 043e 3f24 c8bd fb90 1bbe 2402 d83a
000002b0: 3f35 9cbe 9eaa 3e3e abae 143e b5ec 7d3e
000002c0: 23a9 0dbf d308 c23d 4ebe ba3e 770b 843e
000002d0: 501f c4bd c5fd 9f3c d3ec 1340 0ad0 a73e
000002e0: c481 f93c 2413 3c3d 57c4 94bd a1c6 3b3e
000002f0: b981 27be a216 023c b5ff 1b3f 9128 8abe
00000300: 5992 39be ab3d 8e3d 34b9 3c3e 1f0f 4d3e
00000310: afc6 84be e34f df3d 8762 1540 e12d d63e
00000320: a3b0 81be f4ea ce3d 9d4b 2140 e1f3 d63e
00000330: a525 493f abf2 8abe 9714 07bb f3f5 c3be
00000340: ee44 aa3e e438 adbe 9d91 5d3d fa32 83be
00000350: 0866 9b3e 5492 433c d283 0ec0 fa67 bdbe
00000360: ed19 0e3e 2692 23bd 7272 52be 7e4c e83d
00000370: dbac acbe 7312 8bbe 1354 343f 4ff3 c73d
00000380: b9c7 1b3f 75c8 e03e d4bd 753f ba16 a73e
00000390: 6838 7f3e b315 01bf 1395 68bf f126 4b3e
000003a0: 004d ec3d 8eda df3e 1da8 0dbe dda3 073e
000003b0: 5cbb 9fbe f38c 173e 1eb9 2f3d 7db4 a93e
000003c0: cbf7 aabc 0924 403d dcca 18c0 325d 55be
000003d0: fae1 98bd 06c5 2f3e ec21 00bd 36b1 7d3e
000003e0: 32ac 07be 99da 353d 1c6d 3140 8e70 d73e
000003f0: ffc4 d63e 4055 86be 350a 08c0 924c 1abf

fc1.bias f4 [256]
-0.14143154 0.500539 -0.6967121 -0.16508985 -0.6600947 -0.86295444 -0.2874568 0.45936817
0.4753637 -0.0553984 0.47376534 0.17099082 -0.98131275 -0.3693842 -0.2563189 -0.33442113
-0.7375786 -0.73033816 -0.61321396 -0.5485386 -0.41091186 0.3272976 -0.3751536 0.5479195
-0.56809133 -0.58267546 0.54636234 0.5138922 -0.6627492 -0.6203542 -0.7445522 -0.21666478
0.54460394 -0.44237164 -0.5114354 0.6578801 0.54336345 -0.5043194 0.5931832 0.55852586
0.57084554 -0.38019493 0.24298006 0.26178098 -0.46555653 -0.5331728 0.42156917 0.50952476
0.5890665 -0.5794781 -0.62102264 0.19530015 0.045107763 -0.60316163 0.47913063 -0.66811424
-0.4079495 -0.43955263 0.06538222 0.48218808 -0.4310475 0.5087688 -0.6507246 -0.7314737
-0.24425262 -0.19655035 0.17177494 -0.7997611 0.46963733 -0.7239545 -0.07341437 -0.69833493
-0.026854552 -0.41216278 -0.61439085 -0.49321693 0.3074279 -0.32879198 0.005782933 0.6443337
0.60207415 -0.87134767 -0.663117 -0.12981805 -0.5020053 0.12596339 0.48746392 0.40580302
0.5727263 -0.27538335 0.35092896 -0.5156532 0.4719113 -0.21059588 0.19524777 0.07663182
-0.43034586 -0.2853819 0.60463285 -0.28262287 -0.23472513 -0.8572365 0.46160597 0.019533863
-0.5773227 -0.54436314 -0.5991979 0.30898443 -0.44889197 -0.64817554 -0.6906198 -0.553014
0.57711995 -0.7062169 0.5548808 -0.2531375 -0.51048523 -0.06734446 -0.7848031 -0.5761662
-0.25154632 -0.2647112 0.6653028 -0.7323051 -0.5470391 0.13864444 -0.100245476 0.5771732
-0.17514613 -0.17661494 -0.42726266 0.62718415 -0.008566036 -0.33721867 0.58742356 0.65498084
-0.49821946 -0.44222677 -0.40489224 0.18726195 -0.62365484 -0.54836535 -0.69090533 -0.18981636
0.5823326 -0.27636576 0.5555976 -0.65465367 0.20744024 -0.6567547 0.63024855 0.24502489
0.50522906 -0.7595904 0.24669991 -0.5166784 0.66856414 -0.5389967 0.55364126 -0.54366195
-0.43179753 0.58302116 0.5514736 0.35611457 -0.24997042 -0.64719 -0.415341 -0.15355137
0.53255904 0.4497533 0.13796455 -0.20954634 -0.32080188 -0.52061665 -0.571504 0.31360078
-0.5739796 -0.544809 0.55187464 -0.24515794 -0.37638372 -0.5692212 -0.58512306 0.57589597
-0.63662827 0.6232546 -0.42432755 0.2027859 -0.79359823 0.25279683 -0.05056204 -0.4786129
0.11252437 -0.5109102 -0.6214153 -0.09765791 -0.9020619 -0.5564932 -0.46094456 -0.56814677
0.25925696 0.2959874 -0.51165843 -0.3867779 -0.2686766 -0.6669496 -0.32044804 -0.7437555
-0.79297376 -0.35688764 0.029639432 0.4123669 -0.6000465 -0.49848747 -0.7689256 -0.53866196
0.46842107 0.35116753 0.29344904 -0.47093126 -1.0493271 -0.6255931 0.5641154 0.40933427
0.68912196 -0.360576 0.406218 -0.4616185 -0.62364876 -0.2398836 -0.6091084 -0.57312083
-0.7076854 -0.22529282 -0.72370684 -0.44276607 -0.8322317 -0.35201868 -0.41283327 -0.5798988
0.6873526 -0.6013873 -0.16557947 -0.8721019 -0.33118117 0.37693408 -0.5391359 -0.46965456
-0.66305786 -0.47733742 -0.52902716 0.44044748 0.6313783 -0.2517167 -0.49289432 -0.5076464
00000000: 6ed3 10be 5323 003f b95b 32bf 500d 29be
00000010: f7fb 28bf 95ea 5cbf 8a2d 93be 4e32 eb3e
00000020: df62 f33e 6fe9 62bd 5f91 f23e 3818 2f3e
00000030: 5037 7bbf ed1f bdbe 3b3c 83be 3f39 abbe
00000040: f3d1 3cbf 71f7 3abf 97fb 1cbf 076d 0cbf
00000050: 0a63 d2be 8d93 a73e 2214 c0be 7444 0c3f
00000060: 6f6e 11bf 382a 15bf 67de 0b3f 708e 033f
00000070: eea9 29bf 88cf 1ebf f99a 3ebf 5fdd 5dbe
00000080: 2a6b 0b3f 897e e2be 6eed 02bf d56a 283f
00000090: de19 0b3f 141b 01bf dbda 173f 8dfb 0e3f
000000a0: ef22 123f e9a8 c2be c4cf 783e 2808 863e
000000b0: 6d5d eebe 037e 08bf ead7 d73e 3770 023f
000000c0: 10cd 163f ad58 14bf 57fb 1ebf c3fc 473e
000000d0: ebc2 383d cd68 1abf 9c50 f53e 8909 2bbf
000000e0: c2de d0be 0b0d e1be 1de7 853d 5be1 f63e
000000f0: 42b2 dcbe ac3e 023f e395 26bf dc41 3bbf
00000100: 5c1d 7abe 7f44 49be c5e5 2f3e 25bd 4cbf
00000110: 4e74 f03e 1555 39bf 465a 96bd 14c6 32bf
00000120: 14fe dbbc 0007 d3be b848 1dbf ee86 fcbe
00000130: 3167 9d3e 6c57 a8be c27e bd3b 0ef3 243f
00000140: 8821 1a3f a410 5fbf 09c2 29bf 06ef 04be
00000150: 6b83 00bf 8cfc 003e df94 f93e 6ac5 cf3e
00000160: 319e 123f 0cff 8cbe f6ac b33e d901 04bf
00000170: 5c9e f13e 72a6 57be 08ef 473e 25f1 9c3d
00000180: 4b56 dcbe 941d 92be 38c9 1a3f f2b3 90be
00000190: c95b 70be da73 5bbf 9e57 ec3e 7b05 a03c
000001a0: 6ccb 13bf 625b 0bbf 0965 19bf 3533 9e3e
000001b0: 2bd5 e5be d5ee 25bf 76cc 30bf 5392 0dbf
000001c0: 22be 133f a1ca 34bf ab0c 0e3f 3d9b 81be
000001d0: 29af 02bf e4eb 89bd dbe8 48bf a17f 13bf
000001e0: aeca 80be 3a88 87be 4951 2a3f 5978 3bbf
000001f0: c10a 0cbf cff8 0d3e 804d cdbd 9fc1 133f
00000200: 8259 33be 8cda 34be 2cc2 dabe 248f 203f
00000210: 8f58 0cbc eda7 acbe 6461 163f d3ac 273f
00000220: 9f16 ffbe 8c6b e2be 094e cfbe 99c1 3f3e
00000230: d8a7 1fbf ac61 0cbf 2cdf 30bf 385f 42be
00000240: c013 153f d07f 8dbe a53b 0e3f 6297 27bf
00000250: 376b 543e 1321 28bf f857 213f cee7 7a3e
00000260: b156 013f 8474 42bf e79e 7c3e 0945 04bf
00000270: 0527 2b3f b0fb 09bf 6fbb 0d3f 6e2d 0bbf
00000280: 9114 ddbe e040 153f 602d 0d3f a654 b63e
00000290: 3ff8 7fbe 3eae 25bf 93a7 d4be 923c 1dbe
000002a0: ca55 083f 1146 e63e 9446 0d3e 5193 56be
000002b0: 2540 a4be 2247 05bf 164e 12bf 4890 a03e
000002c0: 54f0 12bf 9a78 0bbf a847 0d3f af0a 7bbe
000002d0: 5eb5 c0be 7bb8 11bf a0ca 15bf eb6d 133f
000002e0: 12fa 22bf 9d8d 1f3f 7641 d9be 1ba7 4f3e
000002f0: 4129 4bbf 966e 813e 241a 4fbd c00c f5be
00000300: 2d73 e63d 03cb 02bf 1315 1fbf df00 c8bd
00000310: 87ed 66bf 5776 0ebf ed00 ecbe 1172 11bf
00000320: 54bd 843e a98b 973e 0cfc 02bf c107 c6be
00000330: fb8f 89be 36bd 2abf c411 a4be c366 3ebf
00000340: 5400 4bbf fab9 b6be 65ce f23c c121 d33e
00000350: a69c 19bf c039 ffbe 4fd8 44bf c0e5 09bf
00000360: e3d4 ef3e 3bcc b33e f43e 963e e71d f1be
00000370: 5a50 86bf df26 20bf de69 103f 4394 d13e
00000380: 4c6a 303f 6b9d b8be cefb cf3e 4359 ecbe
00000390: 72a7 1fbf 0ca4 75be 87ee 1bbf 0cb8 12bf
000003a0: df2a 35bf 29b3 66be da44 39bf 3cb2 e2be
000003b0: 230d 55bf cb3b b4be e25e d3be 3f74 14bf
000003c0: 57f6 2f3f 85f4 19bf aa8d 29be 1242 5fbf
000003d0: 9490 a9be 81fd c03e cf04 0abf 9076 f0be
000003e0: 29be 29bf 9265 f4be 536e 07bf 5582 e13e
000003f0: 02a2 213f 03e1 80be a55c fcbe 1df5 01bf

fc2.weight f4 [256, 256]
-0.24451871 0.22136442 -6.1534224 -0.016455239 -1.2540557 -2.6831255 -0.32754186 0.15291044
0.10203627 0.15930517 0.24924387 0.17847732 -0.2589211 -0.0035709087 0.13148595 -0.91865534
-2.8406613 -4.939132 -7.1947513 -0.61624223 -0.08183362 0.34424284 -1.5052518 0.18380007
-2.9959555 -0.33554766 0.2571965 0.27091146 -4.0229387 -0.9080851 -1.2083561 -0.32182935
0.23341241 -0.14620587 -1.6363995 0.18268599 0.16329914 -0.48666614 0.08595477 0.30298406
0.20239149 -0.3081562 0.16464637 0.08353376 -0.23592173 -0.5877374 0.16277558 0.18373659
0.18144476 -0.7710558 -0.53239197 0.20421278 0.25599787 -2.5693514 0.20049101 -0.17381667
-0.037701897 0.052261632 0.1674532 0.11501031 -2.4843767 0.23828588 -0.8416126 -3.838496
-0.13527903 0.029761134 0.19963744 -0.39328843 0.20987561 -0.04356605 0.030832954 -0.001954244
0.17339365 -0.039933175 -1.0095409 -0.060138337 0.15163366 0.06079328 0.09360894 0.2919157
0.2628811 -1.3393136 -0.41954657 0.029482536 -0.12880033 0.19738425 0.25361595 0.14964285
0.23185788 -0.0063680373 0.1910482 0.09402207 0.19019826 0.014080747 0.17772093 0.04929144
-0.07551437 -0.011143282 0.25595465 0.033714555 -0.10780434 -0.30541983 0.15213147 0.14162971
0.0397879 -0.061531797 -0.023095565 0.176314 -0.41800755 -0.30416524 -0.39337614 -0.056918267
0.23822126 -0.58702976 0.26236418 -0.08130573 -0.8288109 -0.06930275 0.026519828 -0.648766
0.088683285 0.1597075 0.223864 -3.736931 -0.01436315 0.11648348 0.027351674 0.19604342
0.05022674 -0.08156532 -0.39154044 0.26636177 0.075149484 -0.88116616 0.27559623 0.2915692
-0.48184595 -0.38716534 -0.2527083 0.17183354 -7.2089105 -1.4768461 -3.7047527 -0.093778364
0.23492777 -0.33208665 0.20419207 -3.19038 0.20833202 -0.9619723 0.20195885 0.15183046
0.1734744 -2.430625 0.11425061 -2.572217 0.2350437 -1.8505194 0.2733862 -0.1905781
0.10636438 0.18177454 0.22082475 0.23518604 -0.5426805 -2.4305718 0.08783275 0.10639444
0.13372606 0.2287831 0.017773971 -0.06653003 0.20785652 0.04898516 -0.37356248 0.16643971
-0.78830326 -0.18107264 0.2570665 -0.07994306 -0.02251546 -0.57083166 -3.2992797 0.327177
-4.6803555 0.26100656 -0.006930529 0.047010787 -0.9355943 0.12294248 -0.015238376 -0.56144243
0.18138815 -1.2496728 -0.60910565 0.09740874 -1.5778403 -1.4479107 -1.4132323 -3.1415565
0.19106066 0.24856248 -2.9723437 -0.97479117 0.03628752 0.104660645 -0.78530765 -1.2029729
-1.5500139 -0.35468742 0.08905827 0.17377675 -0.6971352 -2.8311257 -0.36957714 -5.6551576
0.15676153 0.12788315 0.0710373 -0.73008335 -0.95856637 -3.2637868 0.16449788 0.17829935
0.23487028 -0.005133859 0.25983843 -3.7037027 -0.055825897 0.1350229 -5.183812 -0.26313734
-2.3611913 -0.14334294 -1.8734612 -0.15712148 -1.1126008 -0.265542 -0.36997575 -0.06690861
0.29091343 -0.056646172 0.1314066 -0.9420326 -0.16697253 0.12191249 -0.8284448 -0.23416954
-0.2535539 -0.66893643 -0.5056029 0.19142091 0.1912012 0.004256821 -0.091027066 -3.1009731
00000000: 1d63 7abe 5bad 623e d6e8 c4c0 23cd 86bc
00000010: e684 a0bf 54b8 2bc0 91b3 a7be 8e94 1c3e
00000020: 64f8 d03d e520 233e c939 7f3e c2c2 363e
00000030: 4e91 84be e805 6abb 41a4 063e ff2c 6bbf
00000040: 65cd 35c0 5f0d 9ec0 673b e6c0 0dc2 1dbf
00000050: 6398 a7bd 9940 b03e 17ac c0bf 1636 3c3e
00000060: bcbd 3fc0 e7cc abbe 42af 833e e8b4 8a3e
00000070: eabb 80c0 4478 68bf 6aab 9abf d1c6 a4be
00000080: aa03 6f3e feb6 15be 8a75 d1bf 0912 3b3e
00000090: e437 273e 4e2c f9be 0e09 b03d ba20 9b3e
000000a0: b73f 4f3e a6c6 9dbe 0f99 283e bf13 ab3d
000000b0: 7795 71be f575 16bf a4ae 263e 7225 3c3e
000000c0: a8cc 393e ea63 45bf d74a 08bf 281d 513e
000000d0: 2712 833e 4170 24c0 844d 4d3e fffc 31be
000000e0: 4e6d 1abd 4b10 563d da78 2b3e 878a eb3d
000000f0: 0700 1fc0 3701 743e ec73 57bf eba9 75c0
00000100: 9686 0abe 9fcd f33c c26d 4c3e 1a5d c9be
00000110: a2e9 563e 5072 32bd 6495 fc3c c612 00bb
00000120: 1b8e 313e f890 23bd a338 81bf 9e53 76bd
00000130: db45 1b3e 6002 793d 0bb6 bf3d fa75 953e
00000140: 5a98 863e a16e abbf cfce d6be 5c85 f13c
00000150: 3ce4 03be 191f 4a3e f3d9 813e fa3b 193e
00000160: 276c 6d3e f8aa d0bb 24a2 433e a58e c03d
00000170: 55c3 423e efb2 663c 7afc 353e d2e5 493d
00000180: 47a7 9abd 5092 36bc 7d0c 833e 4618 0a3d
00000190: 86c8 dcbd fd5f 9cbe 5ac8 1b3e 6107 113e
000001a0: a3f8 223d c408 7cbd e932 bdbc a88b 343e
000001b0: 1605 d6be 8cbb 9bbe 9968 c9be 2123 69bd
000001c0: 46f0 733e 9547 16bf 9954 863e 9e83 a6bd
000001d0: f32c 54bf 9aee 8dbd 1c40 d93c 8715 26bf
000001e0: 959f b53d 5d8a 233e 9b3c 653e e129 6fc0
000001f0: 6b53 6bbc e48e ee3d 9e10 e03c 9bbf 483e
00000200: 8eba 4d3d b80b a7bd fd77 c8be 9260 883e
00000210: f9e7 993d 1b94 61bf f31a 8d3e 8f48 953e
00000220: 83b4 f6be 893a c6be fb62 81be 22f5 2f3e
00000230: 65af e6c0 4b09 bdbf ab1a 6dc0 df0e c0bd
00000240: e890 703e 4307 aabe ba17 513e 302f 4cc0
00000250: fd54 553e d143 76bf 4dce 4e3e 7279 1b3e
00000260: 46a3 313e 5c8f 1bc0 39fc e93d 349f 24c0
00000270: 4caf 703e d2dd ecbf 47f9 8b3e e826 43be
00000280: 91d5 d93d 1b23 3a3e e21f 623e 9cd4 703e
00000290: 1ced 0abf 7d8e 1bc0 a8e1 b33d 54e5 d93d
000002a0: 7cef 083e 1e46 6a3e b89a 913c e540 88bd
000002b0: 57d8 543e aaa4 483d 9543 bfbe 2c6f 2a3e
000002c0: 3ece 49bf 1b6b 39be 389e 833e 30b9 a3bd
000002d0: 5872 b8bc 0622 12bf 6627 53c0 be83 a73e
000002e0: 79c5 95c0 a7a2 853e 7e19 e3bb 628e 403d
000002f0: 1c83 6fbf 44c9 fb3d 62aa 79bc b1ba 0fbf
00000300: d1bd 393e 47f5 9fbf 59ee 1bbf 3c7e c73d
00000310: acf6 c9bf 2355 b9bf cce4 b4bf 430f 49c0
00000320: 68a5 433e 2a87 7e3e e13a 3ec0 ea8b 79bf
00000330: 39a2 143d 5258 d63d ec09 49bf 04fb 99bf
00000340: db66 c6bf 9799 b5be 2f64 b63d 88f2 313e
00000350: 7477 32bf 2a31 35c0 3739 bdbe 0df7 b4c0
00000360: 1886 203e cdf3 023e 017c 913d bee6 3abf
00000370: 9b64 75bf e2e1 50c0 2272 283e 1b94 363e
00000380: d681 703e ee39 a8bb 8b09 853e 7709 6dc0
00000390: b2a9 64bd 7143 0a3e cae1 a5c0 f0b9 86be
000003a0: c21d 17c0 7ec8 12be 94cd efbf 74e4 20be
000003b0: b469 8ebf 1ff5 87be 766d bdbe 6207 89bd
000003c0: 9bf2 943e d105 68bd 748f 063e 0c29 71bf
000003d0: d9fa 2abe 41ad f93d f514 54bf 24ca 6fbe
000003e0: d1d1 81be 6b3f 2bbf 316f 01bf d803 443e
000003f0: 3fca 433e cd7c 8b3b 666c babd 5876 46c0

fc2.bias f4 [256]
0.33096024 -0.07243076 0.2672824 -0.017457897 -0.06809865 0.26850054 -0.017192269 -0.13374901
0.032293115 0.09673355 -0.051621545 0.38045144 0.021168906 -0.028867831 -0.027596347 0.3616717
-0.058274947 -0.038435027 0.35193548 -0.062144995 -0.0625881 0.06087974 0.23778254 0.03482708
-0.07479494 0.34887406 0.20108093 -0.0676136 0.2972975 -0.08217447 0.06345787 0.2921973
0.053398147 -0.048603076 0.2699944 -0.0069846828 -0.094289035 -0.21997038 0.24855122 -0.004070503
-0.0161984 0.033210434 0.2943355 0.3769613 -0.012464886 0.0005579575 -0.033559486 0.2678467
0.017659687 -0.053454664 0.01714043 0.36548114 -0.060727626 -0.022360157 0.22366713 -0.0750342
-0.106179364 -0.06964075 0.047829323 0.24489008 -0.025407076 0.037804738 -0.10154307 -0.055635832
-0.048406098 -0.06737506 -0.094607174 0.29302472 0.31028122 -0.0018038821 -0.06697216 0.026805088
0.019583378 0.051325984 0.2912598 -0.045835573 0.30289465 -0.06996305 0.24125592 0.28368086
0.27153137 -0.026064727 -0.06734233 -0.014586563 0.35533556 -0.0364467 -0.07246931 0.02242987
-0.013710535 -0.06592921 -0.12386489 0.37039375 -0.0061546047 0.0166768 -0.014855517 -0.038977817
-0.07607311 -0.030468112 0.26905414 -0.034464587 0.36456063 -0.03947368 0.09062672 -0.028335001
0.38110542 -0.009940199 0.3324225 0.23981956 0.31118268 -0.067921005 -0.05376996 -0.046664916
0.037845068 0.2132559 -0.037659496 -0.09256089 -0.065632015 -0.085175745 0.04927762 0.18391745
0.24263315 -0.06781014 -0.08560382 -0.10304877 0.026369117 -0.07389041 -0.04797322 -0.049819067
-0.021048516 -0.0684456 0.046305057 0.36536354 -0.057642717 -0.01231964 -0.0624339 -0.021204133
-0.06780335 0.0034122993 -0.03191595 -0.013658296 0.03129514 -0.06781898 0.0028974821 -0.07736264
0.29439062 -0.012291678 -0.06428418 -0.030251436 0.0067249076 -0.07292141 0.027318146 0.23625666
0.25384626 0.24710521 0.10443947 0.041381396 0.028767098 -0.19838382 -0.010988614 0.009396407
0.25305715 -0.025693849 -0.014495328 -0.07671265 -0.029528677 0.308521 -0.0035209747 -0.020683018
0.2245781 -0.023124536 0.044781283 0.33324304 -0.12770894 0.34542844 -0.005871763 0.2954321
-0.025218068 0.2705618 -0.04994502 0.3027208 -0.13263552 0.013632508 0.018335717 -0.04714633
0.02837174 -0.040605217 -0.023632199 -0.047129285 -0.040667374 -0.040257633 0.02683855 0.3043741
-0.00076157355 0.35126173 0.009539403 -0.015889395 -0.027766824 0.30259502 0.037159506 0.014379631
0.3458548 -0.010608922 -0.067965806 0.042708457 0.32642394 -0.006292694 0.041555963 0.039889116
0.014474318 0.020862026 -0.031034606 -0.062118083 -0.036282994 -0.11130359 -0.053930465 0.037724562
0.27779895 -0.07973466 -0.025224475 0.24805608 -0.08167471 -0.03220526 -0.026314238 0.024504874
-0.024586821 -0.0021034328 0.33878142 0.25690332 0.02198898 -0.10177036 -0.016218273 -0.06003475
0.27265957 -0.025821172 -0.059705846 -0.12274512 0.33333325 0.02457419 -0.11287704 0.042265948
0.2620507 -0.058907915 0.33818173 -0.013726627 -0.008041284 0.02700235 0.30566984 -0.015577324
0.013900661 0.3029856 -0.015436244 -0.009171514 -0.022861633 0.0044617197 -0.045304112 0.0346489
00000000: 9f73 a93e 9456 94bd 3dd9 883e dd03 8fbc
00000010: 4e77 8bbd e778 893e cdd6 8cbc 80f5 08be
00000020: c945 043d 3d1c c63d 1d71 53bd 88ca c23e
00000030: 6a6a ad3c 3b7c ecbc bc11 e2bc 082d b93e
00000040: b6b1 6ebd 0c6e 1dbd e330 b43e c08b 7ebd
00000050: 312e 80bd 095d 793d 447d 733e d7a6 0e3d
00000060: 172e 99bd 9f9f b23e 29e8 4d3e 0079 8abd
00000070: 6137 983e 174b a8bd 33f6 813d e29a 953e
00000080: 04b8 5a3d 0514 47bd b53c 8a3e c4df e4bb
00000090: 9c1a c1bd ea3f 61be 3684 7e3e db61 85bb
000000a0: 82b2 84bc aa07 083d 25b3 963e 1201 c13e
000000b0: 8539 4cbc e543 123a ac75 09bd 3423 893e
000000c0: 0cab 903c 47f3 5abd 166a 8c3c 5820 bb3e
000000d0: 88bd 78bd a62c b7bc ff08 653e 88ab 99bd
000000e0: 9174 d9bd cf9f 8ebd aee8 433d 77c4 7a3e
000000f0: 8022 d0bc 24d9 1a3d d0f5 cfbd 66e2 63bd
00000100: 7945 46bd effb 89bd 68c1 c1bd 5607 963e
00000110: 2edd 9e3e 3d70 ecba b328 89bd 5896 db3c
00000120: 526d a03c 323b 523d 0120 953e 15be 3bbd
00000130: 0215 9b3e ca48 8fbd cb0b 773e 9e3e 913e
00000140: 2906 8b3e b285 d5bc c7ea 89bd 7bfc 6ebc
00000150: 8bee b53e 2349 15bd ca6a 94bd d9be b73c
00000160: 27a2 60bc e505 87bd e0ac fdbd 40a4 bd3e
00000170: 91ac c9bb c99d 883c 8e64 73bc 34a7 1fbd
00000180: 38cc 9bbd 4398 f9bc 77c1 893e bd2a 0dbd
00000190: b1a7 ba3e 27af 21bd 809a b93d ce1e e8bc
000001a0: 4020 c33e 37dc 22bc 4833 aa3e 4293 753e
000001b0: 5653 9f3e 2b1a 8bbd e43d 5cbd b623 3fbd
000001c0: 6e03 1b3d c15f 5a3e d840 1abd 9090 bdbd
000001d0: 146a 86bd 9f70 aebd 54d7 493d db54 3c3e
000001e0: d374 783e 0be0 8abd 0e51 afbd 3c0b d3bd
000001f0: 0c04 d83c db53 97bd 917f 44bd 140f 4cbd
00000200: f06d acbc 352d 8cbd 5faa 3d3d ee10 bb3e
00000210: c51a 6cbd 51d8 49bc b0ba 7fbd 4ab4 adbc
00000220: 7cdc 8abd e2a0 5f3b 4dba 02bd 0cc7 5fbc
00000230: 552f 003d ade4 8abd afe3 3d3b 4e70 9ebd
00000240: 5eba 963e 0963 49bc 6da7 83bd dcd1 f7bc
00000250: 9d5c dc3b d257 95bd 4eca df3c 44ed 713e
00000260: 23f8 813e 2609 7d3e 5ce4 d53d 8a7f 293d
00000270: faa8 eb3c 2125 4bbe 9609 34bc 63f3 193c
00000280: b590 813e e87b d2bc d07d 6dbc 861b 9dbd
00000290: 20e6 f1bc 77f6 9d3e 27c0 66bb 6f6f a9bc
000002a0: cdf7 653e ab6f bdbc 946c 373d d59e aa3e
000002b0: 22c6 02be ffdb b03e eb67 c0bb e042 973e
000002c0: 1f96 cebc 1487 8a3e 2693 4cbd 38fe 9a3e
000002d0: 9bd1 07be e25a 5f3c c934 963c 831c 41bd
000002e0: da6b e83c a851 26bd 5098 c1bc a30a 41bd
000002f0: d592 26bd 30e5 24bd 85dc db3c ecd6 9b3e
00000300: 56a4 47ba 94d8 b33e 284b 1c3c 7a2a 82bc
00000310: 4077 e3bc bced 9a3e 9134 183d 8b98 6b3c
00000320: e113 b13e 0bd1 2dbc a831 8bbd 10ef 2e3d
00000330: 0a21 a73e f132 cebb 9636 2a3d c562 233d
00000340: b125 6d3c d7e6 aa3c 493c febc 886f 7ebd
00000350: 7a9d 14bd 23f3 e3bd 31e6 5cbd 1285 1a3d
00000360: aa3b 8e3e ed4b a3bd 8fa3 cebc 6a02 7e3e
00000370: 1245 a7bd aae9 03bd f590 d7bc 72be c83c
00000380: 4d6a c9bc bfd9 09bb c274 ad3e d588 833e
00000390: 3c22 b43c fa6c d0bd 2fdc 84bc ffe6 75bd
000003a0: 099a 8b3e ec86 d3bc 1e8e 74bd cb61 fbbd
000003b0: a8aa aa3e d04f c93c 142c e7bd 0f1f 2d3d
000003c0: 822b 863e 6d49 71bd 2826 ad3e a6e5 60bc
000003d0: 97bf 03bc 0834 dd3c c280 9c3e 0838 7fbc
000003e0: 99bf 633c ee20 9b3e 4de8 7cbc 1e44 16bc
000003f0: 5248 bbbc 9e33 923b ce90 39bd 01ec 0d3d

fc3.weight f4 [2, 256]
-0.17536105 0.004662601 -0.016584503 -0.0032152906 0.035868008 -0.117400736 0.043602306 0.009685278
0.06217892 0.045156978 0.033703677 0.6378495 0.017031295 -0.03650007 0.033535913 0.69704354
0.02687529 -0.0024518913 -0.26642087 -0.03941729 0.04268021 -0.008085319 0.19017294 -0.006713753
0.011851034 0.26654664 -0.3071272 -0.013609088 0.25885898 0.029113548 -0.13640328 0.67602533
-0.008616728 -0.029927658 0.17758057 0.013825612 -0.020302145 -0.44297615 0.02897331 -0.02135052
0.0014881203 0.02245412 0.21991539 0.61221796 -0.0041686706 -0.009638777 -0.020393252 0.110339776
-0.020988626 0.027133921 -0.014111693 0.6486363 0.05291416 0.012032388 0.26540974 0.01794097
0.056054443 -0.042133655 -0.010533986 0.5962059 -0.025171252 0.01610843 -0.028126344 -0.03801647
0.025225546 -0.021656265 0.00037336483 0.22409134 0.6146419 0.017485026 0.061717182 0.023492903
-0.03032442 0.009266449 0.3566598 -0.012590132 0.2322164 -0.047492113 -0.43528676 0.48691502
0.6573294 0.041994058 -0.027049448 -0.009255203 0.059193928 -0.016210718 -0.038421724 -0.0049363617
-0.026385399 -0.01414744 0.06464723 -0.09529665 0.054606896 -0.023473637 -0.03396338 0.048692033
0.05558459 0.016035004 -0.15139748 -0.03309594 0.5705432 0.03526708 0.6540176 0.00077590515
0.6284652 -0.0064192773 0.6568053 -0.07185247 0.50409925 0.00342475 0.017664047 0.005401367
0.0011349496 0.24756135 -0.033586774 -0.036775064 -0.019806689 0.022097535 0.035198133 0.59671664
0.26164502 -0.005868504 0.0034422122 0.04427379 -0.043752637 -0.04071008 0.028078957 0.038289852
-0.029057749 -0.026010323 -0.020851206 0.6131157 -0.044296794 0.027675916 -0.051776 0.006538713
0.037261624 -0.017963646 0.021465866 -0.045411058 -0.014068874 0.036515627 -0.041227136 -0.039166465
0.24454907 -0.053626377 -0.029537428 -0.030637942 0.02898692 -0.02259456 0.002118675 0.64588875
-0.11000461 0.038455565 0.46480656 -0.04437116 -0.013421737 0.31362638 0.034417126 -0.0036863699
0.041320857 -0.018598517 0.0100859115 0.043897495 0.0426833 0.54956394 0.014591751 -0.051921878
0.144689 -0.010395016 0.009343594 0.017241964 -0.009716981 -0.06446606 0.010651913 0.2556856
-0.034206886 -0.20610513 0.041330222 0.50357187 0.06951245 -0.009048552 0.007014224 -0.010306389
0.0409764 -0.01987972 0.005368039 -0.05170384 0.02156266 0.012117357 0.05770423 0.19156581
-0.0055520837 0.26986757 0.05707986 0.045912612 -0.014043415 0.08245318 0.008049709 0.041378107
0.004992612 -0.0014350263 0.022769999 0.009224209 0.22082798 -0.0010992745 -0.03829957 0.035879172
0.0027208917 -0.035213612 0.023723777 0.0042880327 0.008302357 -0.013993882 -0.026710872 -0.036569417
-0.18031006 -0.035440415 0.026532633 0.5360658 0.034134496 -0.0018909792 0.019483317 0.057391338
-0.036995266 -0.060609426 0.586707 0.17983986 -0.08497572 0.04853329 0.018834457 -0.015126588
-0.10535471 -0.03178625 0.031600073 0.042805925 0.016012289 -0.00076510577 -0.05566472 0.026575709
0.12430813 0.0022662198 0.33389372 -0.01371599 0.034641623 -0.00989536 -0.108782485 0.032828953
-0.046887327 -0.27048925 0.0100456625 0.054224513 -0.0205578 -0.055776965 -0.36839828 0.03821919
00000000: d991 33be bbc8 983b 39dc 87bc a0b7 52bb
00000010: 55ea 123d cc6f f0bd 5598 323d 00af 1e3c
00000020: 53af 7e3d 86f6 383d de0c 0a3d 1b4a 233f
00000030: 3785 8b3c 1981 15bd f45c 093d 7271 323f
00000040: 9129 dc3c e9af 20bb 5168 88be 0674 21bd
00000050: 72d1 2e3d 4978 04bc b2bc 423e 0bff dbbb
00000060: d72a 423c cd78 883e c73f 9dbe a7f8 5ebc
00000070: 2a89 843e 897f ee3c 4dad 0bbe ff0f 2d3f
00000080: 2d2d 0dbc d92a f5bc aed7 353e d284 623c
00000090: af50 a6bc c5cd e2be 6f59 ed3c 49e7 aebc
000000a0: 080d c33a b4f1 b73c 8031 613e 51ba 1c3f
000000b0: 5899 88bb f6eb 1dbc c00f a7bc d2f9 e13d
000000c0: 57f0 abbc f547 de3c bb34 67bc 070d 263f
000000d0: 85bc 583d 7e23 453c c9e3 873e f1f8 923c
000000e0: 5899 653d 5794 2cbd bd96 2cbc f3a0 183f
000000f0: f133 cebc d4f5 833c 3869 e6bc 28b7 1bbd
00000100: cea5 ce3c 7b68 b1bc 2ec0 c339 3378 653e
00000110: 2c59 1d3f c23c 8f3c 28cb 7c3d 3074 c03c
00000120: eb6a f8bc 4ed2 173c 1d9c b63e d746 4ebc
00000130: 23ca 6d3e 1787 42bd e8dd debe ed4c f93e
00000140: bd46 283f f601 2c3d ce96 ddbc 23a3 17bc
00000150: 5575 723d 57cc 84bc 1960 1dbd 34c1 a1bb
00000160: 3126 d8bc aaca 67bc c465 843d e42a c3bd
00000170: 7bab 5f3d c94b c0bc 2f1d 0bbd 4c71 473d
00000180: abac 633d d75b 833c f107 1bbe 9c8f 07bd
00000190: 1f0f 123f 3774 103d b36d 273f 1d66 4b3a
000001a0: 18e3 203f cd58 d2bb 6424 283f 6327 93bd
000001b0: a60c 013f c571 603b 31b4 903c f3fd b03b
000001c0: 97c2 943a b980 7d3e 4992 09bd 73a1 16bd
000001d0: a341 a2bc e405 b53c eb2b 103d 6cc2 183f
000001e0: 56f6 853e 944c c0bb bd96 613b 6f58 353d
000001f0: f735 33bd 9dbf 26bd d705 e63c d2d5 1c3d
00000200: 840a eebc 9a13 d5bc 26d0 aabc 27f5 1c3f
00000210: 8e70 35bd 9ab8 e23c 1213 54bd b342 d63b
00000220: a59f 183d 7f28 93bc 2fd9 af3c f200 3abd
00000230: 2281 66bc 6991 153d c9dd 28bd 046d 20bd
00000240: 126b 7a3e 55a7 5bbd 7af8 f1bc 6cfc fabc
00000250: fa75 ed3c 3a18 b9bc 78d9 0a3b f758 253f
00000260: 194a e1bd 9583 1d3d 20fb ed3e 89be 35bd
00000270: d8e6 5bbc a393 a03e f9f8 0c3d 0697 71bb
00000280: 0f40 293d eb5b 98bc 613f 253c dccd 333d
00000290: afd4 2e3d 39b0 0c3f 3d12 6f3c 09ac 54bd
000002a0: 5a29 143e db4f 2abc e015 193c 053f 8d3c
000002b0: f933 1fbc c806 84bd 5c85 2e3c 39e9 823e
000002c0: 851c 0cbd 390d 53be e149 293d 16ea 003f
000002d0: 8b5c 8e3d 6140 14bc 93d7 e53b 21dc 28bc
000002e0: dfd6 273d cbda a2bc 60e6 af3b 68c7 53bd
000002f0: 2da4 b03c e187 463c 455b 6c3d d429 443e
00000300: 41ee b5bb 152c 8a3e 92cc 693d dd0e 3c3d
00000310: 5a16 66bc 36dd a83d ede2 033c 177c 293d
00000320: 1199 a33b 7e17 bcba 2688 ba3c 2321 173c
00000330: bb20 623e 8815 90ba 03e0 1cbd 0af6 123d
00000340: fd50 323b 263c 10bd 5e58 c23c a082 8c3b
00000350: 9c06 083c 9846 65bc c2d0 dabc d0c9 15bd
00000360: 33a3 38be f829 11bd f75a d93c 9c3b 093f
00000370: 9dd0 0b3d bcda f7ba 7a9b 9f3c 2e13 6b3d
00000380: 5988 17bd 9741 78bd 6e32 163f f127 383e
00000390: c007 aebd d8ca 463d b84a 9a3c 82d5 77bc
000003a0: 36c4 d7bd 4d32 02bd 146f 013d 4455 2f3d
000003b0: 342c 833c 6191 48ba b000 64bd 4db5 d93c
000003c0: 4395 fe3d dc84 143b 1ef4 aa3e 08b9 60bc
000003d0: 60e4 0d3d 2620 22bc 5ac9 debd a777 063d
000003e0: ed0c 40bd 917d 8abe 9096 243c 861a 5e3d
000003f0: d568 a8bc 6376 64bd b39e bcbe ba8b 1c3d

fc3.bias f4 [2]
0.25565845 0.24504463
00000000: aae5 823e fbec 7a3e
