weights/weights.pt (torch, 272215 bytes, 6 tensors)

fc1.weight f4 [256, 4]
000000 39 7f 89 bd 1e 96 a5 be dc 49 c7 be 91 75 38 3e
       -0.06713719 -0.32341093 -0.38923538 0.18013598
000010 22 7e 4e be ab b9 5d 3d 5a c1 5b 3f 27 69 a5 3e
       -0.20165303 0.054132145 0.85841906 0.32306787
000020 83 ec 73 3a 8f 02 74 3d 42 0b c0 3e 0a 27 34 be
       0.00093049573 0.059572753 0.3750859 -0.17593017
000030 e1 23 d8 be 83 3f aa be a4 5e 4d be 30 98 8f 3d
       -0.42214873 -0.3325158 -0.20055634 0.07011449
000040 f9 72 a2 bb 06 f3 e1 bc 89 31 5c 3f 36 59 89 3e
       -0.0049575535 -0.027581703 0.86013085 0.26825875
000050 76 4e 77 be bf b1 9b 3e 16 79 25 be e7 b2 8c 3e
       -0.24151024 0.30409047 -0.16159472 0.27480242
000060 27 ab f8 3d a8 d8 46 3d 4f f0 38 bf b2 db 17 be
       0.1214202 0.048546463 -0.7224168 -0.14829901
000070 15 3a b3 3e e2 71 37 3e 39 4c 59 bd eb 31 15 bd
       0.3500525 0.17914537 -0.053051207 -0.03642456
000080 ec 0f 8d 3d 6e 09 c1 3b 29 a2 f7 3d c5 4b c9 bd
       0.068878025 0.0058910167 0.120914765 -0.09828905
000090 a4 c6 99 be ba 0d 92 3e 2d 90 3d be fc 89 17 3e
       -0.30034363 0.28526098 -0.1851203 0.1479873
0000a0 f3 05 ac 3e 37 2a be be 39 6c e5 bd 81 bf a4 3e
       0.3359829 -0.37141582 -0.112022825 0.32177356
0000b0 e1 ba 70 bd 19 94 82 be 6d 9f 10 3e 46 a3 c1 3d
       -0.05877197 -0.25503615 0.14123316 0.0945497
0000c0 1a da 82 bb 1b e8 a8 3e 73 64 89 be ae da 4f bd
       -0.003993285 0.32989582 -0.2683445 -0.05074566
0000d0 21 bb 8d 3e a4 2f 30 be 53 eb 9f be 2a 14 26 be
       0.2768183 -0.17205673 -0.31234226 -0.1621863
0000e0 0d 20 6f 3e e9 51 43 be 42 0a a4 3e 97 7a 73 be
       0.2335207 -0.19074215 0.32039076 -0.23777233
0000f0 58 cb fa bd 46 75 70 be 1b a5 cf be 89 1a 98 3c
       -0.12245816 -0.23482236 -0.40555653 0.01856734
000100 d3 7b 6b 3d 07 64 dd 3d 47 50 68 be b1 29 72 3c
       0.057491135 0.10810094 -0.22686873 0.014780448
000110 fd c3 41 3e 7a 26 99 3e e7 d3 09 3f 55 28 bb be
       0.1892242 0.29912168 0.5383896 -0.36554208
000120 27 74 8e bd 81 c0 1c 3e 08 50 bc 3e 8c 88 8a 3e
       -0.06955748 0.1530781 0.3677981 0.27057302
000130 c7 c0 b8 bc fe e6 75 3d ad f7 77 bd 42 99 d9 bd
       -0.02255286 0.060034744 -0.060538936 -0.10624935
000140 b2 a0 80 3e 44 79 b1 3e be a8 0f 3f b6 ea 5e 3e
       0.251226 0.3466283 0.56116855 0.21769223
000150 d7 ce 4e be 8b 87 f2 3a 44 3c 99 3e ab e5 bf bd
       -0.2019609 0.001850353 0.29928792 -0.093699776
000160 9d ba a4 3e 3d d6 1f 3e e6 14 d7 be 5b 11 ae be
       0.32173625 0.15609069 -0.42008132 -0.33997616
000170 f3 46 dc 3e 81 16 c5 3d 7a 50 18 bc c1 3f 86 bc
       0.4302288 0.09623433 -0.009296531 -0.016387822
000180 19 f2 e4 3e 63 55 3c 3e 28 84 c8 be eb b8 41 be
       0.44715956 0.18391947 -0.39163327 -0.18918197
000190 2d 03 52 3e d1 07 1b be a6 d1 69 be cb dc 67 3d
       0.20509024 -0.151397 -0.22833881 0.05660705
0001a0 cf 78 9e be 65 45 a1 be 47 32 2f be 4c cd 16 be
       -0.30951545 -0.31498256 -0.17109023 -0.14726752
0001b0 be da 9c 3e c4 d7 76 3d 93 1d 91 3e 1c d5 60 3d
       0.30635637 0.060264364 0.28342876 0.054890737
0001c0 19 17 3c 3e a9 94 93 3e a7 23 15 3f e5 81 d4 3e
       0.18368186 0.28824356 0.58257526 0.41505352
0001d0 b4 ca 65 3e 38 2c a5 3e 65 ba e8 3e 82 69 9b 3e
       0.22440606 0.322603 0.45454708 0.30353934
0001e0 15 e7 36 3e 3f b8 38 be 0f 28 ff 3e 9d df db 3e
       0.17861588 -0.18039034 0.4983525 0.4294404
0001f0 92 1f 78 bd fc d1 0a be 6c 40 02 3f e2 0e 95 3e
       -0.060576983 -0.13556665 0.5087955 0.29112917
000200 20 b3 e8 3e d5 3b 96 3e 43 5b ec be a2 23 8d be
       0.45449162 0.29342523 -0.46163377 -0.27566248
000210 e9 5b a6 3e 85 6d e4 bd 5e bd 67 be aa cc 9f be
       0.32491997 -0.11153702 -0.22630832 -0.31210834
000220 f3 f1 b5 3e 92 07 0a be 2b 99 dd be a8 c7 49 be
       0.35536155 -0.1347945 -0.4328092 -0.19705069
000230 25 e1 43 be 31 8a 95 3e 3b 18 87 3d 9c 6e be 3d
       -0.19128855 0.29206994 0.065964185 0.09298441
000240 93 5a 38 be d2 1e 2f 3e e8 e9 98 3e 04 8b 3f be
       -0.18003301 0.17101601 0.29865956 -0.18705374
000250 c7 53 1f 3e f7 70 a3 3d 4f 58 5f be 36 e4 0d 3e
       0.15559302 0.07980531 -0.21811031 0.13856587
000260 24 64 09 3d 96 74 08 be 1f 55 8d bc ac 74 55 3e
       0.033542767 -0.13325724 -0.017252503 0.20845288
000270 f6 f2 02 3e 06 25 36 bd 18 56 d0 3e 89 67 b9 3e
       0.12787995 -0.044468902 0.40690684 0.36211804
000280 5f dd 2c 3e d7 4c 13 3e 9d a5 23 3f 43 35 22 3e
       0.16881321 0.14384781 0.6392458 0.1584063
000290 70 96 ee 3e c8 b4 bf 3e a9 d1 b5 3e 1d d8 9d 3e
       0.4659915 0.37442613 0.3551152 0.30828944
0002a0 64 97 82 3e 34 21 b0 be 3a 3e 3c bf 40 ac b1 be
       0.25506127 -0.34400332 -0.7353245 -0.3470173
0002b0 70 c3 d1 3d 3e 49 b5 3e c8 9f 2e 3f 2a 79 a0 3e
       0.10242355 0.35407442 0.68212557 0.3134244
0002c0 e7 26 46 3e 7d 7a 17 be fd af 0a bf 70 9c d1 be
       0.19350778 -0.1479282 -0.54174787 -0.40939665
0002d0 db fd 3c be d5 2b 26 bd ec f8 b3 be 80 02 b9 be
       -0.18456213 -0.040569145 -0.3515085 -0.3613472
0002e0 8c ee 7b be 2d b9 9c 3e 25 48 3d 3f c9 f6 89 3e
       -0.24602717 0.30610028 0.7393821 0.26946095
0002f0 de fd 33 be 4e 9d b1 be a8 37 7f 3e f1 41 79 3d
       -0.17577311 -0.34690326 0.24923575 0.060853902
000300 1f b4 26 3e da a9 cd be 4d 05 07 bf d8 fd 6b 3d
       0.16279648 -0.4016865 -0.52742463 0.05761513
000310 ce 22 8c be 42 0d 3e be 14 a2 f3 be 46 7b 2d be
       -0.27370304 -0.18559745 -0.47584593 -0.16941556
000320 9d f9 87 3e 81 6e 1a 3e 2c 85 0e bf 25 c2 a8 be
       0.26557627 0.15081216 -0.55671954 -0.3296062
000330 93 7d 46 3d 08 66 78 bd 9a a2 ad 3d 30 0c 42 3e
       0.0484596 -0.06064418 0.084782794 0.18949962
000340 3e 6f ec 3d 32 7b 33 3e d4 2e 33 3f 62 4b 06 3e
       0.11544655 0.17527464 0.6999333 0.13114694
000350 6e b3 76 be 18 b3 46 bd e7 3b 4d 3e cb bc a0 3e
       -0.24091884 -0.04851064 0.20042382 0.31394038
000360 72 71 d7 be 62 86 40 3e cd c4 d3 3e 82 bf fc bc
       -0.4207874 0.18801263 0.41361085 -0.030853037
000370 9d 66 01 bf b1 2c 59 3d b6 ee 7a 3c 04 a5 66 3d
       -0.505472 0.053021137 0.015315702 0.056309715
000380 30 2d cf bc 36 9b 70 be fb 5e 8a 3e fe ab 8f be
       -0.025290102 -0.23496708 0.2702559 -0.28060907
000390 40 56 99 3e 47 70 48 be 7e 06 12 bf 09 01 8f bd
       0.29948616 -0.1957408 -0.57041156 -0.06982619
0003a0 ef 0e c7 be bf 7a d6 3d d0 47 f2 3d 13 f7 0d 3e
       -0.3887858 0.10472631 0.118301034 0.13863783
0003b0 f4 9b 64 3e c1 31 23 bd bc e8 c6 bd 8f e1 ee 3d
       0.22325116 -0.03984237 -0.09712359 0.11664116
0003c0 60 32 f8 3e e6 6b 8f bd 83 ee 8e be b0 ed a2 bc
       0.48475933 -0.07003002 -0.27916345 -0.019888729
0003d0 80 fb de be a5 8b 99 3e 19 5d d9 3e 86 a5 fd bd
       -0.43551254 0.29989353 0.4245384 -0.12385087
0003e0 36 12 81 be f6 5e b4 3e 0e f1 9e 3e ff 89 8f be
       -0.25209206 0.352287 0.31043285 -0.2803497
0003f0 d1 90 5c 3e 76 56 86 3e f2 45 21 bf 3e 5a 5c be
       0.21539618 0.2623784 -0.62997353 -0.215188

fc1.bias f4 [256]
000000 88 ed 49 3e 24 40 78 be 23 e3 f2 3e b2 e1 92 be
       0.19719517 -0.24243218 0.47438917 -0.28687817
000010 84 0e 44 be 19 1b 98 3e de be 58 be 22 2b f6 3e
       -0.19146162 0.29708174 -0.2116656 0.48079783
000020 d1 68 c3 3e 2e 68 a0 be 48 c3 8f 3d 3f 2b a7 be
       0.38165906 -0.31329483 0.07019669 -0.32650182
000030 50 26 b4 be 7f 89 b8 3e 25 d5 dd 3e ae 2e e7 3e
       -0.3518548 0.360424 0.4332668 0.451528
000040 60 be ae 3e c4 10 ab 3e 92 30 b9 3e 08 48 c9 3e
       0.3412962 0.3341123 0.3616987 0.39312768
000050 3a f7 10 bc df 15 4e 3e 41 77 74 be 14 b8 96 3e
       -0.008848006 0.2012553 -0.23873617 0.29437315
000060 97 24 ed bd 89 ca b9 3e 13 4e b7 3c e4 16 d0 3e
       -0.115792446 0.36287335 0.022376096 0.40642464
000070 b9 a0 8f bd a1 d2 fd bd 0c b0 5d be 68 a6 42 be
       -0.07013077 -0.1239369 -0.21649188 -0.19008791
000080 52 3c 52 bd f3 24 5c be 8c 68 c5 bd 80 90 71 3e
       -0.051327057 -0.2149847 -0.09639081 0.23590279
000090 79 0e 74 3e b5 d9 7d 3e 84 6b d8 3e aa ea ea bd
       0.23833646 0.2479008 0.42269528 -0.1147054
0000a0 31 1e d5 3d 18 17 38 3e 46 05 48 be c7 65 07 be
       0.10406149 0.1797756 -0.19533262 -0.13222419
0000b0 6c 30 28 be 40 ec 12 be c3 bd 39 3e 29 4b b6 3c
       -0.16424721 -0.14347935 0.18138795 0.022252636
0000c0 6d 6c b5 bc 30 1f c0 3d 2f a8 97 3d 82 f2 bf 3e
       -0.022146428 0.093809485 0.07405125 0.37489706
0000d0 ca f9 93 3d a0 df a5 be 09 a8 3e 3d e3 9e 02 bc
       0.07225378 -0.32397175 0.04654697 -0.007972452
0000e0 7e cd f5 3e 35 cb b4 3e 50 ab 86 3e d0 5a 91 3e
       0.4800834 0.35311285 0.26302576 0.28389597
0000f0 91 f1 3c bd ae f1 3c 3e 14 79 e0 3e 66 fb 80 be
       -0.046128813 0.18451568 0.43842375 -0.25191802
000100 e3 12 21 3e fa ee c7 3d 41 40 85 be ea 5a 0c be
       0.15729861 0.09762378 -0.26025584 -0.13706556
000110 e3 0c ec 3d 68 46 0d bd 62 f9 f7 3e 93 be 84 bd
       0.115258954 -0.034490973 0.4843245 -0.06481662
000120 76 32 b9 3e 4f 1a 0d be fe 87 d1 3e 2e bb ff 3e
       0.3617131 -0.13779567 0.40924066 0.49947494
000130 e1 9c 9f 3e 05 9f b7 3d 8e 4d 09 3e 6a 3a 2b be
       0.31174377 0.089658774 0.13408491 -0.16721502
000140 f8 7f 6e 3e e5 23 3e 3e d3 b5 f4 bd f0 c7 74 3c
       0.23291004 0.1856838 -0.11948743 0.014940247
000150 91 51 25 3e dc e7 89 3e d6 ab d3 3e cc 36 3e 3d
       0.16144396 0.26934707 0.41342038 0.046438977
000160 3d 8d c9 3e 83 d6 8d be a8 e3 fa 3c e3 83 ad 3e
       0.3936557 -0.27702722 0.030626133 0.33889684
000170 d0 53 84 3d dd df 38 be 4a 64 76 be 58 39 e2 bd
       0.064612985 -0.18054147 -0.24061695 -0.11046094
000180 d6 22 59 3e 33 64 a0 3c 90 74 74 3e 06 a0 81 be
       0.21204695 0.019579029 0.2387259 -0.253174
000190 f3 7e 24 be 4b 5d e1 bd 17 9e c1 be c6 50 b2 3e
       -0.16064052 -0.11004122 -0.37815925 0.3482725
0001a0 ba bd d4 bd 75 13 be 3d a9 48 0e 3e 07 be 9d be
       -0.1038775 0.09281055 0.13894905 -0.30809042
0001b0 c6 c2 55 3e f4 a2 2c be 2a c9 a0 be b1 31 be 3e
       0.20875081 -0.16859037 -0.31403476 0.37147287
0001c0 7a 61 ae 3d e2 61 9b 3e c6 9a 00 3f da 93 a0 3e
       0.08514686 0.30348116 0.50236166 0.31362802
0001d0 05 dc d0 3e 10 80 0f be c4 21 e5 3e 84 98 d0 3e
       0.40792862 -0.14013696 0.44752324 0.4074136
0001e0 0b 7e ad 3d 61 c4 d0 3e f7 37 d6 3e 18 25 a0 3e
       0.084713064 0.40774825 0.41839573 0.312783
0001f0 9c 06 8f 3e ce 0e 7b be ee e6 7b 3e be cf ca 3e
       0.2793473 -0.24517366 0.24599811 0.3961162
000200 c3 9d 83 be ab 15 ad 3d 68 12 9f 3e 18 59 bd 3e
       -0.257063 0.084513985 0.3106873 0.36982036
000210 88 ef d7 3c e8 de 30 be dd 56 0a bb 59 38 03 3f
       0.026359335 -0.17272532 -0.0021108903 0.51257855
000220 20 14 bb 3e f6 88 b2 3e ea e5 f1 3e 7f 50 c1 be
       0.36538792 0.34870118 0.47245723 -0.37756726
000230 26 ba 53 bd 74 de d8 3e 02 50 5b 3e 3d fe 92 bc
       -0.051691197 0.42357218 0.2141724 -0.017943496
000240 bd c4 9d be 07 b6 4b bd d9 18 81 3e b7 eb 20 be
       -0.30814162 -0.04973414 0.2521427 -0.15714918
000250 1a d3 66 3b c8 f0 7c 3e c1 5a dc 3c 3c d4 5e be
       0.0035221041 0.24701226 0.026898744 -0.21760648
000260 6e 3f 38 be 06 2a 35 be a9 ba 01 3f 79 61 11 3d
       -0.17992947 -0.17691812 0.50675446 0.035493348
000270 bc 84 a2 bd d1 db 15 be ac 29 6d 3e 11 9a e8 3e
       -0.07935473 -0.14634635 0.23160428 0.45430043
000280 82 35 e3 bd 6e d5 b7 3e 8f 73 1f 3d ec 27 dd 3e
       -0.1109419 0.3590502 0.038928565 0.4319452
000290 9b ea de 3e 64 16 94 3e f6 e5 cb 3e 2f 92 20 be
       0.43538365 0.28923333 0.39823884 -0.15680765
0002a0 7f 47 33 be c2 c4 89 3e d9 97 c8 3e 18 cb 46 be
       -0.17507742 0.26907927 0.3917835 -0.19413412
0002b0 12 d9 a3 be 94 72 0f bc 31 83 3d bc 34 71 50 3e
       -0.3200155 -0.008755345 -0.011566923 0.20355684
0002c0 60 55 56 3e 4e ad ef 3d 4a 4f 25 be 42 93 b2 bd
       0.20931005 0.11702977 -0.16143528 -0.087194934
0002d0 d1 e5 03 be 8b 22 e7 bd 29 24 cc 3e af 06 c7 3b
       -0.12880637 -0.112858854 0.39871338 0.006073795
0002e0 9d 0d f5 bd 04 97 ed 3e e3 4e b3 3e f6 43 1e 3e
       -0.11965487 0.46404278 0.35021123 0.15455613
0002f0 6d 46 89 3e 1d 99 cb 3b e2 f2 ab 3d c3 39 2f bd
       0.26811543 0.006213321 0.083959356 -0.042779695
000300 d7 11 86 3e 98 19 78 be df ba fd 3d 1e a2 30 be
       0.26185486 -0.24228513 0.123891585 -0.17249343
000310 83 f8 0a be 11 f4 e7 3e bb 60 1d 3e ea f2 fb 3e
       -0.13571362 0.45303395 0.15368931 0.49208766
000320 5f e9 7f bd 1b 8e 76 be cd a1 17 be d7 84 c1 3e
       -0.06247842 -0.24077646 -0.14807816 0.3779666
000330 f0 bf a3 3e 96 36 e1 3e 2c 2b 99 be 0d 22 35 be
       0.31982374 0.43986958 -0.2991575 -0.1768877
000340 a8 40 4f be 04 45 bd bd c9 59 ce 3d f7 77 37 3e
       -0.20239508 -0.09241679 0.10075719 0.17916857
000350 d8 b4 73 bd 23 d7 c9 3e 53 9d 18 be 59 98 7e 3e
       -0.059498638 0.3942195 -0.14903764 0.24862804
000360 21 5d b4 3e 87 43 40 bb 93 1e d6 3e 77 51 83 be
       0.35227302 -0.0029337124 0.418202 -0.2564809
000370 ff 22 e3 bd 3b 2e 3e 3e d6 4b a1 bd 07 bf 3a be
       -0.11090659 0.18572323 -0.07875793 -0.18236934
000380 96 43 5e 3e 74 61 f3 3e b7 cf da 3e 13 2c f4 3e
       0.2170547 0.47535288 0.427366 0.47689876
000390 14 15 a1 3e 9f 0b b2 bd a2 54 ca 3e eb cd 83 3e
       0.31461394 -0.08693623 0.39517695 0.2574304
0003a0 58 46 82 3d 0e fc d5 3e 81 94 e5 3e 98 90 ba bc
       0.06361073 0.41793865 0.44839862 -0.022774026
0003b0 eb 94 31 bd f7 54 28 3e 6c c5 f5 bd 42 9f 63 be
       -0.04335491 0.16438662 -0.12000546 -0.22228721
0003c0 ea 3c 51 be e0 78 95 3e 3d a6 f9 bd b4 2e 28 bc
       -0.20433393 0.29193783 -0.121899106 -0.010265041
0003d0 5b 23 58 3d 5d d3 8e 3e de d1 f7 3e 0f d9 ea 3e
       0.052768093 0.27895632 0.48402303 0.45868728
0003e0 05 75 1e 3e bf 78 27 be b7 93 3e 3e 80 fe d0 3e
       0.15474327 -0.16354655 0.18611036 0.40819168
0003f0 30 88 af bd 63 80 39 be b9 7f e6 bd f1 52 80 bd
       -0.085708976 -0.18115382 -0.1125483 -0.0626582

fc2.weight f4 [256, 256]
000000 bb 13 ac bd 93 b8 cf 3d f8 bd 2b 3e 06 95 ac be
       -0.08402201 0.101426266 0.16771686 -0.33707446
000010 15 10 35 3e aa 44 98 3d 35 f8 27 bf 3d 26 14 3e
       0.17681916 0.07434972 -0.6561311 0.14467712
000020 fc 1a be 3d 6c 5f 4a bb 69 32 20 3b ee f3 31 be
       0.092824906 -0.003087963 0.002444411 -0.17378208
000030 74 11 71 3e 77 41 82 3d 8d 9f ee 3d 15 c1 86 bc
       0.23541814 0.06360143 0.11651526 -0.01644949
000040 1d 75 5f 3d 1b df f5 3d 95 6c a2 3d 6c d4 c0 3d
       0.054555047 0.120054446 0.07930867 0.09415516
000050 0d 92 21 3e 55 95 ee 3d ba ba ee be 35 d6 dd 3d
       0.1577837 0.116495766 -0.46626836 0.108318724
000060 96 31 20 bf 69 b1 99 3c 28 e7 22 be 36 84 25 3e
       -0.6257566 0.018761354 -0.15908492 0.16163716
000070 be 27 ba 3d 71 63 da bc 18 56 8b 3d 82 44 93 3d
       0.090896115 -0.026658745 0.068035305 0.07190801
000080 5a 86 bf bd de 7a 23 bf 06 3b 96 bf 73 48 0b 3e
       -0.093517974 -0.63859355 -1.1736763 0.13601856
000090 61 94 b0 3d 78 47 91 3d 2e 80 d2 3c f6 21 c7 3d
       0.08622051 0.0709371 0.025695886 0.097232744
0000a0 f2 b7 86 be aa a8 a2 3d a1 d9 9f bf 70 00 2b 3e
       -0.26312214 0.07942326 -1.248829 0.16699386
0000b0 43 4f 4d bf fb af 58 be 8b 87 e8 3d 3b bc b5 bc
       -0.8019907 -0.21160881 0.11353978 -0.022184482
0000c0 12 f2 ac be 7c 19 8d be 04 6e 25 be bf e6 72 3d
       -0.33778435 -0.27558506 -0.16155249 0.059302088
0000d0 d4 69 fa 3d e7 1b 1a be 7e a2 3a 3e e6 b0 a7 bd
       0.12227216 -0.15049706 0.18226048 -0.081880376
0000e0 1b cc a0 3d 0c 34 69 3c 83 be ce 3b 6e 76 86 3d
       0.0785143 0.0142336 0.006309332 0.065655574
0000f0 30 a1 2f bf 74 14 bf 3d af bc fe 3d ad 42 05 bf
       -0.6860533 0.09330073 0.12438332 -0.52054864
000100 10 fb 37 3e dd 2f c0 be a5 c5 1d bf dc ea 62 3e
       0.17966866 -0.37536517 -0.61629707 0.22159904
000110 fc dc 93 be 8c 61 88 3d 68 d1 94 3a 85 2c a2 be
       -0.28879535 0.066592306 0.0011353912 -0.3167459
000120 38 18 5e bc 75 20 66 bf e9 7f 90 3d b3 b6 b0 3d
       -0.013555579 -0.89893275 0.07055647 0.08628597
000130 8e 0f 83 3c ed e5 21 3e d6 b0 85 3e d5 7e 41 bf
       0.015998628 0.15810366 0.26111478 -0.75584155
000140 a9 c6 5a 3e d6 03 45 3e 77 75 bc be 13 69 26 3e
       0.21364845 0.19239745 -0.3680837 0.1625102
000150 7c 3c 39 bd 03 eb a4 bc ee 33 8d 3d 0b 6d fa bd
       -0.045223698 -0.020131594 0.068946704 -0.122278295
000160 77 7c d2 3c ec c6 4a 3d c5 0b 2e bd be 34 a1 bd
       0.025694115 0.049506113 -0.042491693 -0.07871388
000170 6a 60 3b 3e 95 49 dc 3d 28 e1 df 3c ec 95 16 3e
       0.18298498 0.10756222 0.027329043 0.14705628
000180 bd 73 86 3d 9c 75 00 3e e3 12 34 bb ca dd 93 bf
       0.06565044 0.12544864 -0.0027477078 -1.155206
000190 32 f1 9a bf bd d8 93 be 3e 3d aa bd e9 aa b0 3d
       -1.2104857 -0.28876296 -0.08312462 0.086263485
0001a0 d1 32 3e 3e 0e 5c 20 3e 00 3d c0 be c1 7c 1d bd
       0.18574072 0.15660116 -0.3754654 -0.038449053
0001b0 ba 2d 91 bd 0a 50 bf bd c1 3b a3 be 32 4a d8 bb
       -0.070888 -0.09341438 -0.31881526 -0.0066006416
0001c0 1e 00 9d be 4c f1 8b 3d 04 36 82 3d d0 6c e4 3d
       -0.30664152 0.06833133 0.06357959 0.11153567
0001d0 35 3c f0 3d 6c 3a 2d 3d 92 99 1f 3d 7d f6 c6 3a
       0.117302336 0.042292044 0.038964815 0.001517966
0001e0 34 d1 ba be 8f 6c c2 3d 8b fb 34 bd 5e 68 8b 3b
       -0.36487734 0.09493362 -0.044185203 0.004254385
0001f0 c8 65 cb 3d 74 84 47 3d 83 39 26 3e 17 1b bd 3d
       0.099315226 0.0487103 0.16232876 0.092336826
000200 01 24 c3 3c 00 2c 29 be d0 5a 8c 3d a9 63 d7 3d
       0.023820879 -0.16520691 0.068532586 0.105170555
000210 3a 9f ae be 0b e8 b6 3e 9d ff 4d 3e fe 22 cc 3d
       -0.34105855 0.3572391 0.2011704 0.09967612
000220 8c 2e ba 3d a9 e0 d2 3d 85 69 e0 3c 9d 45 bd be
       0.09090909 0.10296757 0.027394066 -0.36967173
000230 10 2a 44 bf 4a cc 11 3d bf 4f 15 3e df d7 d2 3c
       -0.7662668 0.035595216 0.14581202 0.025737701
000240 cf d8 0b be bc e8 d5 3c d2 d2 08 3e 20 20 07 be
       -0.13656925 0.026111953 0.13361672 -0.13195848
000250 46 08 c9 be 28 df a6 3d 17 19 73 be ec 14 5d be
       -0.39264125 0.081480324 -0.2374004 -0.21590012
000260 31 f5 30 bc 79 ab 62 bc ce b0 b2 3c a2 76 ce bb
       -0.010800646 -0.013834828 0.021812823 -0.006300763
000270 75 6b ad ba 06 86 4e bf e3 ac 12 3d ce 8b cf 3d
       -0.0013230877 -0.80673254 0.03580941 0.101340875
000280 66 cb c4 3c d5 6a 51 3d 88 c0 ee bd 1c e8 09 3e
       0.02402277 0.051127274 -0.11657816 0.13467449
000290 af 38 59 3c 37 aa 86 3d 10 5a f0 3c 51 65 65 bf
       0.013258143 0.06575435 0.02933982 -0.8960772
0002a0 2a f0 72 bf 1d 6b d5 3d aa d7 58 3d 32 6d a5 bf
       -0.9489771 0.10420821 0.05294005 -1.2923949
0002b0 66 7a 81 3c b9 2b cc bd d5 91 6b bd f9 fc 9e 3d
       0.015805434 -0.09969277 -0.057512123 0.077630945
0002c0 ad 42 1d 3e 44 eb 99 bd e6 c0 9c 3d 2b 91 a7 bd
       0.15357466 -0.075155765 0.0765398 -0.081819855
0002d0 ee a5 79 3d e2 f3 95 3e 2d ca a5 3d 52 e4 67 3c
       0.06094926 0.2928763 0.080952026 0.014153557
0002e0 9c a0 4b 3e 61 44 82 3d 4c aa 05 3e c7 1f e1 be
       0.19885486 0.063606985 0.13053244 -0.43969557
0002f0 54 9a 03 be a6 7f b3 3d ec e3 36 bd 1a 2a 0d bf
       -0.1285184 0.087645814 -0.044650957 -0.55142367
000300 e7 3a 9d bc 10 86 ae be c3 87 35 bd 30 70 1e 3e
       -0.019193126 -0.34086657 -0.044318926 0.15472484
000310 4b 8f 6a 3c 46 91 99 3d 46 90 f7 3d dd 34 f3 3d
       0.01431639 0.07498412 0.12088065 0.11875317
000320 d9 fa f2 3d 20 9a a8 bf 8c 09 4b 3e b1 07 9f bd
       0.11864252 -1.3172035 0.1982786 -0.07765139
000330 1d 46 b7 3d e2 91 10 3e 9b f3 1c 3b 6e 38 31 3f
       0.0894892 0.1411815 0.002394891 0.6922673
000340 93 04 e9 be 54 52 e1 bd f4 9e f8 bd b3 be 46 bd
       -0.45511302 -0.11002031 -0.12139693 -0.04852171
000350 26 fa 12 be c3 83 88 3d cb 57 02 be 11 75 0a ba
       -0.14353237 0.066657566 -0.12728803 -0.00052817265
000360 ec d9 c5 3d 37 a3 9f bd 64 7e b5 3c 7e f9 a6 be
       0.09660706 -0.07794803 0.022154994 -0.32612222
000370 f9 b0 03 3e 24 97 25 3e 08 01 ad be d7 8f 23 3e
       0.12860478 0.16170937 -0.3378985 0.1597284
000380 ce 3c 8c 3c ea 64 c2 3c 85 35 0f bc 18 01 79 3d
       0.017118838 0.02372976 -0.008740787 0.06079206
000390 f8 22 b7 3c 9e 2f f1 bc c4 af 9b 3d c9 02 6d be
       0.022355542 -0.029441651 0.07601884 -0.23145594
0003a0 82 01 4e 3e 52 a9 e9 3d 57 a4 b1 3d 71 3e ee bd
       0.20117763 0.114092484 0.086739235 -0.116330035
0003b0 b8 9b 98 bb a0 d7 33 3d a7 68 87 bf 70 94 67 bf
       -0.004657235 0.043906808 -1.0578812 -0.9046087
0003c0 47 46 60 bf da 6c 80 bb f7 4d bb 3d d1 35 c3 bd
       -0.87607235 -0.003919226 0.0914573 -0.09531749
0003d0 72 11 fa 3b 3d c9 81 3d 03 95 91 3d f6 16 05 3d
       0.007631474 0.06337211 0.071085 0.0324926
0003e0 29 90 17 3d 0a 4e 6a be 56 73 bf bd 87 ba 85 3c
       0.037002716 -0.22881332 -0.093481705 0.016324295
0003f0 d7 d7 73 3e 9b f8 de 3c a8 2b 54 bf 8e 15 c8 bd
       0.23812805 0.027218154 -0.82879114 -0.09769736

fc2.bias f4 [256]
000000 71 b8 b0 3d 68 c5 0d 3d df db 0a 3e 89 8b 82 3c
       0.086289294 0.03461209 0.13560437 0.015935676
000010 12 da c2 3c bb 5d 3f 3b 24 b1 ac 3d bf ce 0e 3d
       0.023785625 0.0029200155 0.084322244 0.034865137
000020 f8 26 b3 bc ef 49 01 3e 02 31 06 bc 28 27 12 bd
       -0.021869168 0.1262586 -0.008190395 -0.035681874
000030 1d f3 e3 3d 66 41 94 3d 11 26 15 3b b1 78 e5 3d
       0.111303546 0.07239036 0.0022758285 0.11204661
000040 b7 f3 15 3c 2b 3c 40 bd 3a 15 36 3e 75 ac d3 3d
       0.009152344 -0.04693238 0.17781535 0.10335628
000050 f1 7e 0e 3c 2d 98 1c 3e d8 2a fc bc 00 49 6b 3b
       0.008697257 0.15292425 -0.030782148 0.0035901666
000060 dc 40 b8 3c fd 7c 54 3d 0d 99 72 3d 3e e8 50 3d
       0.022491865 0.05187701 0.05922799 0.051002733
000070 7a 4a 30 bd 1a f1 94 bc 45 75 98 3d 9e 7b 81 bc
       -0.043039776 -0.018181372 0.074442424 -0.015806016
000080 f8 b5 ac 3d e4 42 17 bc 71 72 63 bb 49 e5 1d bd
       0.08433145 -0.009232257 -0.0034705664 -0.03854874
000090 ff 11 0b 3e 91 38 3e bd 98 06 00 3e c9 a7 a7 3c
       0.13581084 -0.046440665 0.12502515 0.020465748
0000a0 24 40 a5 3d 63 2c 8d bc ec 56 19 bd 4b d6 6f 3d
       0.080688745 -0.01723308 -0.03743641 0.058553975
0000b0 28 89 c2 3c 0c c6 16 bd aa 44 1b 3e 53 68 0f 3e
       0.023747042 -0.036809966 0.15162912 0.1400464
0000c0 dc bc 37 bd 8c 71 c6 3d 8c 67 3a bc 0c c0 97 3c
       -0.044857845 0.09689626 -0.011377227 0.018524192
0000d0 de 2b 96 3c b6 25 87 3d 3c 03 02 3e c4 36 ee 3d
       0.018331464 0.0659899 0.12696546 0.116315395
0000e0 0a a6 a8 3c 1e 2d 38 3e ad 73 06 3e c4 ed a5 3c
       0.020586986 0.17985961 0.13130064 0.020254977
0000f0 4d b7 90 3d 42 7e 5d bd bb d9 7e bc e1 7e da bc
       0.07066212 -0.054075487 -0.015554841 -0.026671829
000100 35 cf 09 3d b1 e6 a2 3d cd 95 e1 3b 4c 86 b2 3c
       0.033644874 0.07954157 0.0068843127 0.021792553
000110 a7 6c ea 3d 61 90 16 3e b8 37 79 3d d6 b1 90 bd
       0.11446505 0.14703514 0.060844153 -0.070651695
000120 d8 67 26 3c be 89 01 3e 69 c5 bb 3d 6c 4b 0c 3e
       0.010156594 0.126502 0.091685124 0.13700646
000130 5e 7e 96 bc d8 2b dd 3d 43 bf 67 3c 06 14 d3 3c
       -0.018370803 0.10799378 0.014144721 0.025766384
000140 ab 59 16 3e 35 25 dd 3d 4c 55 e4 3c 3f 0e f0 3d
       0.14682643 0.10798112 0.027872704 0.11721467
000150 e0 18 38 bd 61 ae da 3d 41 88 69 bd 86 8d c2 3d
       -0.044945598 0.106777914 -0.057014707 0.0949965
000160 38 a0 0c bd b9 ba 9a 3d 04 26 ce bb ee aa e2 3d
       -0.034332484 0.07555146 -0.006291153 0.110677585
000170 cc da 14 bd 77 99 ad 3d ae b9 0a 3e aa 92 8d 3d
       -0.036341473 0.08476537 0.13547394 0.069127396
000180 2e 1f 4c 3e b4 bd 38 3e 2d 8c da 3d f2 a9 c8 3d
       0.19933769 0.18041116 0.10671268 0.097980395
000190 8a 2d 93 3c c2 f0 a0 3d 20 70 38 3e 3b 4e ad 3d
       0.01796605 0.07858421 0.18011522 0.08462187
0001a0 13 d6 b8 3d d0 e2 e6 3d f5 ba 46 3e da 75 3c 3e
       0.090252064 0.1127373 0.19407256 0.18404332
0001b0 8d 57 d9 3c 94 d0 f1 3c 42 f6 cc bc b0 85 53 bc
       0.026531005 0.029518403 -0.025019769 -0.012910292
0001c0 42 41 0d 3e 7b 31 84 3d f6 9e 53 3c ce 43 13 bd
       0.13794425 0.0645475 0.012916317 -0.035953335
0001d0 2c 54 49 bc 50 33 01 3e f6 e1 15 3e c9 c5 fc 3d
       -0.012288135 0.1261723 0.14636979 0.12342412
0001e0 3f f5 22 bd 11 28 c1 3d 32 47 10 3d 28 94 db bc
       -0.039784666 0.0943147 0.035224147 -0.026804045
0001f0 9c 5e b8 3d 3e bf 8c bd a1 79 cb 3d 33 b7 ff 3c
       0.0900242 -0.06872414 0.09935308 0.031215286
000200 c3 31 e6 3d 62 d5 9a bc 89 04 3f 3e 6f 59 05 3c
       0.1123996 -0.018900577 0.18654074 0.008138998
000210 ab 57 eb b9 fd 1a 0b 3e 4b 33 05 3e 83 3b 9e 3c
       -0.0004488801 0.13584514 0.13007848 0.019315487
000220 fd 41 fa 3d d5 94 2c 3c 18 77 b3 3d 8d f1 90 3d
       0.122196175 0.010533531 0.0876295 0.07077322
000230 3c be 4f 3e cf a4 9f 3d f2 24 90 3c 62 07 b2 bc
       0.20287412 0.077951066 0.017595742 -0.021732036
000240 92 57 56 3d c8 ed 00 3e ec 67 36 3e 5b 26 8b 3d
       0.052329607 0.12590706 0.1781308 0.06794425
000250 33 9a 9b 3d fa 5c 0f 3c 5b 06 4f 3d 81 f0 1e bd
       0.075977705 0.008750195 0.05054317 -0.03880358
000260 75 5c e6 3d fc 12 2b 3e b6 91 07 3c 7b 94 f2 3d
       0.112481035 0.1670646 0.008274486 0.11844727
000270 d0 6b cf ba 55 29 05 3e f4 6c 5a 3d cb f4 27 3e
       -0.0015824977 0.13004048 0.053326562 0.16401975
000280 f3 52 77 3c 60 ad c2 3d 7d 01 03 3e eb 3e ea 3d
       0.01509546 0.09505725 0.12793536 0.11437782
000290 41 8e 55 3a bd 26 46 bb 3e a6 b0 3d b9 49 9c 3c
       0.00081465027 -0.0030235492 0.08625458 0.019078122
0002a0 1d 98 10 3d d5 66 f9 3d 2d 62 42 3d 29 2c 99 3d
       0.035301317 0.12177817 0.04745691 0.07479126
0002b0 ed b7 ec 3d 4d 70 2d 3e e8 d8 e5 3d 0a 0a d5 3c
       0.115585186 0.1693737 0.11223012 0.026005764
0002c0 9d e2 ab 3c 70 14 7f bd 5f 0e a8 3d 4e b4 41 bd
       0.020982081 -0.06227535 0.08205866 -0.047291093
0002d0 bb 1d 3b bd f1 da 25 3e bd 29 90 bc a2 5b aa 3d
       -0.04568265 0.16196801 -0.017598027 0.08318259
0002e0 aa 12 e5 3d c4 23 05 bd 0e f4 88 3d 4f 3f 1d bd
       0.111852005 -0.032504812 0.06687175 -0.038390454
0002f0 67 7f 55 3b 10 be 68 bd 79 99 58 3e 4f 60 98 3d
       0.0032577158 -0.056821883 0.21152295 0.074402444
000300 07 37 bc bc ae 7c ee 3d 25 b8 8a 3d 64 a3 13 bd
       -0.022975458 0.116448745 0.06773404 -0.036044493
000310 67 d9 25 3e 2c f7 8f 3d d0 ac ae 3d ec 63 ca bc
       0.16196214 0.07029566 0.08529055 -0.02470585
000320 98 3e fb bc d6 25 28 3d ee 0a 64 bc 82 70 14 3c
       -0.030669495 0.04105171 -0.013918621 0.009060027
000330 66 cd 19 3e 97 52 cb 3d 7f 4e c3 3c d0 72 96 3d
       0.1501976 0.09927862 0.02384114 0.073461175
000340 c2 c5 bd 3d 70 8f dc bc 45 95 c0 3d b8 9f e7 3d
       0.09266235 -0.026923865 0.09403471 0.11309761
000350 bd 96 02 3d fa 7a 9e bc 34 da 20 3d 1f 74 c6 3d
       0.031882036 -0.01934575 0.039270595 0.09690117
000360 5d 1d a1 3d d7 86 9d 3d 99 e5 ef 3d 2f cc ee 3d
       0.07866929 0.07691734 0.11713714 0.11660039
000370 d2 81 f8 3d 54 2f 7a 3d c2 3f 6b 3b a8 fc b2 3d
       0.12134136 0.061080292 0.0035896157 0.087395966
000380 a7 f2 1a 3e 2c 22 3a 3e 1e 32 f8 bc 2d 51 bc 3d
       0.15131627 0.18177098 -0.030297335 0.091951706
000390 7a c4 d5 3d b6 fb 13 bd 81 31 36 3d c8 f7 d8 3d
       0.104378656 -0.036128722 0.044480804 0.105941355
0003a0 88 ea c9 3d e6 d6 bf 3d 8e e8 34 3e 50 48 c3 bc
       0.098591864 0.093671605 0.17666838 -0.023838192
0003b0 dc ec b0 3d 10 2a eb 3d 7c f8 09 3e 49 46 10 3d
       0.08638927 0.11482632 0.13473696 0.03522328
0003c0 cf da 3f 3e 4d 0c b4 3d 35 71 ef 3d b8 85 7f bc
       0.18735813 0.08791409 0.116915144 -0.015595846
0003d0 8b 89 3b bc 0f 21 f7 3d 9d c1 f5 3d ae 6d 10 3e
       -0.011446367 0.12066852 0.119998194 0.1410434
0003e0 ea 7d 1f 3e 8f 75 eb 3d be 6e b4 3d 06 33 07 bd
       0.15575376 0.11497032 0.08810185 -0.033007644
0003f0 a6 4a 12 3e 3e 2a 09 bd ff a7 13 3e 11 fe 3a 3e
       0.14286289 -0.03348755 0.14419554 0.18260981

fc3.weight f4 [2, 256]
000000 1e 5e f2 be ea 74 aa be 69 f7 85 3e 9e 0e a8 be
       -0.4733743 -0.33292323 0.2616532 -0.32823652
000010 10 1b 8e bc 79 50 1f 3c e6 62 42 3f 97 2d dc bc
       -0.017346889 0.009723776 0.7593216 -0.026877208
000020 ca e3 02 bf 2f fd ba 3e f5 87 61 bc f4 49 ee 3c
       -0.5112883 0.3652129 -0.013765325 0.029087998
000030 47 eb c7 3e 22 6d 39 be 5f 51 04 bf af 89 a4 3e
       0.3904669 -0.18108037 -0.5168666 0.32136294
000040 bf b3 d5 be a4 27 9d be 25 43 8e 3e 5e 76 c4 bd
       -0.41738698 -0.30694306 0.27785602 -0.09592889
000050 70 2a 97 bc 8b 9d 82 3e aa c1 fb bc f3 57 fd 3d
       -0.018452853 0.2551082 -0.030731995 0.123702906
000060 f0 ab 54 be 05 c6 30 be 23 c1 9a 3e 94 88 ac be
       -0.20768714 -0.17263038 0.30225477 -0.3369795
000070 9d ca d3 be 63 87 bd bc f5 38 4e bf 31 9f 01 bf
       -0.4136552 -0.023135846 -0.8055566 -0.5063353
000080 d1 b3 9f be 9e a1 b7 be 46 f3 45 bc 4a 86 13 3d
       -0.31191877 -0.35865492 -0.012081927 0.03601674
000090 ae 15 81 3e 58 a2 c8 be bf ed bb 3e ba 7c 5c 3b
       0.25211853 -0.39186358 0.36704823 0.0033643679
0000a0 bf c3 bb bd 13 f8 a2 3a 59 7d 1b 3c cf 75 c5 3d
       -0.09168195 0.0012433551 0.009490334 0.09641611
0000b0 81 a9 46 be 00 06 0c bf 66 61 8e 3e c6 1f b5 3e
       -0.19400598 -0.54696655 0.27808684 0.35375804
0000c0 43 42 07 bf 3b 1f 8a 3e 36 af bc be 7a 8a ce 3b
       -0.5283548 0.26976952 -0.36852425 0.006303129
0000d0 23 2a 06 bd b1 e1 c5 3e 32 95 a3 3e 6e 36 8a 3e
       -0.03275503 0.3864875 0.31949764 0.26994652
0000e0 a1 18 e1 bd 9a 05 71 3e 86 ad 8c 3e 16 20 0e bd
       -0.10991026 0.23537293 0.27476138 -0.03469857
0000f0 1a 11 aa 3e 1f 85 b7 be 6b 03 f4 be 06 b7 bb be
       0.33216172 -0.3584375 -0.47658858 -0.36663073
000100 74 61 dc 3d 4c b7 95 3e 09 bf 0c bf dc ca 01 bc
       0.10760775 0.29241407 -0.54978997 -0.007921901
000110 16 57 6e 3e ec b6 78 3e c1 7c f6 3d 43 5b 72 bd
       0.23275408 0.24288529 0.12035514 -0.059169065
000120 48 fb a1 be 8e 16 52 3c a0 0e 09 be ef 42 98 3e
       -0.31637025 0.01282276 -0.13384485 0.29738566
000130 a5 ec e4 3c 11 f3 f1 bb 46 88 15 be d1 2f 8f 3e
       0.027944872 -0.007383712 -0.14602765 0.2796617
000140 dd 0b 71 3e 53 06 9f bd b9 8b 16 bd 46 58 a5 3e
       0.23539682 -0.07764878 -0.036754344 0.3229391
000150 d2 bf ee be ce 58 ba 3e 95 10 be be b6 01 aa 3e
       -0.46630722 0.36395878 -0.37122026 0.3320443
000160 1a b8 d7 be 3a 97 ba 3e 94 13 8f 3c d7 27 90 3e
       -0.42132646 0.36443502 0.01746539 0.28155395
000170 ea 67 19 3d db be 42 be fa d1 8c 3e 0f a4 c6 3e
       0.037452616 -0.19018118 0.2750395 0.38797042
000180 fc f6 71 3e 1c 98 71 3e 34 f5 a6 3e 02 00 4e be
       0.23629373 0.23593181 0.3260895 -0.2011719
000190 e1 c5 0d bd 8f 55 97 3e a5 04 8f 3e 88 16 24 3f
       -0.03461254 0.29557464 0.2793323 0.6409688
0001a0 4c b6 d4 3e 69 25 a7 3e 24 94 82 3e 55 9b 8a 3e
       0.4154533 0.3264573 0.25503647 0.27071634
0001b0 b2 bf c4 be 0f 4f 66 bc 74 eb 08 3d df e6 9c 3c
       -0.38427502 -0.014056935 0.03342767 0.019153057
0001c0 8a d4 b7 3e 95 f5 03 3f fe b5 89 be 8e a8 d7 bc
       0.35904342 0.51546603 -0.26896662 -0.02632549
0001d0 e3 c0 f1 be 09 e0 97 3e ef 46 80 3e 9b 8b 84 3e
       -0.47217473 0.29663113 0.25054118 0.2588776
0001e0 ec 46 01 bd ec 5f 87 3e 3d cc bd 3c cc 72 c3 be
       -0.031561777 0.2644037 0.023168677 -0.3817352
0001f0 68 dc 41 3e 48 55 22 be ae 21 8f 3e 5c 08 01 bd
       0.18931735 -0.15852845 0.27955383 -0.031502113
000200 1f ab 8b 3e 42 22 8f be da 07 84 3e e3 0c c5 be
       0.27278993 -0.27955824 0.2578724 -0.38486394
000210 d2 30 f6 be 91 75 a0 3e 02 4b 76 3e 18 f2 fc be
       -0.48084122 0.31339696 0.2405205 -0.49403453
000220 95 fd a2 3e 2f a0 d1 be a2 a2 95 3e fb dd f2 bd
       0.31834093 -0.40942523 0.2922564 -0.11858746
000230 6d 1a 70 3e 80 14 ab 3e 45 cd 8b be 80 16 43 be
       0.2344758 0.33414078 -0.27305046 -0.19051552
000240 1e 51 8c be 0f 70 92 3e 88 ae 8c 3e 92 3a a6 3e
       -0.27405638 0.2860112 0.27476907 0.3246656
000250 f7 4a ab 3e c9 fb 1d 3d e1 c4 90 3e 95 c8 e4 be
       0.3345563 0.0385702 0.28275207 -0.44684282
000260 82 a3 ba 3e 7d 1c 80 3e fa e3 1c bc 5f a4 94 3e
       0.36452872 0.25021735 -0.009575838 0.29031655
000270 9b 46 f6 be 19 a0 91 3e 50 ce a6 be f9 95 76 3e
       -0.48100743 0.28442457 -0.3257928 0.24080648
000280 ca 10 8d 3c 93 0a a5 3e 56 c2 aa 3e 30 fc 3d be
       0.01721992 0.3223463 0.33351392 -0.18553233
000290 72 4c fc 3e 92 b6 b8 ba b3 66 fb 3c fd 9b fa bc
       0.49277073 -0.0014092496 0.03068862 -0.03059196
0002a0 b4 75 b5 3e 0b ac b5 3e 3e 11 9f 3e 71 af 81 be
       0.35441363 0.3548282 0.31067842 -0.25329164
0002b0 2e 2c b2 3e 5d 2d 97 3e 7e a9 90 3e fe 54 0d bc
       0.3479933 0.29526797 0.28254312 -0.008626221
0002c0 df fc 0a bb 17 d1 c1 be ab 7a ca 3e 5a 29 da be
       -0.0021207852 -0.37854835 0.39546713 -0.42609674
0002d0 0b 86 f5 be 7c 32 a2 3e f0 e6 d3 bc 13 a3 b3 3e
       -0.4795383 0.31679142 -0.025866956 0.35085353
0002e0 be 4f b0 3e da dd ee 3c ba 60 b4 bd 13 9f 9e 3b
       0.34435838 0.029158521 -0.08807512 0.0048407405
0002f0 89 af b1 be ce d7 47 be c9 9d bb 3e 75 25 aa 3e
       -0.34704235 -0.19515917 0.36643818 0.33231702
000300 b9 00 8d bb e4 ce a4 3e 7e a4 ab 3d 01 52 00 3d
       -0.0043030647 0.32189095 0.08380984 0.031328205
000310 87 ff 7a 3e 53 d7 96 3e 1a d1 91 3e 30 f0 5a 3c
       0.24511538 0.29461154 0.28479844 0.013362929
000320 94 19 18 3d 9e 92 d4 3e 6c a6 d1 be 14 77 b1 be
       0.03713377 0.4151811 -0.40947282 -0.34661162
000330 da b9 98 3e 14 d8 3d be 27 7d 07 bd 3d 51 92 3e
       0.29829293 -0.18539459 -0.03307834 0.28577605
000340 80 f8 91 3e b4 f2 9b 3d e4 db 9c 3e 23 cd 9d 3e
       0.28509903 0.07614651 0.30636513 0.3082057
000350 d8 49 12 bd 94 ea 0b bd 6e eb 96 be 1f 1f af bd
       -0.035714954 -0.034159258 -0.29476494 -0.08550858
000360 58 63 ce 3e 9b af 99 3e 4f 67 88 3e 67 f0 a4 3e
       0.40310168 0.3001679 0.26641318 0.32214662
000370 3a fc 85 3e d6 28 d8 3d 8d 7d 01 be c5 8c f1 be
       0.26168996 0.10554664 -0.1264555 -0.4717771
000380 5e d6 80 3e e9 a3 87 3e 1b 97 ed bd 08 48 c8 3e
       0.2516355 0.2649224 -0.11601087 0.39117455
000390 6b d5 8e 3e 1e 15 10 bd 76 06 2c 3f 67 ab 49 be
       0.278972 -0.03517639 0.6719736 -0.19694291
0003a0 38 b3 de bd 21 8e 9e 3e 83 06 70 3e 0c 3c 68 3c
       -0.10874027 0.3096781 0.23439984 0.014174473
0003b0 8f 05 74 3e 16 66 92 3e c5 1a a3 3e b3 3d 7e 3e
       0.23830245 0.2859351 0.3185636 0.24828224
0003c0 b0 5c 86 3e eb 18 82 3e 23 f1 4b be 42 6a a2 be
       0.2624259 0.25409636 -0.19916205 -0.31721693
0003d0 52 d3 1b bd 07 d9 8e 3e 34 b3 96 3e 2d cb 40 3e
       -0.038043328 0.27899954 0.29433596 0.18827505
0003e0 d9 ed 03 3e d2 d1 86 3e 5e 1c 97 3e 12 01 ad bc
       0.128837 0.26331955 0.2951383 -0.021118674
0003f0 c7 7d 80 3e 9b 8c a4 3c d4 79 a6 3e e9 c4 9b 3e
       0.2509596 0.020086577 0.32514822 0.30423668

fc3.bias f4 [2]
000000 14 c8 fb 3d b5 fa 3b 3d
       0.12294021 0.04589339
